model/model.pth (torch, 16787 bytes, 4 tensors)

linear1.weight f4 [256, 11]
000000 47 93 9d be a8 24 95 3d 03 c3 23 3b 1b a5 58 3e
       -0.30776426 0.07282382 0.0024988062 0.21156733
000010 c8 70 99 3e 0c 40 8f be 54 61 d4 be 80 7d cd 3e
       0.29968858 -0.2797855 -0.41480505 0.4013481
000020 b6 b0 4e 3e 8d 52 55 be 8b 20 37 be 42 a3 1c be
       0.20184597 -0.20832272 -0.17883508 -0.15296653
000030 2b f0 a5 be 01 82 11 3f c6 23 ac 3e 5d 51 9d 3e
       -0.32409796 0.56838995 0.33621043 0.30726138
000040 c1 4f c8 3d 33 de ac 3d ab a4 eb bd 04 ce 6f be
       0.09780837 0.08440819 -0.11506017 -0.23418432
000050 97 83 00 3e b7 c3 87 3e 1c e2 60 bd 23 8e ef bc
       0.12550198 0.26516506 -0.054903135 -0.02924258
000060 c2 c4 99 be 3c b8 d9 3d 03 e6 ab 3d f5 df 27 bd
       -0.30032927 0.10630843 0.08393481 -0.040985066
000070 ff ac 20 be 9a a9 6b be a4 28 1a 3e 7b b5 3c bc
       -0.15690993 -0.23013917 0.15054566 -0.011517878
000080 66 05 17 bd 27 22 a2 3d ef c7 f6 3e df 62 4a be
       -0.036870383 0.0791667 0.48199412 -0.19764279
000090 a5 bf ac 3e b7 bb da 3c 42 0a ef 3e 46 b7 7e be
       0.33739963 0.026700838 0.46687514 -0.24874601
0000a0 30 90 a9 3e 9c 84 a1 be e0 50 9f bd 09 40 f3 be
       0.3311782 -0.31546485 -0.077790976 -0.47509792
0000b0 ec 3e e5 3e 8f f2 c1 3e 59 13 b2 be a5 73 c2 3b
       0.44774568 0.3788037 -0.34780386 0.005934196
0000c0 d0 36 85 be e2 54 f3 3d 5d f2 ee 3d 41 c9 a0 3d
       -0.2601838 0.118814245 0.11667321 0.07850886
0000d0 52 ef e4 3e 2c 09 86 3e 49 cc c3 bb 27 fa b8 3e
       0.44713837 0.26178873 -0.0059752804 0.3612835
0000e0 9d 0c 72 be 0e 6e 66 3e 02 dd 79 3e a1 67 29 3c
       -0.23637624 0.2250292 0.24400714 0.010339648
0000f0 a9 eb 85 3e 3b 33 d1 bd f2 28 39 be 61 13 59 3e
       0.26156357 -0.102148496 -0.18082026 0.21198799
000100 fc 4f 07 be f1 00 37 3e ce c2 90 be 1e 3a 9d 3e
       -0.13214105 0.17871453 -0.28273624 0.30708402
000110 a4 c2 7f 3e 8f 89 ae bd 4d bc f7 bc 0a 3d 6e 3e
       0.24976593 -0.08522331 -0.030241156 0.23265472
000120 94 ab 2f be 7a cc 30 3e d4 83 f8 3c 2f e6 8b 3e
       -0.17155296 0.17265502 0.030336298 0.27324054
000130 13 77 58 3e a5 b4 80 be 5e d3 ac 3b eb fa fb 3e
       0.21139173 -0.2513782 0.0052742204 0.49214873
000140 bd 59 b3 3e fe c8 90 be 47 1a 32 3e 1a 18 c9 3d
       0.35029402 -0.28278345 0.17392837 0.0981905
000150 92 55 46 be 26 7f d7 be f4 68 83 3d 6d 77 9f 3d
       -0.1936858 -0.42089194 0.064165026 0.077864505
000160 40 7c a1 be df 2c 08 3f df 5a 53 bd 1e 81 a3 3e
       -0.31540108 0.5319347 -0.051600333 0.31934446
000170 b9 f5 c9 3d 9b d9 8d be 9c 52 2c 3c 4c 29 71 3e
       0.09861321 -0.27705082 0.0105177425 0.2355091
000180 bb 63 ea 3e f8 a6 35 be 30 7e 4a be 45 0d 56 3e
       0.45779213 -0.17739475 -0.19774699 0.209035
000190 0f 32 98 be 5c ec 90 3e 55 5b 6a 3e ad 3f 9f be
       -0.29725692 0.28305328 0.22886403 -0.31103268
0001a0 a3 d3 6f 3e 88 19 b7 bd 53 07 b1 be d3 19 07 3f
       0.23420577 -0.089404166 -0.345759 0.5277378
0001b0 62 3e 7e bd ad 23 e2 3d d2 37 5d 3e 6f 8b 5b be
       -0.06207121 0.11041961 0.21603325 -0.21439908
0001c0 f5 35 da 3d c5 bd 86 3d 3e fa 08 3e 4e ec 5e be
       0.10654823 0.065791644 0.1337671 -0.2176983
0001d0 02 00 36 bd aa 23 94 be 9a 45 bf be 92 78 1f 3d
       -0.0444336 -0.2893346 -0.3735779 0.038933344
0001e0 4b 87 ed bd e2 71 af bd 19 67 0e 3f f7 81 01 be
       -0.11598071 -0.08566643 0.55626065 -0.12647234
0001f0 0d d5 ad 3e f3 f8 37 be 92 f5 c9 bd f7 b1 a7 be
       0.33951607 -0.1796606 -0.09861292 -0.32752964
000200 29 04 03 3f ff ae 81 3e a2 82 2f be ea 54 d3 bd
       0.5117822 0.25328824 -0.17139676 -0.103189304
000210 f2 5d e5 3b 87 a0 c4 bb 6f 86 18 3e c3 b2 02 be
       0.0069997245 -0.0060005817 0.14895032 -0.12763505
000220 a5 67 33 3d 54 49 8e be 38 8a cc 3d 1d 63 1e 3e
       0.043800015 -0.2779032 0.09987301 0.15467496
000230 8d 18 bd be d7 f1 92 be 82 77 25 bd 29 6e 40 be
       -0.36932793 -0.28700134 -0.040397175 -0.18792023
000240 56 12 dd 3e 08 a6 cc 3d 82 4d 7b 3e 9f ba e2 3e
       0.43178052 0.099926054 0.24541286 0.44283006
000250 8e b6 cb be a0 e5 71 bd 8e 97 67 3e 8d e5 28 3e
       -0.39787716 -0.059056878 0.22616407 0.16493817
000260 b3 2f 84 3d 50 fd 67 be b7 69 ac 3e 96 fe c8 be
       0.064544104 -0.22655225 0.33674404 -0.39256734
000270 42 97 ba 3e 56 80 b9 3e 8a 86 85 3e 39 02 6b bd
       0.36443526 0.36230725 0.26079208 -0.057375167
000280 ec 55 d7 bd 01 21 3e be 9f e4 e0 bd 39 09 79 3e
       -0.10514435 -0.18567277 -0.10981106 0.24319924
000290 fa f0 6b 3e 39 c7 e9 bd 78 1a 63 3e 35 54 5a 3e
       0.23041144 -0.11414952 0.22178066 0.21321185
0002a0 d5 f4 87 3d 7b 26 af bd db db 6e 3e 09 06 1d 3c
       0.06638495 -0.085522614 0.23326056 0.009583958
0002b0 1d f9 b5 3d 42 f2 32 3d 89 81 41 be 42 2e e4 bc
       0.08885405 0.043688066 -0.1889707 -0.027854089
0002c0 e6 23 86 be ec 6d ae 3e 00 a8 78 3e 41 4d d9 bd
       -0.26199263 0.3406824 0.24282837 -0.10610438
0002d0 1c 28 45 bd 6a 8a b6 3d 8b 2b 93 3e 58 02 0d 3e
       -0.048133954 0.08913119 0.28744158 0.13770425
0002e0 27 fb 25 3e f1 61 83 3d 54 3f 6e 3e e9 de f3 be
       0.16209088 0.06415165 0.23266345 -0.47631004
0002f0 f2 e1 e4 3e e2 39 46 bb cf e1 8a 3e ba c2 50 3e
       0.44703633 -0.0030246903 0.27125403 0.20386782
000300 7e 64 0b 3e cd 64 1a 3e 85 aa af 3d 07 de 47 bd
       0.13612553 0.15077515 0.08577446 -0.048795726
000310 1b ea 6b 3e b0 7e bd 3d b4 2d d2 bd cb ca f1 3e
       0.23038523 0.09252679 -0.102626234 0.4722503
000320 7d 82 b8 3e 2c b9 4b 3c dd d6 90 3b 6a 5e 84 bd
       0.36037055 0.012434285 0.004420145 -0.064633206
000330 2d 9c 2e be c0 20 a7 bd 4a 04 d0 3e e6 dd 75 bd
       -0.17051764 -0.081605434 0.40628272 -0.060026072
000340 f1 f4 66 be 77 14 0d bc f2 72 56 3e 90 b6 06 3f
       -0.22554375 -0.008610836 0.20942286 0.5262232
000350 a6 e6 e5 bd 06 72 64 3e 2d ce b5 3e c4 12 c3 be
       -0.11225633 0.22309121 0.35508862 -0.38100255
000360 15 80 a2 be 98 ee 62 3e 4b 25 36 3e 1a d0 a1 be
       -0.31738344 0.22161329 0.17787664 -0.3160408
000370 1c 2f 2f be 2b b9 c3 bc 16 89 13 bf fc a1 82 be
       -0.17107815 -0.023892006 -0.5763105 -0.2551421
000380 84 00 b0 3d cf 73 21 be 93 49 4d 3e fa 29 9a 3e
       0.08593848 -0.15766834 0.20047598 0.3011015
000390 97 93 a7 be ca 7c 3f 3e 0d 74 2e be aa 94 67 3e
       -0.3272979 0.18699947 -0.17036457 0.22615305
0003a0 65 37 dd be c5 05 c5 3e 63 2d 9e be a4 26 45 bd
       -0.43206325 0.38480964 -0.30894002 -0.048132554
0003b0 05 ef 74 be 9a b4 09 3e 43 0b 67 3e ec 46 0a be
       -0.23919304 0.134478 0.2256289 -0.13503617
0003c0 7d 03 99 3d 64 26 9c 3d e3 0a ad 3e bc 0c dc be
       0.074713685 0.0762451 0.33797368 -0.42978466
0003d0 60 3c 89 3d 57 ee ec 3b 35 bb f5 bd e4 8c 08 be
       0.06700969 0.0072305608 -0.119985975 -0.13334996
0003e0 86 80 b1 bb 06 ea 31 be e1 0f 5e bd 7a ac 0c 3d
       -0.0054169325 -0.17374429 -0.054214362 0.034344174
0003f0 9d 6c 64 3e b5 4c 0d be 76 ad 90 be 93 66 1c 3e
       0.22307058 -0.13798793 -0.2825734 0.15273504

linear1.bias f4 [256]
000000 81 5f 07 bc 1c 8a 0f 3e 72 f0 88 be 6c 38 de 3a
       -0.008262516 0.14017528 -0.26745945 0.0016954071
000010 9f e6 bd bd f4 28 93 bd dc 7f 8b 3e 52 6f 44 3e
       -0.09272503 -0.071855456 0.27245986 0.1918309
000020 04 58 13 be d2 bb 22 be 51 e4 1e 3e 84 59 14 be
       -0.14389044 -0.1589196 0.15516783 -0.14487273
000030 48 6e 17 be 67 ca 3b be 34 c5 57 be 08 ef 7d 3e
       -0.14788163 -0.18338929 -0.21071321 0.24798214
000040 07 46 22 bc ae d8 69 3d f5 c1 55 3d 8d fd a5 3d
       -0.009904391 0.057091407 0.052186925 0.081050016
000050 30 8b 9e bd 12 49 aa 3d 0c 8d 30 3e 0d 28 64 be
       -0.07741392 0.08314718 0.17241305 -0.22280903
000060 50 d4 89 be f2 ac 18 3d b6 a2 5d 3e 95 8f e8 bb
       -0.26919794 0.03727431 0.216441 -0.0070971944
000070 5e f2 02 be 74 d5 39 be fb 99 43 be ce 9b a3 be
       -0.12787768 -0.18147832 -0.19101708 -0.31954807
000080 c3 b2 ee bd bc 01 e3 3d c6 e8 f6 3c 02 0e 99 3e
       -0.1165519 0.11084315 0.030140292 0.298935
000090 ab 9a 28 be 64 b7 87 3e 93 c2 b5 be b4 53 d3 bd
       -0.16465251 0.26507103 -0.3550001 -0.103186995
0000a0 7b a4 08 be 04 f6 6d 3e b0 a5 04 3e 04 0c 68 be
       -0.13343994 0.23238379 0.1295383 -0.22660834
0000b0 5e 94 b5 3e 1b 2d 5e 3d d4 4c 5e be d4 66 b6 3d
       0.35464758 0.054242235 -0.21708995 0.08906332
0000c0 96 af 40 be de 3f e9 3d 40 d9 45 be e9 0b 98 bc
       -0.1881698 0.11389135 -0.19321156 -0.018560367
0000d0 f1 eb df 3c 36 53 bd bd bd ae 02 3e 4a 09 d7 bd
       0.027334185 -0.09244387 0.1276197 -0.104998186
0000e0 05 13 55 3e 23 5f 0a 3d 67 c9 7b 3d 59 27 b0 bc
       0.20808037 0.033782136 0.06147137 -0.021503137
0000f0 1f 05 99 be 0a 96 26 be d4 bf 8a be 02 af 8d 3d
       -0.2988672 -0.16268173 -0.27099478 0.06918146
000100 4a cd ba 3e 4e 4e 91 3e 39 6e f0 3d 73 d1 3c be
       0.36484748 0.28380054 0.11739773 -0.18439274
000110 69 2d b3 bd 81 98 7a be be 85 b4 3e 60 3b 85 be
       -0.08748896 -0.24472238 0.35258287 -0.26021862
000120 82 a4 2f be b0 93 21 bd 53 35 de bd 07 75 d6 3e
       -0.17152599 -0.039447486 -0.108500145 0.4188616
000130 09 35 b1 bd d4 e6 85 3e 5f 53 18 3e cd 18 69 3c
       -0.08652694 0.2615267 0.14875554 0.014227104
000140 61 df c1 bd d5 00 f2 bd 72 29 ae 3c 8b e8 8b 3c
       -0.09466434 -0.11816565 0.021259997 0.017078659
000150 a6 69 33 3e ea 9a e4 3d 1c 80 c9 bd 5f 49 65 be
       0.1752077 0.1116236 -0.09838888 -0.2239127
000160 dd 8f 16 3e a5 bc 54 be d0 1c 2e be 17 63 7f bc
       0.14703317 -0.20775087 -0.17003179 -0.01558759
000170 52 38 5d bc 4e b3 ae 3e d4 39 5a be 9c c7 24 be
       -0.013502197 0.34121174 -0.21311122 -0.1609177
000180 1b 1e e1 3d 67 49 6b bd 06 ea 0c 3d b2 57 a5 bd
       0.1099207 -0.05744305 0.03440287 -0.08073367
000190 e2 84 94 be b1 4e 4f be 25 62 06 bc 7f 31 28 be
       -0.29007632 -0.20244862 -0.00820211 -0.16425131
0001a0 fd c2 16 bd 89 2e 9a 3d 25 80 ec bc b2 1c 43 bc
       -0.03680705 0.07528407 -0.028869698 -0.011908697
0001b0 c6 df 38 bd 1d 6f 82 3e 2b 2a 4b be ab da 07 3e
       -0.045135282 0.25475398 -0.19840305 0.13267009
0001c0 0a 17 3d 3e 4a 22 de 3c 97 3c 89 3e 88 ee 8f 3d
       0.1846582 0.02711596 0.2680404 0.07027918
0001d0 b9 db 44 be 52 3b 17 be b7 35 c5 bd e1 b5 db 3d
       -0.19224443 -0.14768723 -0.09629386 0.1072805
0001e0 44 06 81 be cc 94 49 3e 30 43 02 be cd 8b 34 3e
       -0.25200093 0.19685668 -0.12720942 0.17631455
0001f0 fb 7f 31 bd 37 e7 95 3d f8 52 27 3e 72 ab 2c bd
       -0.043334942 0.07319491 0.16340244 -0.04215569
000200 c0 0b 71 bc 2d 4c 58 3c 6d 85 9d be 42 81 c1 be
       -0.014712274 0.0132017555 -0.30765858 -0.37793928
000210 91 68 99 bd 25 1e 1f be 20 bf bb bc 9c 27 ad 3e
       -0.074906476 -0.15538843 -0.022918284 0.33819282
000220 5b c6 bc bd 9d 99 cf bd 92 68 85 3d e4 ef ad bd
       -0.09217521 -0.10136721 0.06514086 -0.08493021
000230 b3 f8 52 be 44 7b 3c be d4 c3 c5 3e c6 b0 db 3d
       -0.20602684 -0.18406397 0.38625968 0.10727076
000240 58 e7 ec bd 03 8d 46 be e3 25 e5 bd b9 0b 8c 3e
       -0.11567563 -0.19389729 -0.11188867 0.27352694
000250 34 cc b1 bd e3 35 b6 3d 8a bb c8 3e 6b c7 a2 be
       -0.08681527 0.08896997 0.3920558 -0.3179277
000260 05 0f 8b bd e4 b5 10 3c 0d a6 9c 3e a5 2e ac bd
       -0.06789974 0.008832429 0.30595437 -0.08407334
000270 81 49 d1 3c 3e 48 3c be da 5f 2b bd 24 b6 4d be
       0.025547745 -0.18386933 -0.041839458 -0.20089012
000280 9b 67 63 be 73 ce ca 3b 71 5a a0 3d a7 0d 99 3d
       -0.22207491 0.0061891614 0.0782975 0.07473307
000290 bd 4d 81 3e 5d da 69 bd 87 0a 5b 3e 57 ce 92 be
       0.25254622 -0.057093013 0.21390735 -0.2867305
0002a0 14 cb 80 3c 7e ce 0a be 99 c1 5f 3e 1c 75 ca bd
       0.015721835 -0.13555333 0.21851195 -0.09885618
0002b0 46 54 05 3e 7b c8 18 3e 8c 9a 82 be f2 21 d8 bd
       0.13020429 0.14920227 -0.25508535 -0.105533496
0002c0 c6 f1 86 be b3 57 2a 3e e6 a3 52 be 8a cb 74 be
       -0.26356333 0.16635017 -0.20570335 -0.23905769
0002d0 61 f9 10 be 75 73 0f be c9 26 1e 3e 99 ef be bd
       -0.1415763 -0.14008887 0.15444483 -0.093230434
0002e0 4e 16 2b 3d 25 99 34 3d f2 8b c7 3d 1f 7a 9f be
       0.04176932 0.044091363 0.09743489 -0.31147859
0002f0 82 b4 91 be 8e 4f b8 3e 9f 2c 96 be 44 fa be bd
       -0.2845803 0.35998195 -0.29330918 -0.09325078
000300 bb 32 82 bc 57 8e 41 be 67 50 eb 3d 27 5f 24 be
       -0.01589333 -0.18901955 0.11489945 -0.16051923
000310 99 e1 98 3d 14 6b 12 be 6c 09 18 be 87 06 3c 3e
       0.07464904 -0.1429866 -0.14847344 0.18361865
000320 f1 30 63 be 82 34 aa bd dd 0a 00 be 55 e5 a1 3c
       -0.22186638 -0.08310796 -0.12504144 0.019762674
000330 d4 13 30 3e 59 b7 14 bd 69 e3 91 be 63 bc 99 3d
       0.17195064 -0.036307666 -0.28493813 0.07506635
000340 23 8f b9 3d 96 f7 62 be 1b 0d b4 3e 6a b0 9a 3c
       0.09060504 -0.22164759 0.3516625 0.018882949
000350 72 3e 6b be 35 83 5c be 59 38 ef 3c be bb 74 bc
       -0.2297304 -0.21534427 0.029201673 -0.014937339
000360 ba 8d 9b be 63 94 31 be dc c2 ab be 26 ab 39 bd
       -0.30381566 -0.17341761 -0.33547103 -0.045329235
000370 36 4e 0c 3c 07 30 ac bd 45 33 5e be 0a 69 e1 bd
       0.008563569 -0.08407598 -0.21699245 -0.11006363
000380 2b 35 ad 3e 5b e5 2e be fb 9b 05 bc d4 e0 fe bd
       0.33829626 -0.1707968 -0.008154864 -0.12445226
000390 ba 15 0a be 63 33 29 3e 6f 2d 6a 3e ef 69 a1 3d
       -0.1348485 0.16523509 0.22868894 0.07881533
0003a0 78 e0 f1 bc 9d 45 af bd 0d b0 c7 3d ff a2 70 bb
       -0.02952598 -0.085581996 0.09750376 -0.0036718247
0003b0 98 aa 37 3e ca f1 02 be 21 1b 1a 3e 37 b7 b3 be
       0.1793617 -0.12787548 0.15049411 -0.3510072
0003c0 8d 4c 59 bd 76 da ea bd a7 34 49 be df 45 3d 3e
       -0.05305152 -0.11467449 -0.19648992 0.18483685
0003d0 c9 3d a6 3d da fc 58 be 64 8d ca bc 22 1c f9 3c
       0.08117253 -0.21190205 -0.024725623 0.030408923
0003e0 a7 a4 00 3d 46 e3 93 3e 49 f1 9c bd 42 78 14 be
       0.031407025 0.28884333 -0.07663209 -0.14499
0003f0 19 6b 95 be c3 c5 1a be 2a 98 dd 3e e2 c6 e4 bd
       -0.29183272 -0.15114503 0.43280154 -0.111707464

linear2.weight f4 [3, 256]
000000 89 80 d3 3e 7c f2 65 3e dd c0 db bc f7 e6 b5 3e
       0.41309002 0.22455782 -0.026825363 0.35527775
000010 7c 86 a2 be a9 f4 25 be 17 d0 13 3d f6 9f bb 3e
       -0.31743228 -0.16206612 0.03608712 0.36645478
000020 9a 75 3c 3e 10 97 a7 be 12 38 8a be ee 63 38 3e
       0.18404236 -0.3273244 -0.26995903 0.1800687
000030 dd 5c 81 bd 56 52 c0 3d e7 95 b0 be d3 94 83 3d
       -0.063165404 0.09390704 -0.34489366 0.0642487
000040 62 28 80 bd 85 a7 17 3e 1e 17 c5 bb 3f e0 96 3e
       -0.062577024 0.14809997 -0.0060147187 0.2946796
000050 ba 28 34 be d2 8a d8 bc 44 5b 01 bd 62 3f 8c 3d
       -0.17593661 -0.026433382 -0.03158118 0.06848027
000060 dd 0d 71 be 88 9e c5 be a7 db 83 3e 0c 74 ae be
       -0.23540445 -0.38597512 0.2575352 -0.34072912
000070 77 f2 99 be 67 d9 67 be 57 5c 38 3e ce ef f6 bd
       -0.30067798 -0.22641526 0.18003975 -0.12057458
000080 e3 53 62 be 67 bf 83 3e 9a 68 78 be 50 b0 0b 3f
       -0.22102313 0.25731966 -0.24258652 0.54565907
000090 3e e5 c6 bd 06 4a cf 3c b3 53 9a 3d fe c0 62 be
       -0.09711693 0.025303852 0.075354956 -0.22143933
0000a0 f8 6a 0a bf 2f 20 61 3d ea 81 80 3e c9 9b 07 be
       -0.5406947 0.054962333 0.25099117 -0.13243021
0000b0 80 fa 8b 3e 63 1f 4a be 9c 2a b1 be 83 3f af bd
       0.27339554 -0.19738536 -0.3460282 -0.08557036
0000c0 d5 6d 4a 3e 58 29 7d 3e 01 82 76 be 12 be 82 3e
       0.1976846 0.24722803 -0.2407303 0.25535637
0000d0 a1 67 82 3e a1 d9 b9 bd 91 a2 db 3c c8 01 27 be
       0.25469688 -0.090747125 0.026810916 -0.16309273
0000e0 f0 db 11 3e 54 e1 a3 3d 89 cf 4d 3e 23 f0 00 3e
       0.14244056 0.08001962 0.200987 0.12591605
0000f0 cc bf 84 3c 3d 59 80 be 42 b5 91 be a2 01 c7 be
       0.016204737 -0.25068083 -0.284586 -0.38868433
000100 2e 5c b8 3d a4 65 fc 3b 38 89 09 3d ee 2a 2e 3e
       0.09001957 0.007702546 0.033578128 0.17008564
000110 0d 00 be be e3 07 62 be 7b ae 8b 3e 1c e8 5d 3e
       -0.37109414 -0.22073321 0.27281556 0.21670574
000120 10 06 98 be 43 98 80 3d 36 5c 14 be 55 78 b9 3e
       -0.29692125 0.062790416 -0.144883 0.3622462
000130 a4 8e 4b be 08 b5 64 3e 9c 8f 3f 3e f1 f4 89 bc
       -0.19878632 0.22334683 0.18707126 -0.01684043
000140 43 d6 3e be ec 8f 44 3c 35 c8 07 be 13 bd 18 3e
       -0.18636422 0.011997204 -0.13259967 0.14915876
000150 3d a5 8c 3d 91 e0 bd 3e 9a 4a 97 be e0 2a 7b 3c
       0.06867454 0.37085393 -0.29549104 0.015330046
000160 84 56 ef bc a5 ea 4c be 03 eb f9 bd b5 f7 8c 3e
       -0.029216059 -0.20011385 -0.12203028 0.27532735
000170 50 ce 18 bf 40 ca ef 3e 26 d3 e6 bb ca 28 13 3e
       -0.5968981 0.46833992 -0.007044214 0.14371029
000180 a8 1c 16 be b6 0e 8e bd dd ce 90 be 21 31 93 be
       -0.14659369 -0.069364 -0.28282824 -0.2874842
000190 50 b6 03 bd 42 ec 2b be 00 b0 2f 39 8b 01 59 be
       -0.03215629 -0.16789344 0.00016754866 -0.21191995
0001a0 b0 f7 19 be 00 02 d7 bd ab fc 91 be c0 92 00 bf
       -0.15035892 -0.10498428 -0.28513083 -0.5022392
0001b0 92 8f 47 be 52 ca 52 3e d6 7e fe bd 20 95 6a 3e
       -0.19488361 0.20584992 -0.12426536 0.22908449
0001c0 fb a6 8f 3d 1a c2 59 3d 3d e2 fd bd f4 ce 28 3e
       0.07014271 0.053163625 -0.12396667 0.16485196
0001d0 18 e4 dc bd a0 5c ac bb 9c 22 43 bd 65 b9 c1 3e
       -0.10785693 -0.005260065 -0.047640428 0.37836757
0001e0 fc 87 7c 3d 8f 01 17 ba 97 21 6e be ca b2 2c bd
       0.061653122 -0.0005760425 -0.23255001 -0.042162694
0001f0 c2 ed bb 3e 4a 0b 87 3e 4c 4e 30 be bb 8a 98 3e
       0.36704832 0.263758 -0.17217368 0.29793343
000200 ac 66 bb bd 33 e2 64 be 4b 30 4c 3c 0b 1f c1 bd
       -0.091504425 -0.22351913 0.012462686 -0.09429749
000210 63 1c 15 3e 24 74 82 3e ea 2c b8 3e 0d 9e ea 3e
       0.1456161 0.25479233 0.35971767 0.45823708
000220 6e 0a 1a 3e ad 42 8a bc 8f 5a ac bb 2d 81 20 be
       0.15043041 -0.016877497 -0.005259819 -0.15674277
000230 85 93 15 bf 98 4e 6d be 82 de a8 3e b8 b5 8b be
       -0.5842822 -0.23174512 0.3298226 -0.27287078
000240 ee ee 6c be d4 1f 46 be 6d e7 58 be c0 97 06 3f
       -0.2313802 -0.19348079 -0.21182032 0.525753
000250 87 48 8d be 93 da bd bd 27 c8 4c 3e e5 5a 83 bc
       -0.27594396 -0.09270205 0.19998227 -0.016034553
000260 f9 6c d1 be c5 66 e1 be 49 7c 48 3e 42 11 83 bd
       -0.40903452 -0.4402372 0.19578661 -0.06399776
000270 6d c4 87 bc 70 8d e8 3d 2e d7 90 3e 31 c9 bf bd
       -0.016573155 0.11355102 0.2828917 -0.09364546
000280 61 84 8c be e7 11 54 be b7 1f 65 be e7 58 e7 bd
       -0.27444747 -0.20709954 -0.2237538 -0.11296254
000290 ab 2a 94 3e 44 09 58 be 30 de 49 3d bf 37 a8 be
       0.28938803 -0.21097285 0.04928416 -0.3285503
0002a0 ab e8 72 3e 91 cf 5b bd fc 1e 59 3d ac 16 61 3e
       0.23721568 -0.053664748 0.053008065 0.21981305
0002b0 d7 dd 99 3e 3c db 62 3e 4b 06 27 be 3c 76 89 be
       0.30052063 0.22153944 -0.16310994 -0.26848018
0002c0 5d 42 89 bd d2 a1 1c be c5 c2 14 3d a2 a5 e9 bd
       -0.06702111 -0.15296105 0.03631856 -0.11408545
0002d0 e0 62 65 be 70 c4 8c be a0 91 bb 3e 0c 6f ec be
       -0.22400999 -0.2749362 0.3663454 -0.46178472
0002e0 71 ae 93 bd 81 df 27 bd 8d 40 3f bd c2 50 57 be
       -0.072110064 -0.040984634 -0.04669242 -0.210269
0002f0 e9 6a 0b 3d 87 c8 17 3e b6 1b 9e bc 52 85 66 3d
       0.034037504 0.14822589 -0.019300323 0.056279488
000300 1e 60 4d 3e a0 8e 6c be ab d3 e9 3d 33 6a 93 be
       0.20056197 -0.23101282 0.114173256 -0.2879196
000310 73 ad f0 bc 7b d3 fa bd 9a c9 c7 be 35 ea 5b 3e
       -0.029379582 -0.12247368 -0.39020997 0.21476062
000320 a0 53 df 3b aa 0d 91 bd 32 b5 0d 3e 4f 4b 66 bd
       0.006815389 -0.07082684 0.13838652 -0.056224164
000330 9a 30 e4 be 0f a0 42 be 7a f2 37 3d 1a 2e e4 bc
       -0.4456833 -0.1900637 0.044908978 -0.027854014
000340 49 b2 af 3e be a5 d2 be 98 34 cb 3e de 14 88 bd
       0.34315708 -0.41142076 0.39688563 -0.06644605
000350 03 b1 9b be 8c 49 62 bd 74 c7 d3 be bd f0 3a be
       -0.30408487 -0.05524592 -0.41363108 -0.18255897
000360 02 e6 50 be 9f 7b c7 be cf 93 59 bd a7 38 8f be
       -0.20400241 -0.38961503 -0.053119477 -0.2797291
000370 de c7 0a be ce 6c 88 bd 36 16 8d be 64 ea 82 be
       -0.13552806 -0.06661378 -0.27556008 -0.2556945
000380 32 c5 32 3e 53 ec 1f 3e 2f 63 a4 bc 44 5d eb be
       0.17458037 0.15617494 -0.020066826 -0.45969594
000390 1d 3b c0 bd 7f 0f d2 bd b2 37 85 3c a0 42 31 3e
       -0.09386275 -0.10256862 0.01626191 0.17310572
0003a0 81 1a 2c be f9 3e 40 be fa 40 19 3e fa aa 13 be
       -0.16806985 -0.18774022 0.14966193 -0.14420691
0003b0 c3 a1 6f 3e 7a 0a bd be 76 d0 a3 3d ea f7 aa be
       0.23401551 -0.36922055 0.07998745 -0.33392268
0003c0 13 62 d4 bd dc fe 84 3c 5a 52 96 be 11 a3 a8 3c
       -0.10370269 0.016234808 -0.29359704 0.020585569
0003d0 89 39 a5 bd 25 6e cf be b5 c7 b0 be 5a ee a8 bd
       -0.080676146 -0.4051372 -0.34527364 -0.08248587
0003e0 d9 28 b5 3b 32 db 17 3c 4f aa 16 be 65 97 a7 be
       0.005528551 0.009268569 -0.14713405 -0.32732692
0003f0 38 8b a4 bc 62 3b 9a be cc 37 94 3e c8 79 34 bd
       -0.020085916 -0.3012343 0.2894882 -0.044061452

linear2.bias f4 [3]
000000 36 62 98 3d d1 c2 05 3c 26 d4 38 bd
       0.07440607 0.008164124 -0.045124196
