runs/ml-model-test-118/model.pt (torch, 7593 bytes, 18 tensors)

fc1.weight f4 [8, 4]
000000 96 3f e6 be 32 e9 a3 3e 50 17 7e 3d 00 b0 0d 3a
       -0.44970387 0.3201385 0.06203395 0.0005404949
000010 d6 12 c6 3e 99 73 72 3d a7 df 21 be 1e be de 3e
       0.38686246 0.059192274 -0.15807973 0.43504423
000020 21 48 12 be 89 a1 ef be b9 03 80 bd fe f8 bd 3d
       -0.14285327 -0.4680293 -0.0625071 0.09276007
000030 39 3d 45 be 26 44 61 3e eb 55 ca 3e c5 a9 55 bd
       -0.19261636 0.21998653 0.39518675 -0.052163858
000040 f0 75 68 bd b0 99 f9 3e 70 02 16 3d ec 0c fa 3e
       -0.0567531 0.48750067 0.03662342 0.48837984
000050 92 d9 ed 3e d2 10 c9 3e da dc 8d be e1 4d 46 be
       0.46455055 0.39270645 -0.2770756 -0.19365646
000060 28 54 e5 be 30 00 c3 3e 88 27 bf 3e 70 74 4b 3e
       -0.4479077 0.3808608 0.37334847 0.19868636
000070 74 64 6c bd b7 39 e7 3e 38 d0 55 3e c5 0d fa bd
       -0.057712987 0.4516122 0.2088021 -0.122096576

fc1.bias f4 [8]
000000 f4 27 9a 3e 6e 34 94 be f1 7b aa 3e e0 f7 09 be
       0.30108607 -0.2894625 0.33297685 -0.13473463
000010 20 d5 8a 3e 0d 5c 9b bd a0 4c e8 bd 0f 5b 94 3e
       0.27115726 -0.07585917 -0.1134274 0.28975722

fc2.weight f4 [8, 8]
000000 1e fd 93 3e e3 38 53 be 41 2b 2f be 93 7b 85 be
       0.2890405 -0.2062717 -0.17106344 -0.26070842
000010 ef 2b a5 be 3f ec e6 3b ab e7 b1 be ad 48 98 be
       -0.3226008 0.0070472057 -0.3474706 -0.29742947
000020 a6 67 7a 3e 1d 5f ae 3d 74 aa 99 3e 6b ef 3b 3e
       0.24453601 0.08514235 0.30012858 0.1835305
000030 1e 8f cb bd 14 55 85 3e 5b 70 94 3e 2e d8 d6 bd
       -0.09939407 0.26041472 0.2899197 -0.10490452
000040 ff ff a6 3e da 9a b2 bc 4b 22 77 3b 95 63 02 be
       0.32617185 -0.021802355 0.003770965 -0.127333
000050 52 67 1b 3e 12 42 a6 3e 31 2b 00 3e e1 69 18 be
       0.15176132 0.32472283 0.12516476 -0.1488414
000060 db fd 6b be 61 9a 66 be 39 bc 0d be 5c 4a bd 3d
       -0.23046057 -0.22519828 -0.13841332 0.092426986
000070 68 52 77 be c8 bc 8f be c8 ec 8e be 4b 55 b0 be
       -0.24152529 -0.28073716 -0.27915025 -0.34440073
000080 e6 5a d4 bc 76 a6 8f 3e 71 9a f6 bd c7 64 f0 3d
       -0.02592225 0.28056687 -0.12041176 0.11737972
000090 ef 38 2a 3e 2f 03 12 3e eb 5c 87 be 23 1c 88 3d
       0.16623281 0.14259027 -0.26438078 0.06645992
0000a0 2d a2 73 3d 58 2c 0c be 51 97 af 3e c1 7d 1c be
       0.059480835 -0.13688791 0.34295133 -0.15282346
0000b0 aa 06 aa ba 3f 11 b3 3c 6d 0c 73 3e e0 0f dd 3d
       -0.0012971957 0.02185881 0.23735209 0.107940435
0000c0 fd ef 34 3e b4 66 95 3e 95 c7 fb 3d fd 02 75 3e
       0.17669673 0.2917992 0.122939266 0.23926921
0000d0 cf a3 3f be 73 51 75 bd 27 b4 3c be bb 2b d0 3d
       -0.18714832 -0.05989213 -0.18428098 0.10164591
0000e0 97 3d de 3d 01 f4 56 bd d1 64 8a bd 10 77 a3 3e
       0.10851591 -0.052478794 -0.067575105 0.31926775
0000f0 bb 2f 67 bd 10 d4 82 3d 9a 9f 36 3e 48 5c ab 3e
       -0.056442004 0.06388104 0.1783432 0.33468843

fc2.bias f4 [8]
000000 0a 46 f6 bd c2 a6 2f be 02 7f 1a bd 1f be 79 3c
       -0.12025078 -0.17153457 -0.03771878 0.015243082
000010 4a 32 68 be 0b 53 d5 bd f0 41 74 bd ad e8 74 3d
       -0.22675434 -0.1041623 -0.059633195 0.05979221

fc3.weight f4 [2, 8]
000000 75 33 88 bd af 20 53 3e 8d f4 3f be f7 44 8b 3d
       -0.0665044 0.20617937 -0.18745632 0.068002634
000010 82 57 50 be 27 df 56 bd 9a 64 fc 3d 76 71 6b 3e
       -0.20345882 -0.05245891 0.12323876 0.229925
000020 61 e3 74 bb 81 8d c8 bd a8 79 3e be b2 07 49 be
       -0.0037366974 -0.09792615 -0.18601096 -0.19631842
000030 4b 4c f9 3d 71 88 93 3e 48 a2 15 be 36 58 03 be
       0.12172755 0.28815034 -0.14612687 -0.12826619

fc3.bias f4 [2]
000000 6c 7b 0c be 77 e9 18 be
       -0.13718957 -0.1493281

exp_avg f4 [8, 4]
000000 00 00 00 00 00 00 00 00 00 00 00 00 00 00 00 00
       0.0 0.0 0.0 0.0
000010 53 f5 e1 44 47 25 93 c4 1c a0 1d 44 88 21 be 3f
       1807.6664 -1177.1649 630.5017 1.4853983
000020 a1 42 2c 45 71 33 cf c4 cb 51 89 44 af 37 29 40
       2756.1643 -1657.6075 1098.556 2.6440237
000030 46 78 d5 41 cd b0 e8 c0 10 4c 9b 41 c8 88 36 3d
       26.683727 -7.271582 19.41214 0.04456404
000040 00 00 00 00 00 00 00 00 00 00 00 00 00 00 00 00
       0.0 0.0 0.0 0.0
000050 94 14 62 44 f2 90 0e c4 48 07 a7 43 52 90 3e 3f
       904.32153 -570.2648 334.0569 0.74438965
000060 00 00 00 00 00 00 00 00 00 00 00 00 00 00 00 00
       0.0 0.0 0.0 0.0
000070 5e ae 23 40 bd 3c b0 be c7 a6 0d 40 58 cf 88 3b
       2.5575175 -0.3442134 2.2133043 0.004175108

exp_avg_sq f4 [8, 4]
000000 00 00 00 00 00 00 00 00 00 00 00 00 00 00 00 00
       0.0 0.0 0.0 0.0
000010 a8 e8 02 49 0b 17 5d 48 07 78 80 47 e9 30 bb 3e
       536202.5 226396.17 65776.055 0.36560753
000020 da 83 94 49 5b 2e e0 48 65 df 30 48 e0 34 87 3f
       1.2166352e+06 459122.84 181117.58 1.0563011
000030 b6 cf fb 41 af e8 3c 40 22 51 79 41 49 12 b6 38
       31.476421 2.9517019 15.582308 8.681842e-05
000040 00 00 00 00 00 00 00 00 00 00 00 00 00 00 00 00
       0.0 0.0 0.0 0.0
000050 a9 8c 81 48 d9 b4 d2 47 a6 19 08 47 b0 13 3c 3e
       265317.28 107881.695 34841.65 0.18366885
000060 00 00 00 00 00 00 00 00 00 00 00 00 00 00 00 00
       0.0 0.0 0.0 0.0
000070 19 bb 31 3f 57 bd 50 3c 90 f0 04 3f 9d 70 23 36
       0.69426113 0.012740455 0.5192957 2.4354442e-06

exp_avg f4 [8]
000000 00 00 00 00 b4 c2 c9 3f db c4 2f 40 c4 c7 46 3d
       0.0 1.5762544 2.74639 0.048530355
000010 00 00 00 00 e1 cb 55 3f 00 00 00 00 5a 50 b5 3b
       0.0 0.8351422 0.0 0.0055332603

exp_avg_sq f4 [8]
000000 00 00 00 00 c3 7b d2 3e e0 e4 90 3f 8c 3d cc 38
       0.0 0.41110048 1.1319847 9.738942e-05
000010 00 00 00 00 8c fc 5e 3e 00 00 00 00 f0 ce 59 36
       0.0 0.21776026 0.0 3.2455973e-06

exp_avg f4 [8, 8]
000000 00 00 00 00 00 00 00 00 00 00 00 00 00 00 00 00
       0.0 0.0 0.0 0.0
000010 00 00 00 00 00 00 00 00 00 00 00 00 00 00 00 00
       0.0 0.0 0.0 0.0
000020 00 00 00 00 4e 4c 2a 45 fb a8 a0 44 e4 48 f3 3f
       0.0 2724.769 1285.2806 1.900662
000030 00 00 00 00 9b f4 8d 44 00 00 00 00 97 f3 11 3f
       0.0 1135.6439 0.0 0.57012314
000040 00 00 00 00 c2 6e 19 43 86 73 a6 42 59 e5 f5 3d
       0.0 153.43265 83.22563 0.12006635
000050 00 00 00 00 3a 5d 7e 42 00 00 00 00 52 d0 e2 3d
       0.0 63.59104 0.0 0.1107489
000060 00 00 00 00 00 00 00 00 00 00 00 00 00 00 00 00
       0.0 0.0 0.0 0.0
000070 00 00 00 00 00 00 00 00 00 00 00 00 00 00 00 00
       0.0 0.0 0.0 0.0
000080 00 00 00 00 f5 00 23 c5 76 16 99 c4 d2 1f fb bf
       0.0 -2608.0598 -1224.7019 -1.9619086
000090 00 00 00 00 ec 3e 87 c4 00 00 00 00 99 97 1b bf
       0.0 -1081.9663 0.0 -0.60778195
0000a0 00 00 00 00 ed ea f2 c4 24 05 81 c4 00 00 00 00
       0.0 -1943.3414 -1032.1606 0.0
0000b0 00 00 00 00 5a 0a 3f c4 00 00 00 00 00 00 00 00
       0.0 -764.16174 0.0 0.0
0000c0 00 00 00 00 af b6 18 45 b7 6f 90 44 26 1a dc 3f
       0.0 2443.4177 1155.4911 1.719548
0000d0 00 00 00 00 1c 77 7e 44 00 00 00 00 97 59 0a 3f
       0.0 1017.8611 0.0 0.54042953
0000e0 00 00 00 00 88 a7 52 41 e2 0f 1d 3e 96 6d 10 40
       0.0 13.165901 0.1533809 2.2566886
0000f0 00 00 00 00 a0 da 00 41 00 00 00 00 e6 44 2e 3f
       0.0 8.053375 0.0 0.6807388

exp_avg_sq f4 [8, 8]
000000 00 00 00 00 00 00 00 00 00 00 00 00 00 00 00 00
       0.0 0.0 0.0 0.0
000010 00 00 00 00 00 00 00 00 00 00 00 00 00 00 00 00
       0.0 0.0 0.0 0.0
000020 00 00 00 00 35 a7 56 49 b9 08 61 48 8c 0b 28 3e
       0.0 879219.3 230434.89 0.16410655
000030 00 00 00 00 df 71 2c 48 00 00 00 00 e3 df ee 3c
       0.0 176583.48 0.0 0.029159492
000040 00 00 00 00 1c 9f 40 46 66 74 63 45 4b c7 21 3c
       0.0 12327.777 3639.275 0.009874175
000050 00 00 00 00 b8 b4 1b 45 00 00 00 00 95 93 5f 3b
       0.0 2491.295 0.0 0.0034115065
000060 00 00 00 00 00 00 00 00 00 00 00 00 00 00 00 00
       0.0 0.0 0.0 0.0
000070 00 00 00 00 00 00 00 00 00 00 00 00 00 00 00 00
       0.0 0.0 0.0 0.0
000080 00 00 00 00 da ff 14 49 bc cf 19 48 c3 81 31 3e
       0.0 610301.6 157502.94 0.17334656
000090 00 00 00 00 cf e2 eb 47 00 00 00 00 da 5c 02 3d
       0.0 120773.62 0.0 0.03182683
0000a0 00 00 00 00 a5 37 8b 48 b9 b1 b3 47 00 00 00 00
       0.0 285117.16 92003.445 0.0
0000b0 00 00 00 00 93 0d 45 47 00 00 00 00 00 00 00 00
       0.0 50445.574 0.0 0.0
0000c0 00 00 00 00 54 61 2f 49 d6 ac 38 48 e8 8a 02 3e
       0.0 718357.25 189107.34 0.12748301
0000d0 00 00 00 00 bd cd 0c 48 00 00 00 00 83 f2 ba 3c
       0.0 144182.95 0.0 0.022820717
0000e0 00 00 00 00 e4 97 35 41 74 8a 5b 3d 35 46 6a 3e
       0.0 11.349583 0.053598836 0.22878344
0000f0 00 00 00 00 45 e2 7b 40 00 00 00 00 27 0c 26 3d
       0.0 3.9356854 0.0 0.040538933

exp_avg f4 [8]
000000 00 00 00 00 71 ca 03 41 0e b9 cd 3e 00 00 00 00
       0.0 8.236924 0.40180248 0.0
000010 f3 56 fd c0 07 49 a6 c0 32 d5 eb 40 fc 50 b7 3d
       -7.916864 -5.1964145 7.369775 0.089509934

exp_avg_sq f4 [8]
000000 00 00 00 00 15 b0 db 40 59 b2 ab 3d 00 00 00 00
       0.0 6.8652444 0.083836265 0.0
000010 f6 20 9b 40 49 b0 de 3f 60 a4 b2 40 b3 77 d7 39
       4.8477736 1.7397548 5.5825653 0.00041097178

exp_avg f4 [2, 8]
000000 00 00 00 00 9c 9a 38 45 5d 54 85 44 00 00 00 00
       0.0 2953.663 1066.6364 0.0
000010 02 18 0c 45 5f 9c 50 43 53 9c 33 45 7c 48 17 40
       2241.5005 208.61082 2873.7703 2.363799
000020 00 00 00 00 a1 07 3d c5 2e 8f 87 c4 00 00 00 00
       0.0 -3024.4768 -1084.4744 0.0
000030 7d 8a 0e c5 6f e8 5c c3 e8 ba 37 c5 c0 18 2b c0
       -2280.6555 -220.90794 -2939.6816 -2.6733856

exp_avg_sq f4 [2, 8]
000000 00 00 00 00 6f d3 8a 49 30 a6 2f 48 00 00 00 00
       0.0 1.1372619e+06 179864.75 0.0
000010 ab ec d6 48 0f b1 10 45 90 f5 70 49 e5 d9 b2 3e
       440165.34 2315.0662 986969.0 0.34931865
000020 00 00 00 00 48 45 91 49 e9 c3 35 48 00 00 00 00
       0.0 1.190057e+06 186127.64 0.0
000030 90 16 de 48 3e ac 23 45 bc c2 7b 49 b0 ee ac 3e
       454836.5 2618.7651 1.03121175e+06 0.33775854

exp_avg f4 [2]
000000 a5 36 cd 41 3c 7e cf c1
       25.651682 -25.936638

exp_avg_sq f4 [2]
000000 47 2a 6b 42 c7 e9 6f 42
       58.791286 59.9783
