runs/ml-model-test-115/model.pt (torch, 7593 bytes, 18 tensors)

fc1.weight f4 [8, 4]
000000 c3 ff 37 3e f7 4d 41 be 8e 7f de 3e 58 f6 4f 3d
       0.17968659 -0.18877397 0.43456692 0.05077204
000010 a9 77 cb bc 7d 75 00 be 04 5f 4f 3e 48 a7 7d 3e
       -0.024837332 -0.12544818 0.2025109 0.24770844
000020 5d aa f2 bd cd 06 ac be 7b fb bf 3e e2 86 a5 3e
       -0.118489005 -0.3359894 0.37496552 0.3232947
000030 da b0 07 3e a2 09 f6 3d 8e 29 9c 3e e5 20 10 3d
       0.13251057 0.12013556 0.30500454 0.03518762
000040 e4 d8 cd 3e c3 58 e2 3d 08 b2 13 be da 17 9c 3e
       0.40204537 0.11052086 -0.14423382 0.30486947
000050 ce 3e b2 3e ad 9b 5b 3d 79 ac 48 3d 6b a7 c1 3e
       0.3481354 0.05361526 0.048992608 0.37823042
000060 9c c9 44 be b0 7b 3b bd 40 30 ca 3c ac 8f 84 3e
       -0.19217533 -0.045772254 0.02468121 0.25890863
000070 d4 57 31 be 50 42 89 3e c0 2c db bd 9c 45 e7 3e
       -0.1731866 0.26808405 -0.10701895 0.45170295

fc1.bias f4 [8]
000000 25 1b ce 3e 3c fb 16 3d e3 20 b9 3d fe e7 e8 be
       0.40255085 0.03686069 0.09039476 -0.45489496
000010 68 2e 9d 3e 68 b2 00 bd d8 ff 0f be 40 4c 5a 3e
       0.30699468 -0.03142014 -0.1406244 0.2131815

fc2.weight f4 [8, 8]
000000 aa 6c 19 be ee 04 8f bb ac 2e ae 3e 4f c6 1a 3e
       -0.14982858 -0.0043646013 0.34019983 0.15114711
000010 72 52 96 be dc a9 9c 3c bf 8d 19 bd 35 b6 92 be
       -0.29359776 0.019123964 -0.037488695 -0.28654638
000020 c8 5c 21 3d ba b4 75 3e 14 93 5d be 3c 3d da 3d
       0.039395124 0.23994723 -0.21638137 0.10656211
000030 80 27 69 3d fe 41 59 be 11 88 fe bd 60 4c 87 3e
       0.056922436 -0.2121658 -0.12428296 0.26425457
000040 0f 76 b3 be c3 e7 77 be c2 bd b1 3e 58 de 82 3e
       -0.3505101 -0.24209504 0.34715086 0.2556026
000050 81 f9 a4 3e c5 ac 1d be 17 f5 a2 3d d3 d4 2f 3e
       0.32221606 -0.15397938 0.079569034 0.1717103
000060 50 ec 9d be 3a cf eb 3d 7d ef 8a 3e dc 3c 1b 3c
       -0.30844355 0.11514135 0.2713584 0.009474959
000070 36 ca 91 3e 5f 21 93 bc 89 8e 96 3d cb d2 d9 bc
       0.28474587 -0.017960249 0.07351405 -0.026589772
000080 dd 8c 7d be dd d0 d6 3c 6c 84 91 3e f9 4c 1d 3e
       -0.24760766 0.02622264 0.28421342 0.15361394
000090 03 de 5d 3e 94 33 29 3d cc 48 81 be b9 21 bd bb
       0.21666722 0.041308954 -0.25250852 -0.0057718423
0000a0 86 e0 a5 be 52 7a 9d 3e 96 e1 91 be 68 8a b6 3d
       -0.3239786 0.30757385 -0.2849242 0.08913118
0000b0 93 73 75 3e 21 27 9b 3e 4a b4 df 3d e8 01 81 3d
       0.2396987 0.3030329 0.10923059 0.06299192
0000c0 57 9d 0d be 97 87 a8 3e ea 4a 21 3e 9c ae a3 3e
       -0.13829552 0.32915947 0.15751234 0.31969154
0000d0 88 98 bb 3d 0c 62 73 be e6 e2 49 3e 56 8f 41 be
       0.091599524 -0.2376787 0.19715461 -0.18902335
0000e0 57 b7 92 be f6 c8 50 3e ce 15 3a be cd 04 61 3e
       -0.28655502 0.2038916 -0.1817238 0.21974488
0000f0 c4 15 8f 3e 0b d1 46 3e c3 d0 61 3d 74 da ac bd
       0.27946293 0.19415681 0.05513073 -0.08440104

fc2.bias f4 [8]
000000 c9 09 53 3d 8a b5 7a 3e 43 6d 89 be 85 c9 fd 3d
       0.051523004 0.24483314 -0.26841173 0.123919524
000010 25 e7 d8 3d 6e d1 23 3d 97 28 27 be 9f 6b 92 be
       0.10590962 0.03999465 -0.16324078 -0.28597733

fc3.weight f4 [2, 8]
000000 3a ed 5c 39 82 85 7d be 8f 8a 9e 3d 1c e5 46 be
       0.00021069209 -0.2475796 0.07741272 -0.19423336
000010 4c 08 c7 3d ed 85 8f 3e 57 36 bb 3b 6e 1d 44 be
       0.097183794 0.28031865 0.005713265 -0.19151852
000020 51 9c 93 bc f3 fe ad 3e 9a 56 6b bd 2e 14 33 3d
       -0.018018873 0.33983573 -0.057455637 0.043720417
000030 46 23 ef bc d2 b1 49 3e 14 63 92 ba f2 e1 af bc
       -0.029191624 0.1969674 -0.0011168444 -0.021470044

fc3.bias f4 [2]
000000 e5 bf 1a 3e 46 28 32 bd
       0.15112264 -0.04349544

exp_avg f4 [8, 4]
000000 cb 4f 4a c1 2e d9 1c 41 78 da 35 c0 b5 11 c5 bb
       -12.644481 9.803022 -2.8414593 -0.0060140737
000010 ea 11 ca 40 61 a8 9b c0 42 a6 b9 3f 8f 35 4e 3b
       6.314687 -4.864304 1.4503863 0.003146503
000020 37 4a e4 40 c6 66 9b c0 e0 c6 11 40 c9 7d a6 3b
       7.1340594 -4.8562956 2.2777634 0.0050809127
000030 a5 4c 36 40 d6 16 0c c0 3f d7 28 3f e8 e8 b1 3a
       2.848428 -2.1888938 0.6595344 0.001357344
000040 15 dc 5d 41 31 38 2e c1 99 8f 3e 40 5d e5 c9 3b
       13.866231 -10.888719 2.9775145 0.0061613754
000050 fc ba 9b be 9d 70 9c 3e a4 01 b6 3a 30 a9 1d 39
       -0.30416095 0.30554667 0.0013885987 0.00015035714
000060 00 00 00 00 00 00 00 00 00 00 00 00 00 00 00 00
       0.0 0.0 0.0 0.0
000070 00 00 00 00 00 00 00 00 00 00 00 00 00 00 00 00
       0.0 0.0 0.0 0.0

exp_avg_sq f4 [8, 4]
000000 07 7b 18 44 3d 1c 81 43 8a 6e 95 42 35 64 d0 39
       609.9223 258.2206 74.7159 0.00039747512
000010 02 49 3f 43 2d 50 a0 42 8a 04 bf 41 0d 54 06 39
       191.28519 80.15659 23.877216 0.00012810547
000020 60 01 0a 42 a1 74 5e 41 a2 b1 96 40 e3 ec df 37
       34.501343 13.903474 4.7091837 2.669398e-05
000030 f4 a2 3b 41 73 c0 9d 40 79 e2 ba 3f b9 0e 07 37
       11.7272835 4.9297423 1.4600364 8.050055e-06
000040 24 bb 12 44 b2 bd 78 43 93 95 8f 42 23 77 c7 39
       586.9241 248.741 71.79214 0.00038045002
000050 b6 d0 2a 42 cb fd 8a 41 77 ff b3 40 79 7c 04 38
       42.70382 17.373922 5.6249347 3.1587177e-05
000060 00 00 00 00 00 00 00 00 00 00 00 00 00 00 00 00
       0.0 0.0 0.0 0.0
000070 00 00 00 00 00 00 00 00 00 00 00 00 00 00 00 00
       0.0 0.0 0.0 0.0

exp_avg f4 [8]
000000 b8 c5 e8 bb 99 a1 6d 3b 27 98 ba 3b bf 1d d8 3a
       -0.007103648 0.003625965 0.0056944075 0.0016488357
000010 fe ea f3 3b 29 f8 68 36 00 00 00 00 00 00 00 00
       0.0074437847 3.4715142e-06 0.0 0.0

exp_avg_sq f4 [8]
000000 40 d4 f4 39 4e 7b 1c 39 9d e5 f6 37 8a 18 19 37
       0.00046697445 0.00014923254 2.9432407e-05 9.125224e-06
000010 9f 3f eb 39 4e 74 13 38 00 00 00 00 00 00 00 00
       0.00044870094 3.515585e-05 0.0 0.0

exp_avg f4 [8, 8]
000000 00 00 00 00 00 00 00 00 00 00 00 00 00 00 00 00
       0.0 0.0 0.0 0.0
000010 00 00 00 00 00 00 00 00 00 00 00 00 00 00 00 00
       0.0 0.0 0.0 0.0
000020 00 00 00 00 00 00 00 00 00 00 00 00 00 00 00 00
       0.0 0.0 0.0 0.0
000030 00 00 00 00 00 00 00 00 00 00 00 00 00 00 00 00
       0.0 0.0 0.0 0.0
000040 00 00 00 00 00 00 00 00 00 00 00 00 00 00 00 00
       0.0 0.0 0.0 0.0
000050 00 00 00 00 00 00 00 00 00 00 00 00 00 00 00 00
       0.0 0.0 0.0 0.0
000060 e9 29 98 41 4d 0a b1 40 5d 8b 28 41 8b f0 93 40
       19.020464 5.5325074 10.534024 4.623113
000070 25 44 56 41 aa 5b 69 41 00 00 00 00 00 00 00 00
       13.391637 14.584879 0.0 0.0
000080 54 c3 cf c0 6f f6 f5 bf e8 bc 76 c0 8d 6a 2a bf
       -6.492594 -1.921583 -3.85528 -0.66568834
000090 da c6 a5 c0 28 26 a8 c0 00 00 00 00 00 00 00 00
       -5.180524 -5.2546577 0.0 0.0
0000a0 2d 8f b2 c0 78 22 cb bf c7 d8 53 c0 93 ea 29 bf
       -5.5799775 -1.5869894 -3.310106 -0.66373557
0000b0 7c 07 89 c0 74 7e 8c c0 00 00 00 00 00 00 00 00
       -4.2821636 -4.390436 0.0 0.0
0000c0 13 01 e9 3d af 60 a5 3c a7 b5 dd 3c 09 f3 1c 3e
       0.11377158 0.020187704 0.027064158 0.15327086
0000d0 6f 9b 9e bc 9c 3f 18 3d 00 00 00 00 00 00 00 00
       -0.019361226 0.037170038 0.0 0.0
0000e0 9d 9b 27 41 12 35 44 40 f2 6e c3 40 e9 bc bd 3f
       10.475492 3.0657392 6.107293 1.4823276
0000f0 47 ce 00 41 ba 3c 05 41 00 00 00 00 00 00 00 00
       8.050361 8.327326 0.0 0.0

exp_avg_sq f4 [8, 8]
000000 00 00 00 00 00 00 00 00 00 00 00 00 00 00 00 00
       0.0 0.0 0.0 0.0
000010 00 00 00 00 00 00 00 00 00 00 00 00 00 00 00 00
       0.0 0.0 0.0 0.0
000020 00 00 00 00 00 00 00 00 00 00 00 00 00 00 00 00
       0.0 0.0 0.0 0.0
000030 00 00 00 00 00 00 00 00 00 00 00 00 00 00 00 00
       0.0 0.0 0.0 0.0
000040 00 00 00 00 00 00 00 00 00 00 00 00 00 00 00 00
       0.0 0.0 0.0 0.0
000050 00 00 00 00 00 00 00 00 00 00 00 00 00 00 00 00
       0.0 0.0 0.0 0.0
000060 1a ae 92 44 8e 25 af 42 0c 9d ab 43 d4 f4 13 43
       1173.4407 87.57335 343.22693 147.95636
000070 90 7b d9 43 3a 00 14 44 00 00 00 00 00 00 00 00
       434.96533 592.00354 0.0 0.0
000080 89 25 c0 43 d2 24 e1 41 15 18 e0 42 a4 21 46 42
       384.29324 28.142979 112.047035 49.532852
000090 03 20 0b 43 dc 0d 3f 43 00 00 00 00 00 00 00 00
       139.12505 191.05414 0.0 0.0
0000a0 2a 83 83 42 36 a3 a8 40 91 5c 93 41 c3 70 0a 41
       65.75618 5.269923 18.420198 8.65253
0000b0 98 32 cb 41 4d cd 0a 42 00 00 00 00 00 00 00 00
       25.399704 34.70049 0.0 0.0
0000c0 6d 34 b2 40 a2 15 c7 3e 54 7e d2 3f 59 cc 33 3f
       5.5688996 0.38883692 1.6444802 0.70233685
0000d0 e6 30 fa 3f 58 58 2c 40 00 00 00 00 00 00 00 00
       1.9546173 2.692892 0.0 0.0
0000e0 3c 9d 1f 44 4b 26 3d 42 b9 d7 39 43 a0 6b a5 42
       638.4568 47.287395 185.84267 82.710205
0000f0 1f f3 68 43 ba bb 9f 43 00 00 00 00 00 00 00 00
       232.94969 319.4666 0.0 0.0

exp_avg f4 [8]
000000 00 00 00 00 00 00 00 00 00 00 00 00 ee e2 b8 3c
       0.0 0.0 0.0 0.022569146
000010 7c ee 02 bb 2c 13 25 bb 23 9e 79 3a 1b 08 bf 3b
       -0.0019978574 -0.002518843 0.00095221604 0.0058298237

exp_avg_sq f4 [8]
000000 00 00 00 00 00 00 00 00 00 00 00 00 fe 2d 8b 3b
       0.0 0.0 0.0 0.004247426
000010 82 92 bd 3a 49 d9 7d 39 ba 59 b0 37 98 3e 1d 3b
       0.0014463218 0.00024208905 2.1022617e-05 0.0023993608

exp_avg f4 [2, 8]
000000 00 00 00 00 00 00 00 00 00 00 00 00 b4 c7 be c0
       0.0 0.0 0.0 -5.961878
000010 35 96 f1 c0 3d a1 09 bf dd f8 13 40 c2 4f 98 c0
       -7.549586 -0.53761655 2.3120644 -4.759736
000020 00 00 00 00 00 00 00 00 00 00 00 00 48 6a b2 40
       0.0 0.0 0.0 5.575474
000030 f3 45 d3 40 a3 73 d1 3e b5 6c 14 c0 6e b1 8b 40
       6.6022887 0.40908536 -2.319135 4.365409

exp_avg_sq f4 [2, 8]
000000 00 00 00 00 00 00 00 00 00 00 00 00 1e 55 9d 41
       0.0 0.0 0.0 19.666561
000010 08 af d1 43 fb 4a 8f 3f b3 35 82 42 d2 ae 6d 42
       419.36743 1.1194757 65.10488 59.420723
000020 00 00 00 00 00 00 00 00 00 00 00 00 52 ca 98 41
       0.0 0.0 0.0 19.09879
000030 8f b6 d3 43 90 0d 92 3f c0 dc 82 42 ec 8a 6a 42
       423.42624 1.1410389 65.43115 58.635666

exp_avg f4 [2]
000000 d7 7c d4 bc a4 fe 91 3c
       -0.025938435 0.017821617

exp_avg_sq f4 [2]
000000 9e 66 aa 3d 1d 61 ab 3d
       0.08320354 0.08368132
