runs/ml-model-test-110/model.pt (torch, 7593 bytes, 18 tensors)

fc1.weight f4 [8, 4]
0	0xbef8aeba	-0.48570806
1	0xbea53116	-0.32264012
2	0xbe48c5b8	-0.19606674
3	0x3ec64ffc	0.38732898
4	0x3e92a674	0.2864262
5	0x3ea23197	0.3167846
6	0x3ea19e78	0.31566215
7	0xbe04f767	-0.12985002
8	0x3eb9dbe9	0.3630059
9	0xbc0b7834	-0.008512545
10	0x3d285d3f	0.04110455
11	0xbe0dc915	-0.13846238
12	0x3e539cd3	0.20665292
13	0x3e6a2de2	0.22869065
14	0xbd6fbf52	-0.058532067
15	0x3ede8988	0.43464303
16	0xbdfbb341	-0.12290049
17	0x3df5e296	0.120061085
18	0x3eebee82	0.46080405
19	0x3e93a533	0.28836975
20	0xbe3e59ef	-0.18588994
21	0xbe63fde8	-0.22264826
22	0x3dbdeaf6	0.09273331
23	0xbbf79409	-0.007555489
24	0x3d0d2d6f	0.034467157
25	0x3ea558e3	0.32294378
26	0x3e3253f2	0.17414835
27	0xbe8ff984	-0.28120053
28	0xbed103e0	-0.4082327
29	0x3ef206e4	0.47270882
30	0xbd6176e0	-0.05504501
31	0xbe49b59c	-0.19698185

fc1.bias f4 [8]
0	0xbebc05a2	-0.36723047
1	0x3ef36a66	0.47542113
2	0x3e7c584c	0.24643058
3	0xbea51eaf	-0.32249972
4	0xbed9ae76	-0.42515916
5	0x3edc7721	0.43059638
6	0x3e5bcbbe	0.2146444
7	0xbd966a50	-0.07344496

fc2.weight f4 [8, 8]
0	0xbe967151	-0.2938333
1	0x3e5b6f12	0.21429089
2	0xbe75c26a	-0.23999944
3	0x3e31e826	0.17373714
4	0xbeabedaf	-0.33579776
5	0xbea16608	-0.31523156
6	0xbeada807	-0.33917257
7	0x3ea41a0b	0.3205112
8	0x3ea47fd2	0.3212877
9	0xbe97b4a4	-0.29630005
10	0x3e8eb29b	0.2787064
11	0xbe56bacf	-0.209697
12	0xbea5162a	-0.32243472
13	0x3e31c6c0	0.17360973
14	0x3e4d39de	0.20041606
15	0x3e4d36ad	0.20040388
16	0x3d7e25b0	0.06204766
17	0x3eb0614d	0.34449235
18	0xbe994f2f	-0.29943225
19	0x3e2c54f9	0.1682929
20	0xbdda9f53	-0.1067492
21	0x3c8f0b34	0.017461397
22	0x3e7f221d	0.24915357
23	0xbe81a0f9	-0.25318125
24	0x3e1ea831	0.15493847
25	0xbd9c33fe	-0.07627104
26	0x3e6485ab	0.22316615
27	0xbc728bbb	-0.014803822
28	0x3e2c4f79	0.16827191
29	0x3eabf065	0.33581844
30	0xbe06c6b7	-0.13161741
31	0xbeb24fff	-0.34826657
32	0x3eaac053	0.33349857
33	0xbe42fa07	-0.1904069
34	0x3daeb8a8	0.08531314
35	0x3e6553f2	0.22395304
36	0xbd60e3ed	-0.054904867
37	0x3e8b1bc6	0.27169627
38	0x3e6a9ee3	0.22912173
39	0xbd91c6f9	-0.07118029
40	0x3dbdd822	0.0926974
41	0x3cacf598	0.021113202
42	0x3eae3fb8	0.3403299
43	0x3e74f80e	0.2392275
44	0xbe7874c5	-0.24263294
45	0x3cfb0cbb	0.030645719
46	0x3e3dbe19	0.18529548
47	0x3e8a63d7	0.27029297
48	0x3df73926	0.12071447
49	0x3e14b230	0.14521098
50	0xbd8f3015	-0.06991593
51	0x3b32a12f	0.0027256717
52	0xbe80e382	-0.25173575
53	0x3e940491	0.28909734
54	0x3e8c0d30	0.2735381
55	0xbe475ae4	-0.19468266
56	0xbe9afa87	-0.30269262
57	0x3e8d281a	0.27569658
58	0xbea0707f	-0.31335828
59	0x3e682eec	0.2267415
60	0xbeb051ee	-0.34437507
61	0xbe3917e9	-0.18075527
62	0xbe194903	-0.14969258
63	0x3eaa1f76	0.33227128

fc2.bias f4 [8]
0	0xbd750cb3	-0.059826564
1	0x3e9eec92	0.31039864
2	0x3ddcffa4	0.10790947
3	0x3eac75fc	0.33683765
4	0x3e74344f	0.23848079
5	0x3e8264ec	0.25467622
6	0x3e9b405b	0.30322537
7	0xbdd5edf3	-0.10445776

fc3.weight f4 [2, 8]
0	0xbdc714eb	-0.09720787
1	0x3df47bcc	0.11937675
2	0x3ea2244f	0.31668326
3	0xbdff299d	-0.12459109
4	0xbe8baaef	-0.2727885
5	0xbe8ac744	-0.27105153
6	0xbe223389	-0.15839972
7	0x3d67133a	0.05641482
8	0xbd2794c9	-0.040913377
9	0xbdcc472a	-0.09974511
10	0xbe2ec149	-0.1706592
11	0x3db10828	0.08644134
12	0xbe97d5d0	-0.29655313
13	0x3eaf4409	0.34231594
14	0xbd74829b	-0.059694868
15	0x3d871aa6	0.0659688

fc3.bias f4 [2]
0	0x3dfa3efc	0.122190446
1	0xbe12b9b3	-0.14328651

exp_avg f4 [8, 4]
0	0x00000000	0.0
1	0x00000000	0.0
2	0x00000000	0.0
3	0x00000000	0.0
4	0x4569d760	3741.461
5	0xc52e73f0	-2791.246
6	0x446d8dbb	950.21454
7	0x4012858f	2.2894018
8	0x46870202	17281.004
9	0xc621811a	-10336.275
10	0x45d905d2	6944.7275
11	0x418659de	16.79388
12	0x465a8299	13984.649
13	0xc60c63ca	-8984.947
14	0x459c3d9d	4999.7017
15	0x4141696e	12.08824
16	0xc4dd3874	-1769.7642
17	0x444847ee	801.1239
18	0xc47228f8	-968.64014
19	0xc01890f5	-2.3838475
20	0x446833ec	928.8113
21	0xc4270df7	-668.2182
22	0x43824beb	260.5931
23	0x3f274090	0.6533289
24	0xc24b41c9	-50.814243
25	0x4190b6d0	18.089264
26	0xc202e661	-32.72498
27	0xbd9b7894	-0.07591358
28	0x00000000	0.0
29	0x00000000	0.0
30	0x00000000	0.0
31	0x00000000	0.0

exp_avg_sq f4 [8, 4]
0	0x00000000	0.0
1	0x00000000	0.0
2	0x00000000	0.0
3	0x00000000	0.0
4	0x4a22d091	2.6675562e+06
5	0x499620ee	1.2298538e+06
6	0x4887f262	278419.06
7	0x3fd13ff7	1.6347646
8	0x4bd94d4e	2.8482204e+07
9	0x4b2cca58	1.1323992e+07
10	0x4a6f341c	3.919111e+06
11	0x41b7e7e1	22.988222
12	0x4baabed9	2.2379954e+07
13	0x4b111487	9.507975e+06
14	0x4a25d6e8	2.717114e+06
15	0x417f9d6e	15.975935
16	0x48341563	184405.55
17	0x471d76c9	40310.785
18	0x474ce68c	52454.547
19	0x3ea376f0	0.3192668
20	0x4938597a	755095.6
21	0x48b6863b	373809.84
22	0x47819f7d	66366.98
23	0x3ed4b4ff	0.4154434
24	0x4344b854	196.72003
25	0x42008f22	32.13978
26	0x428c8553	70.2604
27	0x39dedc74	0.0004250739
28	0x00000000	0.0
29	0x00000000	0.0
30	0x00000000	0.0
31	0x00000000	0.0

exp_avg f4 [8]
0	0x00000000	0.0
1	0x401808ca	2.3755364
2	0x418ae503	17.361822
3	0x4147fcf0	12.499252
4	0xc01afb81	-2.4216006
5	0x3f26c792	0.6514827
6	0xbda78d48	-0.08181244
7	0x00000000	0.0

exp_avg_sq f4 [8]
0	0x00000000	0.0
1	0x3fdebc3d	1.7401196
2	0x41c3f4a4	24.494453
3	0x4187db10	16.981964
4	0x3ea7dac3	0.3278409
5	0x3ed45fcd	0.4147934
6	0x39e63ab5	0.0004391276
7	0x00000000	0.0

exp_avg f4 [8, 8]
0	0x00000000	0.0
1	0x00000000	0.0
2	0x00000000	0.0
3	0x00000000	0.0
4	0x00000000	0.0
5	0x00000000	0.0
6	0x00000000	0.0
7	0x00000000	0.0
8	0x00000000	0.0
9	0xc52890de	-2697.0542
10	0xc5b0633e	-5644.4053
11	0xc4077a61	-541.9122
12	0xc1b2a104	-22.32862
13	0xc0acab60	-5.39592
14	0x00000000	0.0
15	0x00000000	0.0
16	0x00000000	0.0
17	0xc49fbbe2	-1277.8713
18	0xc4a46483	-1315.141
19	0xc3969fe7	-301.24924
20	0xc3de45e9	-444.54617
21	0x00000000	0.0
22	0xc2e9932e	-116.78746
23	0x00000000	0.0
24	0x00000000	0.0
25	0x456080f0	3592.0586
26	0x45ce983d	6611.03
27	0x443bfa4a	751.91077
28	0x43922385	292.2775
29	0x40acde41	5.4021306
30	0x424e2b7c	51.542465
31	0x00000000	0.0
32	0x00000000	0.0
33	0xc321aeaa	-161.68228
34	0xc3a0128b	-320.14487
35	0xc2031dae	-32.778984
36	0x00000000	0.0
37	0x3f372108	0.71534777
38	0x00000000	0.0
39	0x00000000	0.0
40	0x00000000	0.0
41	0x462210b3	10372.175
42	0x4694e478	19058.234
43	0x4507bcf0	2171.8086
44	0x4454a51c	850.57983
45	0x41726443	15.149478
46	0x4317e0e2	151.87845
47	0x00000000	0.0
48	0x00000000	0.0
49	0x447417a4	976.3694
50	0x44bc2935	1505.2877
51	0x4356c3ba	214.76456
52	0x42df4514	111.63492
53	0x3e120072	0.14257982
54	0x41a7ff23	20.999578
55	0x00000000	0.0
56	0x00000000	0.0
57	0x00000000	0.0
58	0x00000000	0.0
59	0x00000000	0.0
60	0x00000000	0.0
61	0x00000000	0.0
62	0x00000000	0.0
63	0x00000000	0.0

exp_avg_sq f4 [8, 8]
0	0x00000000	0.0
1	0x00000000	0.0
2	0x00000000	0.0
3	0x00000000	0.0
4	0x00000000	0.0
5	0x00000000	0.0
6	0x00000000	0.0
7	0x00000000	0.0
8	0x00000000	0.0
9	0x4951b4fc	858959.75
10	0x4a6107a6	3.6868895e+06
11	0x47263d7e	42557.492
12	0x41da4c94	27.287392
13	0x42c36775	97.702065
14	0x00000000	0.0
15	0x00000000	0.0
16	0x00000000	0.0
17	0x475c95fb	56469.98
18	0x47702430	61476.188
19	0x454861b3	3206.1062
20	0x45c718aa	6371.083
21	0x00000000	0.0
22	0x43d080f1	417.00735
23	0x00000000	0.0
24	0x00000000	0.0
25	0x49996a1d	1.2567716e+06
26	0x4a8fb62f	4.7091435e+06
27	0x47773499	63284.598
28	0x4550d93c	3341.5771
29	0x42d95f0b	108.68563
30	0x42a47e1f	82.24633
31	0x00000000	0.0
32	0x00000000	0.0
33	0x44b51ee1	1448.965
34	0x45a270a5	5198.0806
35	0x428a5e96	69.18474
36	0x00000000	0.0
37	0x3e4083fe	0.18800351
38	0x00000000	0.0
39	0x00000000	0.0
40	0x00000000	0.0
41	0x4b1b8f2e	1.0194734e+07
42	0x4c111b27	3.8038684e+07
43	0x48fa64d1	512806.53
44	0x46dac394	28001.79
45	0x4453c20c	847.032
46	0x44315881	709.3829
47	0x00000000	0.0
48	0x00000000	0.0
49	0x481db799	161502.39
50	0x49037c6b	538566.7
51	0x46079e25	8679.536
52	0x441b0cfb	620.2028
53	0x417672fc	15.403072
54	0x41635c87	14.21009
55	0x00000000	0.0
56	0x00000000	0.0
57	0x00000000	0.0
58	0x00000000	0.0
59	0x00000000	0.0
60	0x00000000	0.0
61	0x00000000	0.0
62	0x00000000	0.0
63	0x00000000	0.0

exp_avg f4 [8]
0	0x00000000	0.0
1	0xc1452efc	-12.323971
2	0xc0adc198	-5.429882
3	0x41811bb3	16.138525
4	0xbf3c0e77	-0.7345957
5	0x423a5eb8	46.5925
6	0x408970ac	4.295004
7	0x00000000	0.0

exp_avg_sq f4 [8]
0	0x00000000	0.0
1	0x4188e70a	17.112812
2	0x3f81f693	1.0153373
3	0x41c5b7a6	24.714672
4	0x3cebf95c	0.028805427
5	0x43487be2	200.48392
6	0x40463e9d	3.0975716
7	0x00000000	0.0

exp_avg f4 [2, 8]
0	0x00000000	0.0
1	0xc53dce5c	-3036.8975
2	0xc3147eaf	-148.49486
3	0xc5b90f3f	-5921.906
4	0xc3d32659	-422.2996
5	0xc635e6d2	-11641.705
6	0xc3396912	-185.41043
7	0x00000000	0.0
8	0x00000000	0.0
9	0x45378ea3	2936.9148
10	0x43277023	167.43803
11	0x45b57439	5806.528
12	0x43c93548	402.41626
13	0x46329576	11429.365
14	0x433e1947	190.09874
15	0x00000000	0.0

exp_avg_sq f4 [2, 8]
0	0x00000000	0.0
1	0x49732e59	996069.56
2	0x44247e53	657.9738
3	0x4a657d83	3.7599688e+06
4	0x469b40db	19872.428
5	0x4b5efcd8	1.461372e+07
6	0x45e5bcab	7351.5835
7	0x00000000	0.0
8	0x00000000	0.0
9	0x49631c6d	930246.8
10	0x444e1376	824.3041
11	0x4a5c9cab	3.6145068e+06
12	0x468c137f	17929.748
13	0x4b5727b9	1.4100409e+07
14	0x45eddf9b	7611.9507
15	0x00000000	0.0

exp_avg f4 [2]
0	0xc29849e4	-76.14432
1	0x4296df1e	75.435776

exp_avg_sq f4 [2]
0	0x4404044d	528.0672
1	0x44017517	517.8295
