runs/ml-model-test-117/model.pt (torch, 7593 bytes, 18 tensors)

fc1.weight f4 [8, 4]
-0.4984809 -0.12958355 0.10649496 0.4114206 0.43956152 -0.40767938 0.43311068 0.5044532
0.32700723 -0.35106236 0.18594481 0.23366407 0.18404162 -0.21041898 -0.15649083 -0.2900442
0.14595552 -0.4973166 0.32445896 0.37378868 0.40510282 0.21974492 0.06228138 -0.47468477
0.326855 0.40391737 -0.28440997 -0.0024619272 0.40495256 -0.41879642 -0.042601217 -0.43337318
00000000: e338 ffbe 8db1 04be 081a da3d b9a5 d23e
00000010: 350e e13e 5abb d0be afc0 dd3e d823 013f
00000020: 7e6d a73e 72be b3be 5168 3e3e a245 6f3e
00000030: 6875 3c3e 1378 57be 223f 20be ac80 94be
00000040: 5d75 153e 48a0 febe 7c1f a63e 3b61 bf3e
00000050: a369 cf3e d004 613e c31a 7f3d e209 f3be
00000060: 8a59 a73e 42ce ce3e 2f9e 91be 4958 21bb
00000070: f155 cf3e 7c6c d6be 9d7e 2ebd 17e3 ddbe

fc1.bias f4 [8]
0.05402825 0.26881737 0.3255279 -0.2864364 0.35761356 -0.13399132 0.278608 -0.0032513232
00000000: ba4c 5d3d 6ea2 893e 98ab a63e cba7 92be
00000010: 2019 b73e 0535 09be b5a5 8e3e 2714 55bb

fc2.weight f4 [8, 8]
-0.15736057 -0.02394529 -0.08746649 -0.030959794 -0.33226797 0.27625924 0.20549563 0.055227123
-0.02749839 0.2525208 -0.09228489 -0.14397919 -0.15705498 0.31228057 0.055269256 -0.32412824
0.2168735 -0.18854114 0.24560492 -0.042847205 0.31334788 0.33391836 0.114439465 -0.22798464
-0.06499899 0.123234175 0.16210766 -0.27142096 0.25852573 0.22128789 -0.027511787 -0.19252275
-0.14503658 -0.32722476 -0.060390953 -0.0208519 -0.22343351 -0.11677437 -0.20202321 0.35153088
-0.17514646 -0.0027048588 0.029449737 -0.1943527 -0.30014172 0.21084474 0.06281818 0.297308
0.19681926 -0.11903592 0.18256807 -0.21018088 -0.21364735 0.14427096 0.04436922 -0.22293936
0.23741412 0.004358577 0.29491496 0.30955237 -0.1663926 0.11305301 0.061453756 -0.25187135
00000000: 2123 21be ea28 c4bc a221 b3bd 659f fdbc
00000010: 071f aabe da71 8d3e 726d 523e d635 623d
00000020: 4e44 e1bc 684a 813e dcff bcbd 486f 13be
00000030: 05d3 20be 3de3 9f3e 0462 623d 23f4 a5be
00000040: 1614 5e3e ee10 41be db7f 7b3e 8d80 2fbd
00000050: 226f a03e 59f7 aa3e 3d5f ea3d ce74 69be
00000060: 311e 85bd 3362 fc3d 8dff 253e b0f7 8abe
00000070: 7c5d 843e 4b99 623e 6660 e1bc af24 45be
00000080: 7884 14be 018a a7be 815c 77bd 9bd1 aabc
00000090: c1cb 64be 6727 efbd 2cdf 4ebe dbfb b33e
000000a0: 9859 33be 0044 31bb 9340 f13c 6504 47be
000000b0: 2dac 99be afe7 573e d1a6 803d c138 983e
000000c0: fd8a 493e 1bc9 f3bd 20f3 3a3e a839 57be
000000d0: 5fc6 5abe c4bb 133e 80bc 353d 374a 64be
000000e0: b01c 733e 65d2 8e3b 18ff 963e a67d 9e3e
000000f0: d262 2abe 5688 e73d efb6 7b3d 48f5 80be

fc2.bias f4 [8]
0.2504235 -0.020246468 0.11561014 -0.2980741 -0.13632773 0.08952521 -0.12504973 0.13568856
00000000: 8237 803e ecdb a5bc 02c5 ec3d 2b9d 98be
00000010: 7f99 0bbe fe58 b73d 090d 00be f1f1 0a3e

fc3.weight f4 [2, 8]
0.20300813 0.0014510059 0.008576844 0.08754094 0.08041648 -0.27518737 0.17832853 -0.12741902
0.13222441 -0.055343978 0.24026787 -0.07942469 -0.086263806 -0.08616612 -0.06020301 -0.026889445
00000000: 5de1 4f3e ae2f be3a e485 0c3c aa48 b33d
00000010: 65b1 a43d 5ce5 8cbe c19b 363e 227a 02be
00000020: d665 073e 5eb0 62bd c808 763e 69a9 a2bd
00000030: 14ab b0bd dd77 b0bd 6e97 76bd 4147 dcbc

fc3.bias f4 [2]
-0.13444616 -0.16166583
00000000: 41ac 09be ba8b 25be

exp_avg f4 [8, 4]
6.387404e-23 3.822457e-21 3.886338e-21 9.715836e-24 -2.8931262 0.31759524 -2.5755308 -0.006593397
2.9650524 -0.34883505 2.6162174 0.0058303317 1.5003902 -0.09278828 1.407602 0.0031742146
-1.6699083 -0.8271264 -2.4970348 -0.0058852825 3.980679 -0.07240175 3.9082778 0.009525584
0.15346497 -0.14022991 0.0132349655 0.00045694067 0.32164288 0.33227614 0.65391946 0.0015107804
00000000: 1e70 9a1a 8968 901d 5bd2 921d 7dee 3b19
00000010: fb28 39c0 d89b a23e 7fd5 24c0 6c0d d8bb
00000020: 6bc3 3d40 829a b2be 1b70 2740 5e0c bf3b
00000030: c90c c03f c807 bebd 4d2c b43f 7c06 503b
00000040: 8ebf d5bf 8ebe 53bf 6bcf 1fc0 54d9 c0bb
00000050: 72c3 7e40 5e47 94bd 3921 7a40 3211 1c3c
00000060: ec25 1d3e 6e98 0fbe 78d7 583c 8a91 ef39
00000070: 60ae a43e 1920 aa3e 4467 273f 6105 c63a

exp_avg_sq f4 [8, 4]
1.2805598e-06 0.0029078743 0.0030053188 1.878321e-08 40232.65 15435.272 5911.745 0.03631963
99533.336 39697.99 13547.34 0.084282055 11437.613 4430.376 1654.192 0.010216634
13164.489 5458.9697 1685.3026 0.010541928 175429.94 70810.875 23362.44 0.14566313
0.69086677 0.64419186 1.8901571 1.0521128e-05 1858.7233 618.7806 379.0512 0.002334276
00000000: b3df ab35 0992 3e3b e2f4 443b b758 a132
00000010: a628 1d47 172d 7146 f6bd b845 e4c3 143d
00000020: ab66 c247 fd11 1b47 5cad 5346 129c ac3d
00000030: 74b6 3246 0273 8a45 25c6 ce44 ab63 273c
00000040: f5b1 4d46 c297 aa45 afa9 d244 0db8 2c3c
00000050: 7c51 2b48 704d 8a47 e184 b646 b728 153e
00000060: a5dc 303f c2e9 243f abf0 f13f e783 3037
00000070: 2557 e844 f5b1 1a44 8e86 bd43 a7fa 183b

exp_avg f4 [8]
9.715836e-24 -0.006438827 0.0065405425 0.003519005 -0.006242587 0.009770695 3.3087552e-05 0.0016347978
00000000: 7dee 3b19 ccfc d2bb 0c52 d63b 1b9f 663b
00000010: 9e8e ccbb 4415 203c 7dc7 0a38 b646 d63a

exp_avg_sq f4 [8]
1.878321e-08 0.036948416 0.084670916 0.010338687 0.010533128 0.14601482 1.181349e-05 0.0023690695
00000000: b758 a132 3957 173d f267 ad3d 9963 293c
00000010: 2493 2c3c e984 153e 8e32 4637 6442 1b3b

exp_avg f4 [8, 8]
4.6341113e-23 0.027660375 -0.046717457 3.9490715e-23 -0.05347681 0.07420582 0.028198019 -0.025016392
-6.455279e-23 0.006366141 -0.11865786 -0.06364171 -0.12028299 0.06670365 0.02776728 -0.19281203
1.49653e-22 8.748455 5.7258096 0.687129 5.305136 4.2927127 -0.11241383 4.6263247
-6.5400867e-23 -6.0215974 -3.8411279 -0.29377562 -3.5506804 -3.0663815 0.07710287 -2.9174166
0.0 0.0 0.0 0.0 0.0 0.0 0.0 0.0
4.225096e-24 6.3224154 3.8361046 -0.043444045 3.5293763 3.4395072 -0.08004151 2.538176
-6.17551e-23 1.0940576 0.28191385 6.805788e-22 0.22247659 0.72900116 0.118659936 2.3045575e-07
9.703035e-24 3.417663 2.0965972 0.01761981 1.9310002 1.8335912 -0.04335024 1.4332719
00000000: 8517 601a 0398 e23c ce5a 3fbd 23f7 3e1a
00000010: 800a 5bbd 39f9 973d 88ff e63c 2def ccbc
00000020: 3e14 9c9a 109b d03b e402 f3bd 9656 82bd
00000030: ee56 f6bd ec9b 883d 3578 e33c 8470 45be
00000040: 5ceb 341b acf9 0b41 d539 b740 b0e7 2f3f
00000050: adc3 a940 e75d 8940 3939 e6bd da0a 9440
00000060: 2d21 9e9a edb0 c0c0 0ad5 75c0 c269 96be
00000070: 593e 63c0 983f 44c0 1ce8 9d3d f4b6 3ac0
00000080: 0000 0000 0000 0000 0000 0000 0000 0000
00000090: 0000 0000 0000 0000 0000 0000 0000 0000
000000a0: 5373 a318 3a51 ca40 bd82 7540 62f2 31bd
000000b0: 4de1 6140 e320 5c40 ceec a3bd 7a71 2240
000000c0: 8e50 959a 140a 8c3f 0357 903e 3cb1 4d1c
000000d0: e7d0 633e d29f 3a3f fb03 f33d 3273 7734
000000e0: 1aaf 3b19 feba 5a40 a62e 0640 6b57 903c
000000f0: 042b f73f 1eb3 ea3f 0590 31bd 7475 b73f

exp_avg_sq f4 [8, 8]
1.9666038e-06 9.292965 2.75513 0.0029235731 1.9543946 4.290165 0.057858337 0.79734117
8.3781146e-07 2880.588 1316.0574 128.57535 1101.8196 484.45084 0.07974089 1122.4348
5.3860463e-06 525635.25 309206.06 58953.36 227607.92 75080.27 0.46903902 328410.44
6.137075e-07 159682.8 92901.9 17558.799 69287.805 22463.719 0.23308338 98630.2
0.0 0.0 0.0 0.0 0.0 0.0 0.0 0.0
1.0354586e-06 384902.22 227221.2 43736.184 167132.83 54680.46 0.35811722 242245.81
3.7602962e-07 91.41068 29.663864 0.2832451 22.280806 35.77342 0.41882402 12.724044
1.5213186e-07 130076.16 76984.93 14840.386 56440.883 18558.424 0.09744101 82060.836
00000000: fff9 0336 fcaf 1441 0d54 3040 6b99 3f3b
00000010: 9a29 fa3f 0849 8940 ddfc 6c3d 8d1e 4c3f
00000020: f7e5 6035 6809 3445 d681 a444 4a93 0043
00000030: 3aba 8944 b539 f243 314f a33d ea4d 8c44
00000040: c9b9 b436 3454 0049 c2fa 9648 5c49 6647
00000050: fb45 5e48 23a4 9247 e225 f03e 4e5b a048
00000060: a9bd 2435 b3f0 1b48 f372 b547 992d 8946
00000070: e753 8747 707f af46 69ad 6e3e 1aa3 c047
00000080: 0000 0000 0000 0000 0000 0000 0000 0000
00000090: 0000 0000 0000 0000 0000 0000 0000 0000
000000a0: 16fa 8a35 c7f0 bb48 4de5 5d48 2fd8 2a47
000000b0: 3537 2348 7698 5547 245b b73e 7491 6c48
000000c0: 1ee1 c934 45d2 b642 984f ed41 8005 913e
000000d0: 173f b241 fb17 0f42 1a70 d63e af95 4b41
000000e0: b059 2334 140e fe47 775c 9647 8be1 6746
000000f0: e278 5c47 d9fc 9046 278f c73d 6b46 a047

exp_avg f4 [8]
0.00062760076 0.0005913781 0.021640662 -0.015906183 0.0 0.018691309 0.004450976 0.009871425
00000000: 9385 243a b606 1b3a c247 b13c af4d 82bc
00000010: 0000 0000 841e 993c 7ed9 913b c2bb 213c

exp_avg_sq f4 [8]
0.00016042928 0.008362415 0.64437383 0.19604777 0.0 0.46180508 0.0012532506 0.15623996
00000000: e838 2839 8302 093c aff5 243f bfc0 483e
00000010: 0000 0000 b771 ec3e 1d44 a43a 5efd 1f3e

exp_avg f4 [2, 8]
0.4366175 1.6587569 -7.543947 -13.793019 0.0 -2.8399694 -0.046665885 -1.6214876
-0.32231638 -2.191164 7.5908637 13.986152 0.0 2.9991972 0.1303796 1.6167163
00000000: 548c df3e 2552 d43f 0468 f1c0 35b0 5cc1
00000010: 0000 0000 0fc2 35c0 ba24 3fbd e88c cfbf
00000020: a706 a5be 083c 0cc0 5be8 f240 47c7 5f41
00000030: 0000 0000 d9f2 3f40 3b82 053e 8ff0 ce3f

exp_avg_sq f4 [2, 8]
10.687143 267.53522 264732.7 386037.56 0.0 114031.53 2.8994684 108856.164
9.757986 257.6677 256569.05 376993.6 0.0 110124.05 2.5842617 104980.86
00000000: 8afe 2a41 82c4 8543 9643 8148 b27e bc48
00000010: 0000 0000 c4b7 de47 e490 3940 159c d447
00000020: b620 1c41 77d5 8043 438e 7a48 3314 b848
00000030: 0000 0000 0616 d747 8b64 2540 6e0a cd47

exp_avg f4 [2]
-0.09715613 0.09347153
00000000: cbf9 c6bd 006e bf3d

exp_avg_sq f4 [2]
9.705918 9.545241
00000000: 714b 1b41 4fb9 1841
