runs/ml-model-test-104/model.pt (torch, 14505 bytes, 18 tensors)

fc1.weight f4 [21, 7]
-0.22217807 -0.30811802 -0.18987535 -0.010610669 -0.23046975 0.003995103 0.1277289 -0.07744574
0.14899465 0.09934903 0.3513804 -0.03337832 0.31352243 0.26916987 0.1842155 0.22110997
-0.25467047 -0.24594305 0.16861439 0.1444466 0.3481796 -0.04258675 -0.06694793 0.23066957
0.014758231 0.3573745 -0.19025666 -0.10582238 0.013382477 0.19188373 -0.33168113 -0.11535987
0.2647911 0.06899879 0.254795 -0.12802975 -0.23826197 -0.2580394 -0.21250314 -0.28404322
0.18730761 0.101591356 -0.24266574 0.34619075 0.1289334 0.14248206 -0.15950681 0.26142886
-0.2884493 0.27568647 -0.20559733 0.16021097 -0.1366644 0.24534565 -0.31719404 -0.07642407
-0.102018766 -0.22601219 -0.18565392 -0.10605875 0.039190784 0.26828143 -0.062109865 0.36697704
-0.17763415 -0.18807109 -0.018600004 -0.06619639 0.1222817 0.35209176 0.11844593 -0.32720983
-0.11816026 -0.08611237 -0.3551138 0.105921544 0.31914335 0.17977576 -0.017404454 -0.021807363
-0.18723066 -0.05190962 0.3215685 -0.20400153 0.060468893 -0.27732065 -0.103358805 0.021886693
-0.2854007 0.10269255 -0.32456708 -0.1544 0.26302475 0.3545511 -0.029550822 -0.27014703
-0.31033644 -0.09288556 -0.19888555 0.3010577 -0.26003346 0.22640905 0.07247159 -0.11434908
0.3108927 0.20174912 -0.023833673 -0.24861759 -0.1217048 0.111251846 0.31688076 -0.13795182
-0.16487467 -0.37712672 0.22849883 0.36118427 0.25238428 -0.21844241 0.26696125 -0.11458689
0.19760703 0.22100163 -0.30815244 0.093534246 0.15089205 -0.22722007 0.34146288 0.28450215
0.32250452 -0.013993161 -0.21279089 -0.217115 0.1232225 -0.08047327 0.29501584 0.31114683
0.023759216 -0.31483084 0.14462854 0.33284172 -0.09493312 -0.19780806 -0.08841601 0.054151066
-0.280436 0.20184691 0.16155958
00000000: a682 63be a5c1 9dbe af6e 42be 5fd8 2dbc
00000010: 4300 6cbe 5ae9 823b 5dcb 023e df9b 9ebd
00000020: 0e92 183e 8177 cb3d 22e8 b33e b5b7 08bd
00000030: 0386 a03e a2d0 893e fda2 3c3e a76a 623e
00000040: 2b64 82be 7fd8 7bbe 40a9 2c3e cfe9 133e
00000050: 9944 b23e 726f 2ebd ff1b 89bd a534 6c3e
00000060: 82cc 713c caf9 b63e a4d2 42be 67b9 d8bd
00000070: 2d42 5b3c 2b7d 443e 1cd2 a9be cc41 ecbd
00000080: b392 873e 3d4f 8d3d 7e74 823e 3b1a 03be
00000090: f2fa 73be be1d 84be 6c9a 59be 1d6e 91be
000000a0: 91cd 3f3e 210f d03d 5e7d 78be ea3f b13e
000000b0: 1e07 043e d1e6 113e c155 23be 01da 853e
000000c0: a0af 93be c726 8d3e 1b88 52be 580e 243e
000000d0: c1f1 0bbe e43b 7b3e 4267 a2be 3984 9cbd
000000e0: 37ef d0bd bd6f 67be 101c 3ebe 5435 d9bd
000000f0: 8486 203d 2f5c 893e ea66 7ebd 6ae4 bb3e
00000100: bae5 35be b595 40be 095f 98bc f991 87bd
00000110: d46e fa3d 5f45 b43e c893 f23d 0c88 a7be
00000120: 02fe f1bd af5b b0bd 7ad1 b5be 65ed d83d
00000130: c266 a33e 2317 383e c993 8ebc 5ba5 b2bc
00000140: 65b9 3fbe 2f9f 54bd a0a4 a43e c7e5 50be
00000150: 3bae 773d f9fc 8dbe c8ad d3bd b94b b33c
00000160: 0a20 92be 7950 d23d a82d a6be 091b 1ebe
00000170: 2eab 863e b987 b53e 9114 f2bc b650 8abe
00000180: 6be4 9ebe c93a bebd a7a8 4bbe 3c24 9a3e
00000190: 1b23 85be c6d7 673e fc6b 943d da2f eabd
000001a0: 542d 9f3e 5297 4e3e d63e c3bc 9c95 7ebe
000001b0: 5e40 f9bd 02d8 e33d 323e a23e 3e43 0dbe
000001c0: e8d4 28be c116 c1be 99fb 693e 25ed b83e
000001d0: 8338 813e 5eaf 5fbe 25af 883e 88ac eabd
000001e0: 7f59 4a3e 404e 623e 28c6 9dbe e28e bf3d
000001f0: 7283 1a3e 61ac 68be 39d4 ae3e 44aa 913e
00000200: 501f a53e 9243 65bc dbe5 59be 6553 5ebe
00000210: 145c fc3d 2bcf a4bd 510c 973e a34e 9f3e
00000220: b0a2 c23c 8231 a1be 8119 143e 3b6a aa3e
00000230: 4c6c c2bd 328e 4abe 7413 b5bd 82cd 5d3d
00000240: 4f95 8fbe f5b0 4e3e e06f 253e

fc1.bias f4 [21]
-0.14450781 -0.15409686 -0.17213373 0.2979864 0.21446683 0.1074287 -0.017202448 0.09421448
0.36466017 0.121898085 -0.19944291 0.13628784 -0.14999168 -0.013421182 -0.24282877 -0.021672472
0.011881755 -0.22922695 0.23242813 0.3436869 -0.31614327
00000000: dbf9 13be 91cb 1dbe d343 30be ac91 983e
00000010: 319d 5b3e 9403 dc3d 26ec 8cbc 85f3 c03d
00000020: bdb4 ba3e b4a5 f93d c33a 4cbe 0a8f 0b3e
00000030: 6b97 19be 84e4 5bbc 1ba8 78be 788a b1bc
00000040: b1ab 423c 78ba 6abe a401 6e3e bbf7 af3e
00000050: 88dd a1be

fc2.weight f4 [21, 21]
0.0632318 -0.13159396 -0.038215958 0.09526799 0.0020038388 0.06612702 -0.07692175 0.21366842
-0.10245082 0.045174215 0.03355951 0.15376559 0.022283927 0.13156776 0.06276705 0.14448911
-0.0056810845 0.07281548 0.22386141 -0.06929196 -0.08879906 0.15840644 0.06778821 -0.2122641
0.0858098 -0.2208494 -0.11847546 0.09274629 0.10853578 -0.04927249 0.17897068 0.20573577
0.16366144 -0.20042384 -0.079374075 0.006006218 0.17081317 -0.027269937 0.045585558 0.105990276
-0.108961195 -0.13215177 0.2158031 0.013147308 0.1597556 -0.20478001 -0.07725212 0.15312058
-0.033871066 0.07898794 -0.18280551 0.21710116 -0.09743205 -0.0056295404 -0.14293194 -0.09681749
-0.18039809 -0.18536113 -0.04458099 -0.096253596 0.16974404 -0.001055788 0.16968547 -0.03654921
0.046296015 0.20957704 -0.16885707 -0.09453314 0.18655485 -0.05003016 -0.058769118 0.017512824
-0.117148556 0.01569377 -0.09069769 0.06922734 -0.046322312 -0.07322605 -0.082204066 0.056694847
0.109510444 -0.19950353 -0.15219165 -0.20942757 0.10186327 0.16799349 -0.2208556 0.06393211
0.033909474 -0.117102824 0.051942196 0.15568738 0.21404326 0.08516783 -0.047724683 -0.1345792
-0.083110176 0.0017898137 -0.024366993 0.14956933 -0.1889795 0.019477319 -0.08121403 0.0129717365
0.20984739 0.0063838414 -0.037847266 -0.073961996 -0.21776794 -0.19770765 0.095081635 -0.13325846
0.12389253 -0.061867468 0.0787274 0.15929805 0.031922486 0.07492708 0.18441062 -0.06857172
0.16048183 -0.18352689 0.19982126 -0.07157858 -0.008213248 0.122417584 0.016020814 0.20875019
-0.09025122 -0.11091692 0.20113678 -0.13171448 0.13906242 0.21600947 0.14771856 -0.07753273
0.0080906 -0.19099034 -0.118822865 -0.045166425 -0.1372043 0.13180283 0.118897974 -0.062445883
-0.02548364 0.20557295 -0.013440993 0.18534641 0.18423413 -0.083126225 -0.1985181 0.19634697
-0.11732545 0.21722148 -0.14609386 0.039578807 0.0586271 -0.06266805 0.16363756 -0.19785245
-0.09067777 -0.04214619 0.16035648 0.109729975 0.14036949 0.084406964 0.20147246 -0.05434543
-0.06736643 -0.011381261 0.09054066 -0.074352674 0.08555132 0.059828654 0.041223504 0.1826939
0.034756564 0.14874403 -0.049442586 -0.19138275 0.13336603 0.090502016 0.1894209 0.08833194
-0.005109762 -0.1575105 -0.19873136 0.038590275 0.17802303 -0.016964093 -0.052970503 0.11431491
-0.11991241 0.0828336 -0.17707947 -0.21830812 -0.121968426 -0.03736318 0.077999346 0.121761225
-0.13295802 -0.044817246 0.07185167 -0.04163262 0.008677244 0.1255699 -0.062952265 0.120971546
0.1729573 0.072746016 -0.038774885 -0.13817146 -0.14423053 -0.0423998 0.068196684 0.11934722
-0.010526897 0.17584991 -0.08643008 0.04351542 -0.11172118 0.058637336 0.18624228 0.07646339
0.014621204 -0.080310486 -0.17903765 -0.14932862 -0.18718547 0.1550973 -0.09103522 -0.032651022
-0.19554646 -0.060847815 0.18560852 0.0401194 -0.038965747 0.11373708 0.16823575 0.16980994
-0.16145867 0.015667368 -0.179194 -0.15045549 0.16756606 -0.17385839 -0.10701776 0.10465084
0.2123202 -0.21198037 -0.1408117 -0.085570544 0.16904423 0.1462773 0.1409867 0.13033733
00000000: ad7f 813d 91c0 06be 5688 1cbd dd1b c33d
00000010: d652 033b 9a6d 873d 2789 9dbd e5cb 5a3e
00000020: bcd1 d1bd 9908 393d b275 093d ba74 1d3e
00000030: c88c b63c b3b9 063e 038c 803d f4f4 133e
00000040: 6428 babb 4820 953d ed3b 653e f1e8 8dbd
00000050: 48dc b5bd 4c35 223e 8cd4 8a3d c35b 59be
00000060: 0cbd af3d 5826 62be 43a3 f2bd c4f1 bd3d
00000070: 0248 de3d f3d1 49bd 1744 373e 66ac 523e
00000080: dd96 273e e83b 4dbe e08e a2bd cfcf c43b
00000090: a6e9 2e3e 3465 dfbc ecb7 3a3d 6e11 d93d
000000a0: 0c27 dfbd cb52 07be 7dfb 5c3e ce67 573c
000000b0: f996 233e dab1 51be 5c36 9ebd a4cb 1c3e
000000c0: 63bc 0abd 6ec4 a13d 5e31 3bbe c44f 5e3e
000000d0: 748a c7bd 0278 b8bb c05c 12be 4048 c6bd
000000e0: 47ba 38be 4fcf 3dbe 8e9a 36bd 9b20 c5bd
000000f0: 62d1 2d3e 5e62 8aba 07c2 2d3e a0b4 15bd
00000100: e4a0 3d3d 5d9b 563e dee8 2cbe 979a c1bd
00000110: 3c08 3f3e 6dec 4cbd e3b7 70bd 0e77 8f3c
00000120: 95eb efbd 3990 803c b6bf b9bd 10c7 8d3d
00000130: 77bc 3dbd 8af7 95bd 9b5a a8bd db38 683d
00000140: 0347 e03d a74a 4cbe 21d8 1bbe 2e74 56be
00000150: b19d d03d 7c06 2c3e f827 62be d7ee 823d
00000160: a9e4 0a3d 9bd3 efbd 57c1 543d 836c 1f3e
00000170: 282e 5b3e 796c ae3d f57a 43bd 21cf 09be
00000180: ab35 aabd 2f98 ea3a 4a9d c7bc b428 193e
00000190: d883 41be e68e 9f3c 8b53 a6bd 6887 543c
000001a0: 3ce2 563e 8b2f d13b bc05 1bbd 6379 97bd
000001b0: 8ffe 5ebe e073 4abe 29ba c23d e874 08be
000001c0: 5ebb fd3d be68 7dbd d53b a13d 071f 233e
000001d0: 27c1 023d 5e73 993d 23d6 3c3e 546f 8cbd
000001e0: 5955 243e 79ee 3bbe f29d 4c3e ca97 92bd
000001f0: dc90 06bc 12b6 fa3d 153e 833c 9cc2 553e
00000200: a2d5 b8bd 6928 e3bd cdf6 4d3e 29e0 06be
00000210: 6166 0e3e 9631 5d3e 8943 173e 7bc9 9ebd
00000220: 708e 043c f992 43be 6759 f3bd 6e00 39bd
00000230: 497f 0cbe 52f7 063e c880 f33d 41c7 7fbd
00000240: 11c3 d0bc b781 523e 9c37 5cbc 73cb 3d3e
00000250: dfa7 3c3e 153e aabd 5448 4bbe 2e0f 493e
00000260: 5348 f0bd 4f6f 5e3e a199 15be 631d 223d
00000270: f822 703d 1b58 80bd 9b90 273e d599 4abe
00000280: 44b5 b9bd 7ca1 2cbd 7d34 243e 1cba e03d
00000290: 05bd 0f3e 8fdd ac3d cc4e 4e3e 5099 5ebd
000002a0: 69f7 89bd 7878 3abc 626d b93d 3746 98bd
000002b0: 8835 af3d e40e 753d fad9 283d 1c14 3b3e
000002c0: e65c 0e3d 5b50 183e 4f84 4abd d7f9 43be
000002d0: 1b91 083e 1f59 b93d 8df7 413e 60e7 b43d
000002e0: ca6f a7bb 6f4a 21be 3c80 4bbe d610 1e3d
000002f0: ab4b 363e 48f8 8abc 99f7 58bd ef1d ea3d
00000300: a394 f5bd aaa4 a93d 5254 35be 2a8c 5fbe
00000310: 95ca f9bd 220a 19bd 1fbe 9f3d f35d f93d
00000320: 2626 08be 4a92 37bd f826 933d f786 2abd
00000330: 002b 0e3c 6595 003e 1eed 80bd eebf f73d
00000340: b81b 313e ddfb 943d 6ad2 1ebd d27c 0dbe
00000350: 2bb1 13be 6aab 2dbd b4aa 8b3d 516c f43d
00000360: 0279 2cbc 0012 343e 4102 b1bd 3a3d 323d
00000370: 13ce e4bd b42d 703d 4cb6 3e3e d698 9c3d
00000380: c68d 6f3c d379 a4bd a555 37be 9ae9 18be
00000390: 8cad 3fbe d4d1 1e3e ac70 babd 14bd 05bd
000003a0: 553d 48be 8f3b 79bd 2910 3e3e 3d54 243d
000003b0: 8c9a 1fbd fcee e83d fe45 2c3e a8e2 2d3e
000003c0: 6c55 25be da58 803c a27e 37be 0111 1abe
000003d0: 7096 2b3e ef07 32be 212c dbbd 2e53 d63d
000003e0: 776a 593e 6211 59be f130 10be 9c3f afbd
000003f0: ee19 2d3e b7c9 153e d15e 103e 2677 053e

fc2.bias f4 [21]
0.049452927 -0.20717454 0.0039476757 -0.20486477 0.17842317 0.10227471 0.0920919 0.15827921
0.17463666 0.2247172 0.090032786 -0.1575486 0.2107609 0.05211632 -0.090993784 -0.072426274
0.20567045 0.0421416 0.15861054 0.0077198823 0.19233817
00000000: 278f 4a3d 9025 54be 815b 813b 12c8 51be
00000010: 90b4 363e 6775 d13d ae9a bc3d f213 223e
00000020: f4d3 323e 441c 663e 1c63 b83d 6c54 21be
00000030: b5d1 573e ec77 553d f35a babd 3a54 94bd
00000040: 469b 523e ac9c 2c3d cd6a 223e 11f7 fc3b
00000050: 4cf4 443e

fc3.weight f4 [2, 21]
-0.16560028 0.04325218 0.04864485 -0.0025167638 0.18702798 0.043820743 0.0046925545 0.14110836
-0.022224586 -0.019273117 -0.17991178 -0.0014297075 -0.10734627 0.11681612 0.1815506 -0.20684856
-0.11586973 0.2105792 -0.09314027 0.18706168 0.20567332 -0.048421882 -0.16758987 0.11296771
0.09919592 0.19685476 0.03151727 0.1259999 -0.17895631 0.035504743 0.05696058 0.1367697
-0.11681194 -0.020181397 -0.12035454 -0.13847545 0.09462966 0.032572165 0.10571922 -0.004969066
0.0019899495 0.0009995552
00000000: 1f93 29be 3329 313d d23f 473d 4af0 24bb
00000010: 4384 3f3e 617d 333d 00c4 993b b67e 103e
00000020: 5610 b6bc a8e2 9dbc cb3a 38be 0665 bbba
00000030: 5cd8 dbbd 4a3d ef3d 67e8 393e 1cd0 53be
00000040: 1c4d edbd 13a2 573e 53c0 bebd 198d 3f3e
00000050: 079c 523e 0656 46bd ae9c 2bbe 9d5b e73d
00000060: 3b27 cb3d 4b94 493e 4118 013d 1e06 013e
00000070: 5340 37be 6c6d 113d 7f4f 693d 5b0d 0c3e
00000080: 193b efbd 7553 a5bc 717c f6bd 82cc 0dbe
00000090: 32cd c13d 646a 053d 5283 d83d 8cd3 a2bb
000000a0: d069 023b 8203 833a

fc3.bias f4 [2]
0.10890312 -0.14184111
00000000: 9908 df3d cc3e 11be

exp_avg f4 [21, 7]
0.0 0.0 0.0 0.0 0.0 0.0 0.0 15.53757
8.033006 -8.065005 6.0211883 7.4725637 0.18681405 0.016205842 -15.930999 -14.579623
2.3685544 -11.686061 -13.562437 -0.33906093 -0.031367328 -11.13153 -3.433454 7.9376197
-5.1520867 -3.1939104 -0.07984774 -0.0046798503 41.316822 17.760588 -24.795353 15.724851
16.521477 0.41303694 0.037567988 0.0 0.0 0.0 0.0 0.0
0.0 0.0 0.8839091 0.86126053 -0.082736515 0.50087315 0.80117255 0.020029318
0.0023669358 43.870464 13.479431 -31.33145 11.739422 12.539006 0.3134752 0.027798807
0.0 0.0 0.0 0.0 0.0 0.0 0.0 -5.5586553
-11.525369 -5.1626177 -8.517927 -10.721274 -0.26803187 -0.025837103 1.6638283 0.49501786
-1.2033465 0.4465298 0.46048158 0.011512042 0.0009958994 -9.958684 3.594487 13.302394
2.6060708 3.3437083 0.08359265 0.012843661 0.0 0.0 0.0 0.0
0.0 0.0 0.0 0.0 0.0 0.0 0.0 0.0
0.0 0.0 -6.0705194 -6.5641937 -0.03570635 -4.7560163 -6.106227 -0.15265566
-0.01265972 -3.1416032 11.730137 14.053354 8.197058 10.911756 0.27279386 0.025123626
2.2592034 2.6594198 0.21467555 2.560687 2.4738789 0.06184697 0.0036060403 0.0
0.0 0.0 0.0 0.0 0.0 0.0 8.917376 15.427762
5.4340386 11.130478 14.35141 0.35878524 0.03439705 0.42688143 0.5717511 0.10498009
0.4838932 0.53186154 0.013296538 0.0013296538 0.0 0.0 0.0 0.0
0.0 0.0 0.0
00000000: 0000 0000 0000 0000 0000 0000 0000 0000
00000010: 0000 0000 0000 0000 0000 0000 e399 7841
00000020: 3187 0041 430a 01c1 93ad c040 3e1f ef40
00000030: 2f4c 3f3e 1dc2 843c 5fe5 7ec1 2346 69c1
00000040: 6596 1740 1bfa 3ac1 beff 58c1 6599 adbe
00000050: 077b 00bd bf1a 32c1 b6bd 5bc0 fb00 fe40
00000060: e5dd a4c0 0769 4cc0 3687 a3bd 6e59 99bb
00000070: 6d44 2542 af15 8e41 e25c c6c1 fd98 7b41
00000080: fc2b 8441 9479 d33e e4e0 193d 0000 0000
00000090: 0000 0000 0000 0000 0000 0000 0000 0000
000000a0: 0000 0000 0000 0000 de47 623f 927b 5c3f
000000b0: c371 a9bd 3939 003f a519 4d3f 8614 a43c
000000c0: 981e 1b3b 5b7b 2f42 c0ab 5741 cfa6 fac1
000000d0: acd4 3b41 c59f 4841 d27f a03e 53ba e33c
000000e0: 0000 0000 0000 0000 0000 0000 0000 0000
000000f0: 0000 0000 0000 0000 0000 0000 81e0 b1c0
00000100: e967 38c1 2a34 a5c0 6e49 08c1 578a 2bc1
00000110: 793b 89be 55a8 d3bc 53f8 d43f fb72 fd3e
00000120: 4207 9abf 8e9f e43e 3ec4 eb3e 019d 3c3c
00000130: d788 823a c556 1fc1 130c 6640 9bd6 5441
00000140: ddc9 2640 51ff 5540 a032 ab3d 386e 523c
00000150: 0000 0000 0000 0000 0000 0000 0000 0000
00000160: 0000 0000 0000 0000 0000 0000 0000 0000
00000170: 0000 0000 0000 0000 0000 0000 0000 0000
00000180: 0000 0000 0000 0000 b241 c2c0 e00d d2c0
00000190: d240 12bd 4931 98c0 3666 c3c0 c451 1cbe
000001a0: b76a 4fbc 0710 49c0 a4ae 3b41 8ada 6041
000001b0: 2627 0341 8d96 2e41 a3ab 8b3e 10d0 cd3c
000001c0: ca96 1040 ef33 2a40 e8d3 5b3e 4ce2 2340
000001d0: 0854 1e40 4053 7d3d 5153 6c3b 0000 0000
000001e0: 0000 0000 0000 0000 0000 0000 0000 0000
000001f0: 0000 0000 0000 0000 92ad 0e41 1dd8 7641
00000200: a5e3 ad40 7016 3241 609f 6541 b3b2 b73e
00000210: ece3 0c3d 3490 da3e 485e 123f cdff d63d
00000220: d9c0 f73e 1428 083f b9d9 593c c747 ae3a
00000230: 0000 0000 0000 0000 0000 0000 0000 0000
00000240: 0000 0000 0000 0000 0000 0000

exp_avg_sq f4 [21, 7]
0.0 0.0 0.0 0.0 0.0 0.0 0.0 27602.611
4024.4258 11497.119 3089.7234 3482.4653 2.1765406 0.02231268 26172.848 3699.5815
11198.561 2392.1426 3201.3708 2.0008564 0.019513415 30.205103 20.284906 2.906949
19.723978 17.553194 0.010970743 5.0671035e-05 4380.2637 594.0338 2060.4739 379.43204
514.0374 0.32127342 0.003182691 0.0 0.0 0.0 0.0 0.0
0.0 0.0 0.85714924 0.9720884 0.0017512009 1.3644408 0.84118 0.0005257375
5.030379e-07 10820.133 954.4143 5678.8125 797.84143 825.8863 0.5161791 0.00334678
0.0 0.0 0.0 0.0 0.0 0.0 0.0 26742.33
3743.815 11562.344 2311.3496 3239.6455 2.0247784 0.020201739 21869.766 1929.0988
11455.293 1611.5829 1669.312 1.0433197 0.008068426 19066.617 2406.1025 8565.15
1525.0046 2082.079 1.3012992 0.009288066 0.0 0.0 0.0 0.0
0.0 0.0 0.0 0.0 0.0 0.0 0.0 0.0
0.0 0.0 6180.2246 865.1732 2691.2876 542.77515 748.6624 0.46791413
0.0050854445 159722.77 20871.14 70534.586 14555.264 18060.488 11.287797 0.10817767
11.326158 13.11951 0.002229367 19.085659 11.352738 0.007095463 6.545185e-07 0.0
0.0 0.0 0.0 0.0 0.0 0.0 101450.09 14160.364
43364.105 9379.689 12253.423 7.658389 0.073243625 0.009380341 0.016805395 0.00059828465
0.012112624 0.014542257 9.08891e-06 9.0889095e-08 0.0 0.0 0.0 0.0
0.0 0.0 0.0
00000000: 0000 0000 0000 0000 0000 0000 0000 0000
00000010: 0000 0000 0000 0000 0000 0000 39a5 d746
00000020: d086 7b45 7aa4 3346 931b 4145 72a7 5945
00000030: 714c 0b40 15c9 b63c b279 cc46 4e39 6745
00000040: 3efa 2e46 4882 1545 ef15 4845 080e 0040
00000050: 99da 9f3c 0da4 f141 7d47 a241 740b 3a40
00000060: b5ca 9d41 f16c 8c41 a2be 333c 9c87 5438
00000070: 1ce2 8845 2a82 1444 95c7 0045 4db7 bd43
00000080: 6582 0044 f37d a43e b294 503b 0000 0000
00000090: 0000 0000 0000 0000 0000 0000 0000 0000
000000a0: 0000 0000 0000 0000 226e 5b3f c9da 783f
000000b0: 8d88 e53a ffa5 ae3f 9357 573f a5d1 093a
000000c0: 8008 0735 8810 2946 849a 6e44 8076 b145
000000d0: da75 4744 b978 4e44 5024 043f a755 5b3b
000000e0: 0000 0000 0000 0000 0000 0000 0000 0000
000000f0: 0000 0000 0000 0000 0000 0000 a9ec d046
00000100: 0afd 6945 60a9 3446 9875 1045 547a 4a45
00000110: f895 0140 1e7e a53c 88db aa46 2923 f144
00000120: 2cfd 3246 a772 c944 fca9 d044 808b 853f
00000130: 6e31 043c 3cf5 9446 a461 1645 9ad4 0546
00000140: 26a0 be44 4421 0245 f990 a63f f92c 183c
00000150: 0000 0000 0000 0000 0000 0000 0000 0000
00000160: 0000 0000 0000 0000 0000 0000 0000 0000
00000170: 0000 0000 0000 0000 0000 0000 0000 0000
00000180: 0000 0000 0000 0000 cc21 c145 164b 5844
00000190: 9a34 2845 9cb1 0744 652a 3b44 7192 ef3e
000001a0: cda3 a63b b1fa 1b48 480e a346 4bc3 8947
000001b0: 0e6d 6346 fa18 8d46 d19a 3441 418c dd3d
000001c0: f137 3541 83e9 5141 921a 123b 6eaf 9841
000001d0: d1a4 3541 0f81 e83b 2bb2 2f35 0000 0000
000001e0: 0000 0000 0000 0000 0000 0000 0000 0000
000001f0: 0000 0000 0000 0000 0c25 c647 7541 5d46
00000200: 1b64 2947 c28e 1246 b175 3f46 8611 f540
00000210: c100 963d 00b0 193c 78ab 893c 34d6 1c3a
00000220: 0774 463c a642 6e3c 927c 1837 cf2e c333
00000230: 0000 0000 0000 0000 0000 0000 0000 0000
00000240: 0000 0000 0000 0000 0000 0000

exp_avg f4 [21]
0.0 0.018681413 -0.03390609 -0.007984774 0.041303687 0.0 0.0020029317 0.031347524
0.0 -0.02680318 0.0011512043 0.008359266 0.0 0.0 -0.015265567 0.027279384
0.006184698 0.0 0.03587852 0.0013296538 0.0
00000000: 0000 0000 c309 993c 1de1 0abd 92d2 02bc
00000010: 0e2e 293d 0000 0000 9e43 033b 4366 003d
00000020: 0000 0000 5892 dbbc 02e4 963a 4ef5 083c
00000030: 0000 0000 0000 0000 6e1c 7abc 0479 df3c
00000040: 02a9 ca3b 0000 0000 5bf5 123d c747 ae3a
00000050: 0000 0000

exp_avg_sq f4 [21]
0.0 0.021765405 0.020008566 0.00010970743 0.003212733 0.0 5.257374e-06 0.005161789
0.0 0.020247785 0.010433202 0.013013001 0.0 0.0 0.0046791416 0.11287805
7.095461e-05 0.0 0.076583855 9.0889095e-08 0.0
00000000: 0000 0000 5d4d b23c 01e9 a33c ba12 e638
00000010: b78c 523b 0000 0000 8068 b036 3924 a93b
00000020: 0000 0000 afde a53c 05f0 2a3c 7b34 553c
00000030: 0000 0000 0000 0000 7c53 993b 9b2c e73d
00000040: 77cd 9438 0000 0000 ffd7 9c3d cf2e c333
00000050: 0000 0000

exp_avg f4 [21, 21]
0.0 -6.232441 15.208038 1.4341671 10.9111 0.0 0.649023 3.713953
0.0 22.280203 -0.017350173 7.5912 0.0 0.0 1.3995782 16.161436
0.27490532 0.0 -2.2625139 0.019709192 0.0 0.0 9.367393 -30.998297
-1.4245038 -23.452425 0.0 -1.1248847 -8.061114 0.0 -42.862633 0.036996998
-14.053646 0.0 0.0 -5.0688295 -31.914104 -0.5052392 0.0 1.5784352
-0.17040989 0.0 0.0 -4.1679153 7.799688 0.22210383 5.2789936 0.0
0.08099777 1.757112 0.0 12.235949 -0.009852738 4.1755958 0.0 0.0
-0.04189534 8.638688 0.0 0.0 -2.103246 0.0 0.0 0.0
0.0 0.0 0.0 0.0 0.0 0.0 0.0 0.0
0.0 0.0 0.0 0.0 0.0 0.0 0.0 0.0
0.0 0.0 0.0 0.0 0.0 0.3275341 1.0591987 0.4228549
0.84590566 0.0 0.31499675 0.42501387 0.0 0.7843545 -8.132346e-07 0.28622052
0.0 0.0 0.4594948 0.7156814 0.034007236 0.0 0.5166757 0.108192176
0.0 0.0 0.0 0.0 0.0 0.0 0.0 0.0
0.0 0.0 0.0 0.0 0.0 0.0 0.0 0.0
0.0 0.0 0.0 0.0 0.0 0.0 0.0 -5.9758472
15.224021 1.7475945 10.846484 0.0 0.9006599 3.7592168 0.0 22.118452
-0.01795012 7.5796733 0.0 0.0 1.4148072 16.02327 0.29481742 0.0
-2.1515203 0.11374756 0.0 0.0 16.582254 -36.054733 -4.34208 -24.85156
0.0 -2.1634538 -8.417308 0.0 -54.84047 0.054441296 -18.951014 0.0
0.0 -1.753169 -38.89736 -0.76238 0.0 7.6669407 -0.21872965 0.0
0.0 -2.940148 7.949952 0.8028079 5.7538347 0.0 0.39870912 2.0029209
0.0 11.3390665 -0.008137943 3.8511431 0.0 0.0 0.90435284 8.296068
0.13955717 0.0 -0.89164364 0.04121151 0.0 0.0 -4.5226645 9.626378
0.5707169 6.7345276 0.0 0.24520412 2.2784402 0.0 14.520145 -0.01112068
4.949253 0.0 0.0 0.41567305 10.421402 0.0402466 0.0 -1.9538649
0.0019657253 0.0 0.0 0.0 0.0 0.0 0.0 0.0
0.0 0.0 0.0 0.0 0.0 0.0 0.0 0.0
0.0 0.0 0.0 0.0 0.0 0.0 0.0 0.0
0.0 0.0 0.0 0.0 0.0 0.0 0.0 0.0
0.0 0.0 0.0 0.0 0.0 0.0 0.0 0.0
0.0 0.0 0.0 0.0 0.0 -4.6029325 11.59121 1.0944083
00000000: 0000 0000 2870 c7c0 2054 7341 ca92 b73f
00000010: de93 2e41 0000 0000 5f26 263f 68b1 6d40
00000020: 0000 0000 db3d b241 f321 8ebc 1ceb f240
00000030: 0000 0000 0000 0000 6125 b33f 9f4a 8141
00000040: 64c0 8c3e 0000 0000 07cd 10c0 2c75 a13c
00000050: 0000 0000 0000 0000 d7e0 1541 83fc f7c1
00000060: 2456 b6bf 919e bbc1 0000 0000 39fc 8fbf
00000070: 53fa 00c1 0000 0000 5673 2bc2 2a8a 173d
00000080: bcdb 60c1 0000 0000 0000 0000 da33 a2c0
00000090: 1650 ffc1 5b57 01bf 0000 0000 2a0a ca3f
000000a0: ee7f 2ebe 0000 0000 0000 0000 905f 85c0
000000b0: 0b97 f940 306f 633e 84ed a840 0000 0000
000000c0: 29e2 a53d 0ce9 e03f 0000 0000 72c6 4341
000000d0: 616d 21bc 7b9e 8540 0000 0000 0000 0000
000000e0: 739a 2bbd 1138 0a41 0000 0000 0000 0000
000000f0: 959b 06c0 0000 0000 0000 0000 0000 0000
00000100: 0000 0000 0000 0000 0000 0000 0000 0000
00000110: 0000 0000 0000 0000 0000 0000 0000 0000
00000120: 0000 0000 0000 0000 0000 0000 0000 0000
00000130: 0000 0000 0000 0000 0000 0000 0000 0000
00000140: 0000 0000 0000 0000 0000 0000 0000 0000
00000150: 0000 0000 8db2 a73e d393 873f 7080 d83e
00000160: 468d 583f 0000 0000 4147 a13e 6b9b d93e
00000170: 0000 0000 75cb 483f 0e4d 5ab5 7f8b 923e
00000180: 0000 0000 0000 0000 e742 eb3e e536 373f
00000190: 2c4b 0b3d 0000 0000 dc44 043f dc93 dd3d
000001a0: 0000 0000 0000 0000 0000 0000 0000 0000
000001b0: 0000 0000 0000 0000 0000 0000 0000 0000
000001c0: 0000 0000 0000 0000 0000 0000 0000 0000
000001d0: 0000 0000 0000 0000 0000 0000 0000 0000
000001e0: 0000 0000 0000 0000 0000 0000 0000 0000
000001f0: 0000 0000 0000 0000 0000 0000 243a bfc0
00000200: 9795 7341 2db1 df3f 338b 2d41 0000 0000
00000210: a691 663f 0297 7040 0000 0000 97f2 b041
00000220: 210c 93bc af8c f240 0000 0000 0000 0000
00000230: 6718 b53f a82f 8041 4ff2 963e 0000 0000
00000240: 82b2 09c0 7bf4 e83d 0000 0000 0000 0000
00000250: 75a8 8441 0c38 10c2 52f2 8ac0 ffcf c6c1
00000260: 0000 0000 0776 0ac0 4bad 06c1 0000 0000
00000270: a45c 5bc2 d6fd 5e3d ad9b 97c1 0000 0000
00000280: 0000 0000 d767 e0bf e696 1bc2 562b 43bf
00000290: 0000 0000 9457 f540 aafa 5fbe 0000 0000
000002a0: 0000 0000 632b 3cc0 0266 fe40 d284 4d3f
000002b0: 6a1f b840 0000 0000 9a23 cc3e db2f 0040
000002c0: 0000 0000 d16c 3541 0255 05bc 2179 7640
000002d0: 0000 0000 0000 0000 ab83 673f b2bc 0441
000002e0: 13e8 0e3e 0000 0000 c242 64bf 66cd 283d
000002f0: 0000 0000 0000 0000 abb9 90c0 a505 1a41
00000300: 811a 123f 4081 d740 0000 0000 ca16 7b3e
00000310: f7d1 1140 0000 0000 8452 6841 8333 36bc
00000320: 4860 9e40 0000 0000 0000 0000 19d3 d43e
00000330: 10be 2641 9ed9 243d 0000 0000 3f18 fabf
00000340: 66d3 003b 0000 0000 0000 0000 0000 0000
00000350: 0000 0000 0000 0000 0000 0000 0000 0000
00000360: 0000 0000 0000 0000 0000 0000 0000 0000
00000370: 0000 0000 0000 0000 0000 0000 0000 0000
00000380: 0000 0000 0000 0000 0000 0000 0000 0000
00000390: 0000 0000 0000 0000 0000 0000 0000 0000
000003a0: 0000 0000 0000 0000 0000 0000 0000 0000
000003b0: 0000 0000 0000 0000 0000 0000 0000 0000
000003c0: 0000 0000 0000 0000 0000 0000 0000 0000
000003d0: 0000 0000 0000 0000 0000 0000 0000 0000
000003e0: 0000 0000 0000 0000 0000 0000 0000 0000
000003f0: 0000 0000 394b 93c0 9975 3941 9215 8c3f

exp_avg_sq f4 [21, 21]
0.0 281.75897 38503.586 1.0675864 31444.547 0.0 0.644222 4427.4155
0.0 37891.086 1.8725456 3871.955 0.0 0.0 7527.4893 32052.004
0.39967948 0.0 6063.1577 2.8532982e-05 0.0 0.0 1214.4579 151463.5
0.21349189 124582.27 0.0 0.111753814 17174.986 0.0 150277.6 8.420043
15801.21 0.0 0.0 30005.262 128713.67 0.047176544 0.0 24635.73
0.0017427478 0.0 0.0 91.62729 12671.52 0.03750339 10337.129 0.0
0.0005379965 1461.6204 0.0 12470.0625 0.5451877 1258.642 0.0 0.0
2475.1199 10492.559 0.0 0.0 1968.1461 0.0 0.0 0.0
0.0 0.0 0.0 0.0 0.0 0.0 0.0 0.0
0.0 0.0 0.0 0.0 0.0 0.0 0.0 0.0
0.0 0.0 0.0 0.0 0.0 4.02576 152.04097 1.1199661
111.600685 0.0 0.84485745 17.60837 0.0 158.07263 0.00471825 14.743088
0.0 0.0 18.260136 120.82906 0.5515287 0.0 13.413202 0.00078832405
0.0 0.0 0.0 0.0 0.0 0.0 0.0 0.0
0.0 0.0 0.0 0.0 0.0 0.0 0.0 0.0
0.0 0.0 0.0 0.0 0.0 0.0 0.0 313.13824
40314.434 0.19392475 32996.45 0.0 0.03152862 4633.524 0.0 39671.426
1.8941411 4050.85 0.0 0.0 7941.0874 33599.3 0.0069261566 0.0
6393.1797 0.00078709086 0.0 0.0 2748.2126 339914.03 2.1188266 279395.5
0.0 0.6396407 38769.355 0.0 335338.25 18.308767 35012.0 0.0
0.0 67380.58 286910.25 0.33808133 0.0 55271.22 0.0028251547 0.0
0.0 65.25136 9078.099 0.062574446 7394.475 0.0 0.016399827 1050.1196
0.0 8916.411 0.38536218 894.27423 0.0 0.0 1771.3159 7482.9634
0.00704408 0.0 1403.7664 0.00010063737 0.0 0.0 120.0704 16206.055
0.07623388 13229.312 0.0 0.0078655025 1868.7607 0.0 15932.598 0.7253563
1612.3301 0.0 0.0 3174.319 13430.621 0.0036536972 0.0 2535.5117
1.0463677e-06 0.0 0.0 0.0 0.0 0.0 0.0 0.0
0.0 0.0 0.0 0.0 0.0 0.0 0.0 0.0
0.0 0.0 0.0 0.0 0.0 0.0 0.0 0.0
0.0 0.0 0.0 0.0 0.0 0.0 0.0 0.0
0.0 0.0 0.0 0.0 0.0 0.0 0.0 0.0
0.0 0.0 0.0 0.0 0.0 152.11797 21024.77 0.47448674
00000000: 0000 0000 26e1 8c43 9667 1647 aca6 883f
00000010: 18a9 f546 0000 0000 bceb 243f 535b 8a45
00000020: 0000 0000 1603 1447 93af ef3f 48ff 7145
00000030: 0000 0000 0000 0000 ea3b eb45 0268 fa46
00000040: caa2 cc3e 0000 0000 4379 bd45 1d5a ef37
00000050: 0000 0000 0000 0000 a7ce 9744 e0e9 1348
00000060: 9e9d 5a3e 2353 f347 0000 0000 2fdf e43d
00000070: f92d 8646 0000 0000 66c1 1248 7fb8 0641
00000080: d7e4 7646 0000 0000 0000 0000 866a ea46
00000090: d664 fb47 313c 413d 0000 0000 7677 c046
000000a0: ea6c e43a 0000 0000 0000 0000 2c41 b742
000000b0: 14fe 4546 289d 193d 8484 2146 0000 0000
000000c0: 5508 0d3a dab3 b644 0000 0000 40d8 4246
000000d0: 6c91 0b3f 8b54 9d44 0000 0000 0000 0000
000000e0: ebb1 1a45 3cf2 2346 0000 0000 0000 0000
000000f0: ad04 f644 0000 0000 0000 0000 0000 0000
00000100: 0000 0000 0000 0000 0000 0000 0000 0000
00000110: 0000 0000 0000 0000 0000 0000 0000 0000
00000120: 0000 0000 0000 0000 0000 0000 0000 0000
00000130: 0000 0000 0000 0000 0000 0000 0000 0000
00000140: 0000 0000 0000 0000 0000 0000 0000 0000
00000150: 0000 0000 07d3 8040 7d0a 1843 0d5b 8f3f
00000160: 8d33 df42 0000 0000 9448 583f f1dd 8c41
00000170: 0000 0000 9812 1e43 8d9b 9a3b b0e3 6b41
00000180: 0000 0000 0000 0000 c214 9241 7ba8 f142
00000190: fc30 0d3f 0000 0000 7a9c 5641 88a7 4e3a
000001a0: 0000 0000 0000 0000 0000 0000 0000 0000
000001b0: 0000 0000 0000 0000 0000 0000 0000 0000
000001c0: 0000 0000 0000 0000 0000 0000 0000 0000
000001d0: 0000 0000 0000 0000 0000 0000 0000 0000
000001e0: 0000 0000 0000 0000 0000 0000 0000 0000
000001f0: 0000 0000 0000 0000 0000 0000 b291 9c43
00000200: 6f7a 1d47 3694 463e 73e4 0047 0000 0000
00000210: 2724 013d 31cc 9045 0000 0000 6df7 1a47
00000220: 3773 f23f 9a2d 7d45 0000 0000 0000 0000
00000230: b328 f845 4d3f 0347 d0f4 e23b 0000 0000
00000240: 70c9 c745 c654 4e3a 0000 0000 0000 0000
00000250: 67c3 2b45 41f9 a548 db9a 0740 706c 8848
00000260: 0000 0000 7ebf 233f 5b71 1747 0000 0000
00000270: 48bd a348 5b78 9241 00c4 0847 0000 0000
00000280: 0000 0000 4a9a 8347 c817 8c48 ff18 ad3e
00000290: 0000 0000 38e7 5747 3b26 393b 0000 0000
000002a0: 0000 0000 b280 8242 65d8 0d46 0827 803d
000002b0: cd13 e745 0000 0000 ee58 863c d443 8344
000002c0: 0000 0000 a551 0b46 314e c53e 8d91 5f44
000002d0: 0000 0000 0000 0000 1c6a dd44 b5d7 e945
000002e0: 07d2 e63b 0000 0000 8678 af44 470d d338
000002f0: 0000 0000 0000 0000 0b24 f042 3838 7d46
00000300: 8220 9c3d 3fb5 4e46 0000 0000 4fde 003c
00000310: 5898 e944 0000 0000 64f2 7846 f3b0 393f
00000320: 908a c944 0000 0000 0000 0000 1b65 4645
00000330: 7cda 5146 de72 6f3b 0000 0000 3078 1e45
00000340: ec70 8c35 0000 0000 0000 0000 0000 0000
00000350: 0000 0000 0000 0000 0000 0000 0000 0000
00000360: 0000 0000 0000 0000 0000 0000 0000 0000
00000370: 0000 0000 0000 0000 0000 0000 0000 0000
00000380: 0000 0000 0000 0000 0000 0000 0000 0000
00000390: 0000 0000 0000 0000 0000 0000 0000 0000
000003a0: 0000 0000 0000 0000 0000 0000 0000 0000
000003b0: 0000 0000 0000 0000 0000 0000 0000 0000
000003c0: 0000 0000 0000 0000 0000 0000 0000 0000
000003d0: 0000 0000 0000 0000 0000 0000 0000 0000
000003e0: 0000 0000 0000 0000 0000 0000 0000 0000
000003f0: 0000 0000 331e 1843 8a41 a446 edef f23e

exp_avg f4 [21]
-0.015036991 0.012783386 -0.013324655 0.0 0.0030829764 0.0 -0.01421224 0.048422467
-0.0061108316 -0.012669058 0.0 0.0 -0.010596686 -0.008467531 -0.13892849 -0.041791294
-0.009276918 -0.003822668 0.0 0.029249417 0.03214709
00000000: b65d 76bc 6871 513c a74f 5abc 0000 0000
00000010: c30b 4a3b 0000 0000 75da 68bc a356 463d
00000020: 5f3d c8bb e191 4fbc 0000 0000 0000 0000
00000030: b99d 2dbc 66bb 0abc 4543 0ebe 592d 2bbd
00000040: 37fe 17bc ba85 7abb 0000 0000 799c ef3c
00000050: abac 033d

exp_avg_sq f4 [21]
0.15316227 0.6065835 0.050058145 0.0 0.00037371105 0.0 0.16125971 1.3729098
0.035888966 0.06438917 0.0 0.0 0.08343692 0.25296104 0.15632 1.1308161
0.00018177945 0.0004825453 0.0 0.468974 0.5902932
00000000: 92d6 1c3e 0e49 1b3f c509 4d3d 0000 0000
00000010: a6ee c339 0000 0000 4421 253e 82bb af3f
00000020: 4f00 133d 78de 833d 0000 0000 0000 0000
00000030: fae0 aa3d 1c84 813e 5a12 203e 95be 903f
00000040: 0d9c 3e39 22fe fc39 0000 0000 5c1d f03e
00000050: 751d 173f

exp_avg f4 [2, 21]
-43.937332 -16.070316 -25.629053 0.0 -1.4372605 0.0 4.732736 -26.901035
-58.394638 -24.703728 0.0 0.0 -55.445026 0.03185071 -1.9807026 -53.69988
-6.567774 -0.5383036 0.0 -31.207926 -0.72625077 42.44032 15.867868 25.007936
0.0 1.7255052 0.0 -4.468761 25.87826 56.39682 23.519321 0.0
0.0 54.07486 0.114921845 2.0338142 52.97807 7.2408876 1.0184464 0.0
29.50286 0.6707499
00000000: d4bf 2fc2 0290 80c1 4d08 cdc1 0000 0000
00000010: 27f8 b7bf 0000 0000 9372 9740 5235 d7c1
00000020: 1c94 69c2 3ca1 c5c1 0000 0000 0000 0000
00000030: b5c7 5dc2 e475 023d aa87 fdbf adcc 56c2
00000040: 342b d2c0 44ce 09bf 0000 0000 d5a9 f9c1
00000050: 92eb 39bf e3c2 2942 cae2 7d41 4110 c841
00000060: 0000 0000 5bdd dc3f 0000 0000 1700 8fc0
00000070: ad06 cf41 5896 6142 9227 bc41 0000 0000
00000080: 0000 0000 a84c 5842 255c eb3d 032a 0240
00000090: 8be9 5342 5ab5 e740 745c 823f 0000 0000
000000a0: db05 ec41 44b6 2b3f

exp_avg_sq f4 [2, 21]
389946.03 24366.736 56109.883 0.0 10325.81 0.0 19362.37 395858.75
471973.66 129077.32 0.0 0.0 431414.94 320.42508 108.23773 106293.414
13.102475 1.4731473 0.0 380680.3 79680.76 393220.47 24802.375 56538.895
0.0 10500.735 0.0 19569.037 400656.44 475644.62 129923.46 0.0
0.0 435958.3 323.31586 110.49147 107528.51 2.5459487 0.0906214 0.0
383165.03 80469.0
00000000: 4167 be48 795d be46 e22d 5b47 0000 0000
00000010: 3d57 2146 0000 0000 bd44 9746 584a c148
00000020: b574 e648 a91a fc47 0000 0000 0000 0000
00000030: dea6 d248 6936 a043 b879 d842 b59a cf47
00000040: bda3 5141 1790 bc3f 0000 0000 0ae1 b948
00000050: 61a0 9b47 8f00 c048 c0c4 c146 e5da 5c47
00000060: 0000 0000 f112 2446 0000 0000 13e2 9846
00000070: 0ea2 c348 943f e848 bbc1 fd47 0000 0000
00000080: 0000 0000 cade d448 6ea8 a143 a2fb dc42
00000090: 4104 d247 d3f0 2240 b697 b93d 0000 0000
000000a0: a117 bb48 802a 9d47

exp_avg f4 [2]
0.14627458 -0.14352648
00000000: 01c9 153e 9bf8 12be

exp_avg_sq f4 [2]
12.511176 12.669111
00000000: c72d 4841 aeb4 4a41
