runs/ml-model-test-86/model.pt (torch, 14505 bytes, 18 tensors)

fc1.weight f4 [21, 7]
0	0x3e5074af	0.20357011
1	0x3d9b6002	0.075866714
2	0x3dec056d	0.115244724
3	0xbd0a07a0	-0.033698678
4	0xbe87fe32	-0.26561123
5	0x3e134be2	0.14384416
6	0xbe4dc7e5	-0.20095785
7	0xbe75abab	-0.23991267
8	0xbe3601b0	-0.17774081
9	0xbe9df19b	-0.30848393
10	0xbe9dd65e	-0.30827612
11	0xbd286ee5	-0.041121382
12	0xbebdec83	-0.37094507
13	0x3e8d8628	0.27641416
14	0xbe9528ad	-0.29132596
15	0x3e0e7588	0.13912022
16	0x3e200bed	0.1562955
17	0xbe192876	-0.14956841
18	0x3d9fbcb5	0.07799665
19	0x3eb56426	0.3542797
20	0xbeb5e4dd	-0.3552617
21	0xbd095a29	-0.03353325
22	0x3e553adf	0.20823239
23	0x3ec87d8b	0.39158282
24	0x3d84f953	0.06492867
25	0x3e92c97b	0.28669342
26	0xbe7d86ec	-0.247585
27	0x3e936f49	0.2879584
28	0x3d611056	0.05494722
29	0xbe7891b5	-0.24274333
30	0x3e68200c	0.22668475
31	0x3e9cb83a	0.30609304
32	0xbea1b6e7	-0.31584856
33	0x3e49f2db	0.19721548
34	0x3dca82ee	0.09888254
35	0x3ea32abf	0.3186855
36	0xbeba9b2f	-0.3644652
37	0x3e47f1c0	0.19525814
38	0x3eb7bae2	0.35884768
39	0xbdfb4d8c	-0.1227065
40	0x3de9302e	0.11386143
41	0xbeafe234	-0.34352267
42	0x3db9a2ff	0.09064292
43	0xbe879255	-0.2647883
44	0xbeb882a3	-0.36037168
45	0x3e2f17aa	0.17098871
46	0x3e55154d	0.20808907
47	0x3e595313	0.21223097
48	0x3e8f2060	0.27954388
49	0xbdcd8495	-0.10035054
50	0xbe8dc97e	-0.2769279
51	0x3e5f1956	0.21787009
52	0x3e9cc8a2	0.3062182
53	0xbe932001	-0.28735355
54	0xbea3a5d6	-0.3196246
55	0xbe6e3cdb	-0.23265402
56	0xbe798e64	-0.24370724
57	0x3e5abde2	0.21361497
58	0xbeaa9bf9	-0.33322123
59	0x3dd9b230	0.1062969
60	0x3ce4404b	0.027862689
61	0xbe997743	-0.29973802
62	0xbea903cd	-0.33010712
63	0x3e877323	0.2645503
64	0xbe7dfbcd	-0.24803086
65	0xbe80ea0b	-0.2517856
66	0x3d3df9aa	0.046380676
67	0xbeb31e15	-0.34983888
68	0xbcb6688f	-0.022266654
69	0xbdbbe294	-0.09174076
70	0xbe0a6c54	-0.13517886
71	0xbeb70e37	-0.35753033
72	0xbe815f7b	-0.25268158
73	0x3e905068	0.28186345
74	0xbe7828a2	-0.2423425
75	0x3e3e0b5f	0.18559025
76	0x3e928652	0.28618103
77	0xbbc898aa	-0.0061217146
78	0x3e3e23c4	0.18568331
79	0xbe8212b7	-0.25404903
80	0xbe942f16	-0.28942174
81	0x3e8990c4	0.2686826
82	0x3e50c167	0.20386277
83	0x3d395901	0.045250896
84	0xbe79efd8	-0.244079
85	0xbe1a7a8d	-0.15085812
86	0x3ea8b85e	0.3295316
87	0x3ebee879	0.37286738
88	0xbe99e81c	-0.30059898
89	0x3e229705	0.15877922
90	0xbe6cde3c	-0.2313165
91	0xbd85f933	-0.065416716
92	0xbcd3f0e9	-0.02587171
93	0xbe974fc0	-0.29553032
94	0xba9f5f6b	-0.0012159174
95	0xbdd0c242	-0.10193302
96	0x3ea47d88	0.32127023
97	0xbe3285dd	-0.17433877
98	0xbe9f4378	-0.31106162
99	0x3d1c03d2	0.03808958
100	0x3ec6522d	0.3873457
101	0x3ea22e08	0.31675744
102	0x3e0f3d7c	0.13988298
103	0xbebd18b5	-0.36932912
104	0x3e4320dc	0.19055504
105	0xbdaa06dc	-0.083020896
106	0xbe944eb8	-0.28966308
107	0xbe133da4	-0.14378983
108	0xbeb50a72	-0.35359532
109	0xbe290354	-0.16505176
110	0x3e1cfb2b	0.15330188
111	0x3eab14f5	0.33414426
112	0xbe9f7082	-0.31140524
113	0x3e0f9eb2	0.14025381
114	0x3dc142fb	0.09436604
115	0xbe72f2ba	-0.23725405
116	0xbdb9f7ac	-0.09080443
117	0xbe842529	-0.258096
118	0xbe7e7f79	-0.24853314
119	0x3ea069b5	0.31330648
120	0x3eb25a2a	0.34834415
121	0x3e0bb3e0	0.13642836
122	0xbd99bf98	-0.07507247
123	0xbe2b3654	-0.16719943
124	0x3dd4aa13	0.103840016
125	0xbeac3247	-0.3363211
126	0xbe81ac0d	-0.25326577
127	0x3e3ebfa4	0.18627793
128	0x3e813e04	0.25242627
129	0xbceaa143	-0.028641349
130	0xbe3a9cbc	-0.18223852
131	0x3e2f2053	0.17102174
132	0x3e75aec4	0.23992449
133	0xbebdad7f	-0.3704643
134	0xbd9e5b2b	-0.07732233
135	0xbeb4416e	-0.3520617
136	0xbd03587a	-0.0320668
137	0x3e97c7dd	0.2964467
138	0xbeb09cea	-0.34494716
139	0xbe860ca7	-0.26181528
140	0xbd90fe18	-0.070797145
141	0x3dc91f89	0.09820468
142	0x3ec2db20	0.38057804
143	0x3e0f7966	0.14011154
144	0x3e689d29	0.22716202
145	0x3e9f3042	0.31091505
146	0x3e573b10	0.21018624

fc1.bias f4 [21]
0	0xbe6ce52b	-0.23134296
1	0xbe6815cb	-0.22664563
2	0x3e7cedd6	0.24700102
3	0xbdfcccea	-0.12343772
4	0xbea67c79	-0.3251684
5	0x3dbe0725	0.092787065
6	0xbe965919	-0.2936485
7	0x3dbe36b3	0.09287777
8	0x3eac2619	0.33622816
9	0x3ea05e7e	0.31322092
10	0xbb997a80	-0.0046837926
11	0x3cdd3ab2	0.027005527
12	0x3d9ad44f	0.07560026
13	0xbe095e7f	-0.13414954
14	0xbe7309bc	-0.23734182
15	0x3ebb23ba	0.36550695
16	0xbeb3e2a6	-0.35133857
17	0x3d7a2b59	0.061076496
18	0xbe18b4bc	-0.14912695
19	0x3e1e0ae0	0.15433836
20	0xbe5ad604	-0.21370703

fc2.weight f4 [21, 21]
0	0x3dd123db	0.10211917
1	0xbe0dfe81	-0.13866617
2	0xbdd82cac	-0.105553955
3	0x3e1d631e	0.15369841
4	0x3c9cfe3a	0.019164193
5	0x3e4486cc	0.19192046
6	0xbe126d2c	-0.14299458
7	0x3e16684f	0.14688228
8	0x3cd6ed9d	0.02623635
9	0x3e305502	0.17219928
10	0xbd58e8ec	-0.052956507
11	0xbb8504e2	-0.00405942
12	0x3c98bdcf	0.018645195
13	0xbe08e57a	-0.13368788
14	0x3cca0d7c	0.024664633
15	0xbe03af7b	-0.12859909
16	0x3dee4903	0.1163502
17	0x3e445c17	0.19175754
18	0xbd5bf8a8	-0.053703934
19	0xbd112292	-0.03543336
20	0x3d492511	0.049107615
21	0xbc882188	-0.016617551
22	0xbc601928	-0.013677873
23	0xbd7e2c1a	-0.062053777
24	0x3e4c7200	0.19965363
25	0xbd386f96	-0.04502829
26	0x3e3a3008	0.18182385
27	0x3dd947a3	0.10609367
28	0x3e213bcc	0.15745467
29	0x3cbe498f	0.023228435
30	0xbdb2df60	-0.08734012
31	0xbdec6cf4	-0.11544219
32	0x3e393b8c	0.18089122
33	0xbe1e1623	-0.15438132
34	0xbb9c2dcc	-0.0047662016
35	0xbe3bab7b	-0.18327133
36	0xbe5827fb	-0.21109001
37	0x3c8556e6	0.016276788
38	0xbdfbbd0c	-0.12291917
39	0xbe1dbc4b	-0.1540386
40	0xbdfa39eb	-0.12218078
41	0x3e4eb74a	0.20187107
42	0x3b211fdb	0.0024585638
43	0x3d3cf3d1	0.04613096
44	0xbe14bdb5	-0.14525492
45	0xbd8e3305	-0.06943325
46	0x3e1d5347	0.15363799
47	0x3e326cc6	0.17424306
48	0x3a5144ea	0.0007982986
49	0xbe4a8ed1	-0.19781043
50	0x3e546937	0.20743261
51	0xbe10ed2d	-0.14152975
52	0xbde4f135	-0.11178819
53	0x3e2197d0	0.15780568
54	0x3d923fe7	0.07141095
55	0xbbc435b8	-0.005987849
56	0x3e07f592	0.13277271
57	0x3db9a3e3	0.09064462
58	0x3e5b4d26	0.21416149
59	0x3e446f02	0.19182971
60	0x3d61aefd	0.055098522
61	0x3e3e3cb1	0.1857784
62	0xbe45ebaf	-0.19328187
63	0xbe0b5fd4	-0.13610774
64	0xbe1e3fa1	-0.1545396
65	0xbd46d3f4	-0.048541978
66	0x3e2deec1	0.16985609
67	0x3d14142f	0.03615206
68	0xbca96189	-0.020676391
69	0xbc952631	-0.018206688
70	0xbdafba5b	-0.08580466
71	0xbd9932fc	-0.074804276
72	0x3e44a336	0.19202885
73	0xbe08ee27	-0.13372098
74	0x3d818eb5	0.06326047
75	0x3c5f8471	0.013642416
76	0x3e551058	0.20807016
77	0xbddfbabe	-0.1092429
78	0xbd6bb7fc	-0.057548508
79	0xbe0013ea	-0.12507597
80	0xbd166c1e	-0.036724202
81	0xbe0e3f29	-0.13891281
82	0xbe08bbe9	-0.13352932
83	0xbd2e43cf	-0.042545136
84	0x3cd59cc3	0.026075726
85	0x3dc79acd	0.09746323
86	0x3d739076	0.05946394
87	0xbe0f4c44	-0.13993937
88	0xbe59c2d8	-0.21265733
89	0xbe4fbe0e	-0.20287344
90	0xbc4ebb66	-0.012617921
91	0x3c9188f1	0.017765494
92	0x3e3394ed	0.1753728
93	0x3e4e990b	0.20175569
94	0x3e5f5018	0.21807897
95	0x3e3c84a2	0.1840997
96	0x3e36ba49	0.178445
97	0xbba34b81	-0.004983366
98	0x3dc2ef06	0.09518246
99	0xbc7458d0	-0.014913753
100	0xbe368b4b	-0.17826574
101	0x3d9298a1	0.07158018
102	0x3e57d6c1	0.21078016
103	0xbdce4a38	-0.1007275
104	0x3e1ff704	0.15621573
105	0xbe03f6f9	-0.12887181
106	0xbe179315	-0.14802201
107	0x3e229c95	0.15880044
108	0xbe29d07b	-0.16583435
109	0x3d90d7fb	0.07072445
110	0x3dd5b24f	0.104344
111	0x3e1bb8ec	0.15207261
112	0xbd9c925f	-0.076451056
113	0xbe4078f1	-0.18796135
114	0x3e5a3675	0.21309836
115	0xbcd87245	-0.026421675
116	0x3dd681da	0.10473986
117	0x3a7f71cb	0.00097444345
118	0xbe096b64	-0.13419873
119	0xbe5992aa	-0.21247354
120	0x3e3b480e	0.18289205
121	0xbe5d30f9	-0.21600713
122	0xbe1737c9	-0.14767374
123	0x3e1ec805	0.15505989
124	0x3d0722a1	0.03299201
125	0xbb4deaea	-0.0031420537
126	0xbe1ac658	-0.15114725
127	0xbe5a25a3	-0.2130342
128	0xbd44f3a0	-0.0480839
129	0x3db5eaf1	0.08882702
130	0x3dac4b9b	0.08412858
131	0x3dbcc88c	0.09217939
132	0x3e2ebd96	0.17064509
133	0x3cde190e	0.027111556
134	0xbd20cc4f	-0.039257344
135	0xbe128ff2	-0.14312723
136	0xbb398b63	-0.002831184
137	0x3dc84c32	0.09780158
138	0x3d69bcc4	0.057064787
139	0x3e2f2cc5	0.17106922
140	0x3e438027	0.19091855
141	0x3dae3b23	0.08507373
142	0xbe4ba470	-0.19886947
143	0xbdc38939	-0.095476575
144	0x3dbaefb0	0.09127748
145	0x3e3973af	0.18110536
146	0xbcf7ff72	-0.030273173
147	0xbe056231	-0.13025738
148	0x3d94912b	0.07254251
149	0x3a615497	0.0008595674
150	0xbda2cfbd	-0.07949779
151	0x3e44f58d	0.19234295
152	0xbc4949b8	-0.012285642
153	0x3e603240	0.21894169
154	0xbd980fcf	-0.0742489
155	0x3e13bba1	0.14427043
156	0x3b845403	0.0040383353
157	0xbdae7bde	-0.085197195
158	0x3e290bbe	0.16508386
159	0xbe4002b6	-0.18751034
160	0xbc82af5f	-0.015952764
161	0x3d680d4f	0.056653317
162	0xbcfa22d7	-0.030534191
163	0xbdf61e50	-0.120175004
164	0xbd593bac	-0.053035423
165	0x3e13760f	0.14400505
166	0xbcada7bb	-0.021198144
167	0xbd83aab1	-0.06429041
168	0xbdad17b5	-0.084517874
169	0xbe254863	-0.16140895
170	0x3e09c102	0.13452533
171	0xbe09ede7	-0.13469659
172	0xbdbc1174	-0.091830164
173	0x3d1facf6	0.038983308
174	0x3e49f272	0.19721392
175	0xbe370fe2	-0.17877153
176	0x3cf7dd24	0.030256815
177	0xbe20cecb	-0.15703885
178	0x3e2b5b23	0.16733985
179	0x3e24291c	0.16031307
180	0x3e0a8ce9	0.13530315
181	0xbdcb8d40	-0.09939051
182	0xbe2f8a0d	-0.17142506
183	0xbe00950d	-0.12556858
184	0xbd953e61	-0.072872885
185	0x3dc5ec90	0.09664261
186	0xbd08b275	-0.033373315
187	0x3e41b922	0.18918279
188	0xbe3a7087	-0.18206988
189	0x3c24102e	0.010013623
190	0xbe3e2c0b	-0.18571489
191	0xbe538cd7	-0.20659195
192	0xbe20ac4b	-0.15690725
193	0x3cc9a268	0.024613574
194	0xbe4dcc44	-0.20097452
195	0xbcde997a	-0.027172793
196	0xbdc5d9f5	-0.09660713
197	0xbdf471e5	-0.11935786
198	0x3e433396	0.19062647
199	0xbda8e5e2	-0.08246972
200	0xbe56e7d0	-0.20986867
201	0x3e19d578	0.15022838
202	0xbe5f35c4	-0.21797854
203	0xbc53131d	-0.012882975
204	0xbe2b56ad	-0.16732283
205	0x3de0847b	0.10962769
206	0x3d9debef	0.077110164
207	0xbcd3018c	-0.025757574
208	0xbd812d46	-0.06307463
209	0xbe1f8076	-0.15576348
210	0xbe27b749	-0.16378511
211	0x3dab57d8	0.08366364
212	0xbe1d7698	-0.15377271
213	0xbd9b8549	-0.075937815
214	0x3e38c790	0.18044877
215	0xbe57aaa2	-0.21061185
216	0xbbf8d7d0	-0.007594086
217	0xbd8f1969	-0.069872685
218	0x3dcab234	0.09897271
219	0xbda90b32	-0.082540885
220	0x3e318f96	0.1733993
221	0x3d552adc	0.052042827
222	0xbdfb918e	-0.12283622
223	0x3cf25a91	0.029584201
224	0xbbdaaa90	-0.0066731647
225	0xbbe6705f	-0.0070324386
226	0xbdf29422	-0.1184466
227	0x3dcb97a4	0.099410325
228	0x3d13a3e3	0.036044966
229	0xbbe01f98	-0.006839704
230	0xbdebe315	-0.11517922
231	0x3e58d224	0.21173912
232	0xbe45312d	-0.1925704
233	0x3dc12e57	0.09432667
234	0xbe4a1a34	-0.19736558
235	0xbe2af8d9	-0.1669649
236	0x3da03600	0.078228
237	0x3d626715	0.055274088
238	0xbd108725	-0.035285134
239	0x3dbce623	0.092235826
240	0xbc924a10	-0.017857581
241	0x3d9825f9	0.07429118
242	0xbe3f2de7	-0.18669854
243	0x3dda8e86	0.106717154
244	0xbd682206	-0.056673072
245	0x3e0f6642	0.14003852
246	0xbe491773	-0.19637851
247	0x3cb51c1a	0.022108126
248	0xbd92c931	-0.071672805
249	0x3dae8e05	0.08523182
250	0xbe20ccf3	-0.15703182
251	0xbe2fa8bc	-0.17154211
252	0x3d8e33c3	0.069434665
253	0xbc41ccd2	-0.011828618
254	0xbe203a9f	-0.15647362
255	0xbe3afbf1	-0.1826017

fc2.bias f4 [21]
0	0x3db49186	0.08816819
1	0x3e50f62b	0.20406406
2	0x3e17c259	0.14820231
3	0x3e09f2ec	0.13471574
4	0xbe019ff7	-0.12658678
5	0x3e3d9f0a	0.185177
6	0xbe1c6a83	-0.15275006
7	0xbe22b2da	-0.15888539
8	0x3dc10285	0.09424309
9	0x3e2e464f	0.17019008
10	0x3dd9269a	0.10603066
11	0xbe5dd59b	-0.21663515
12	0x3deec24f	0.11658155
13	0xbdd0e50b	-0.101999365
14	0x3d1b90f9	0.037980054
15	0xbdc843b7	-0.097785406
16	0xbde5fb2a	-0.11229546
17	0xbd68c485	-0.05682804
18	0x3cc8c8ab	0.024509748
19	0x3dac656e	0.08417784
20	0xbdd2a15d	-0.10284684

fc3.weight f4 [2, 21]
0	0xbdb410b0	-0.087922454
1	0x3df2cb91	0.118552335
2	0xbdb43ac9	-0.08800275
3	0xbe221b85	-0.1583081
4	0x3bea04c9	0.0071416837
5	0x3dc6c73a	0.09705968
6	0xbcd96023	-0.0265351
7	0x3c55ba94	0.013044972
8	0x3e4a57ee	0.19760105
9	0x3dae51b6	0.08511679
10	0x3c5097f2	0.012731539
11	0x3e1dd4cc	0.15413207
12	0xbd214818	-0.039375395
13	0xbda2ece9	-0.07955343
14	0x3dbf9d1d	0.09356139
15	0xbe28f233	-0.16498642
16	0x3d86181c	0.06547567
17	0x3dbeb091	0.09311021
18	0x3e0d7291	0.13813235
19	0x3d8058c5	0.062669314
20	0x3e20c11d	0.15698667
21	0x3e0bffd6	0.13671812
22	0x3df0ca75	0.117573656
23	0xbe26347c	-0.16230959
24	0x3d1f0cf1	0.0388307
25	0x3dd5bbb8	0.10436195
26	0x3e35a7e2	0.17739823
27	0x3e4473f1	0.19184853
28	0xbe4f8be1	-0.20268203
29	0x3e3f56e1	0.18685485
30	0x3d59647e	0.053074352
31	0xbdf1b922	-0.118028894
32	0xbe43bdc4	-0.19115359
33	0x3da4bee1	0.0804422
34	0x3e05f256	0.13080725
35	0x3e0d69b8	0.1380986
36	0x3dfa15b5	0.122111715
37	0xbe3109d2	-0.17288902
38	0xbe5358f0	-0.20639396
39	0xbd8b7383	-0.068091415
40	0xbdbcdabf	-0.0922141
41	0xbe18edf2	-0.14934519

fc3.bias f4 [2]
0	0xbe471a2c	-0.19443578
1	0x3d97ac2c	0.07405886

exp_avg f4 [21, 7]
0	0x404ea68f	3.228916
1	0x408070ce	4.01377
2	0x3f013c1c	0.50482345
3	0x40654366	3.5822387
4	0x406ef597	3.7337396
5	0x3dbf2ade	0.09334348
6	0x3c18af01	0.009319068
7	0x00000000	0.0
8	0x00000000	0.0
9	0x00000000	0.0
10	0x00000000	0.0
11	0x00000000	0.0
12	0x00000000	0.0
13	0x00000000	0.0
14	0x00000000	0.0
15	0x00000000	0.0
16	0x00000000	0.0
17	0x00000000	0.0
18	0x00000000	0.0
19	0x00000000	0.0
20	0x00000000	0.0
21	0x4089650c	4.293585
22	0x408b4762	4.3524637
23	0xbe7aa855	-0.24478276
24	0x4058e56a	3.3890023
25	0x40818fc6	4.0488005
26	0x3dcf4c73	0.101220034
27	0x3c247d58	0.01003965
28	0x00000000	0.0
29	0x00000000	0.0
30	0x00000000	0.0
31	0x00000000	0.0
32	0x00000000	0.0
33	0x00000000	0.0
34	0x00000000	0.0
35	0x3f5bc7f6	0.8585199
36	0xbef57e19	-0.47947767
37	0xbfa6fb62	-1.3045466
38	0xbf8c912e	-1.0981805
39	0xbee45d84	-0.44602597
40	0xbc36b14e	-0.011150671
41	0xba97ea66	-0.0011590242
42	0xc0918ad9	-4.548199
43	0xbfded4e7	-1.7408723
44	0x403b7120	2.9287796
45	0x3ef4147c	0.47671878
46	0xbfcf491b	-1.6194185
47	0xbd25d40e	-0.040485434
48	0xbb82c677	-0.003990944
49	0x00000000	0.0
50	0x00000000	0.0
51	0x00000000	0.0
52	0x00000000	0.0
53	0x00000000	0.0
54	0x00000000	0.0
55	0x00000000	0.0
56	0xc013772a	-2.3041482
57	0xc08d2e39	-4.4118924
58	0xbfe6645f	-1.7999381
59	0xc097fd9f	-4.7497096
60	0xc08354b0	-4.104088
61	0xbdd22117	-0.10260218
62	0xbc26489f	-0.01014915
63	0x3f0979c2	0.5370141
64	0x3e9afe21	0.3027201
65	0xbe82c5a4	-0.25541413
66	0x3e980d42	0.29697615
67	0x3e902de0	0.2816
68	0x3be6afc9	0.007039998
69	0x3a2bb9de	0.00065508287
70	0xb613d370	-2.202778e-06
71	0xb4fae259	-4.6730818e-07
72	0x35ed4e85	1.7680728e-06
73	0xb4c8c2cc	-3.7394636e-07
74	0xb4e96169	-4.3470507e-07
75	0xb23ab455	-1.0867628e-08
76	0xb12fd844	-2.5588784e-09
77	0xc09af9f1	-4.8430104
78	0xc0be4b05	-5.9466577
79	0xbf3052b6	-0.68876207
80	0xc0af62ea	-5.4808245
81	0xc0b1044e	-5.5317755
82	0xbe0d9d07	-0.13829432
83	0xbc67cfd8	-0.014148675
84	0x00000000	0.0
85	0x00000000	0.0
86	0x00000000	0.0
87	0x00000000	0.0
88	0x00000000	0.0
89	0x00000000	0.0
90	0x00000000	0.0
91	0x3cd70b12	0.026250396
92	0x3b926015	0.0044670203
93	0xbcb500a0	-0.022095025
94	0xbcdb2680	-0.026751757
95	0x3b8829ae	0.004155359
96	0x38d9dc2e	0.00010388378
97	0x371ffcaf	9.535971e-06
98	0x3f596549	0.84920174
99	0x3f032df6	0.51242006
100	0xbebebc7e	-0.37253183
101	0x3c772257	0.015083871
102	0x3ef40e19	0.47667006
103	0x3c433e71	0.011916743
104	0x3a9c31f9	0.0011916748
105	0x00000000	0.0
106	0x00000000	0.0
107	0x00000000	0.0
108	0x00000000	0.0
109	0x00000000	0.0
110	0x00000000	0.0
111	0x00000000	0.0
112	0x00000000	0.0
113	0x00000000	0.0
114	0x00000000	0.0
115	0x00000000	0.0
116	0x00000000	0.0
117	0x00000000	0.0
118	0x00000000	0.0
119	0x4068f57c	3.6399832
120	0x40ac0f50	5.376869
121	0x3fae4e08	1.3617563
122	0x40b22be5	5.567858
123	0x40a00e41	5.00174
124	0x3e000b64	0.12504345
125	0x3c4d58fa	0.012533421
126	0x00000000	0.0
127	0x00000000	0.0
128	0x00000000	0.0
129	0x00000000	0.0
130	0x00000000	0.0
131	0x00000000	0.0
132	0x00000000	0.0
133	0x00000000	0.0
134	0x00000000	0.0
135	0x00000000	0.0
136	0x00000000	0.0
137	0x00000000	0.0
138	0x00000000	0.0
139	0x00000000	0.0
140	0x405f7e1f	3.4920728
141	0x3fc07281	1.5034944
142	0xc005fb6f	-2.0934713
143	0xbee2862d	-0.44242993
144	0x3fb30555	1.3986002
145	0x3d0f3783	0.03496505
146	0x3b584318	0.0032998975

exp_avg_sq f4 [21, 7]
0	0x430acf03	138.80864
1	0x417336c3	15.20087
2	0x42a86b2f	84.20934
3	0x4165b350	14.356277
4	0x415275fc	13.153805
5	0x3c06b1e9	0.008221128
6	0x3a7632ef	0.0009391745
7	0x00000000	0.0
8	0x00000000	0.0
9	0x00000000	0.0
10	0x00000000	0.0
11	0x00000000	0.0
12	0x00000000	0.0
13	0x00000000	0.0
14	0x00000000	0.0
15	0x00000000	0.0
16	0x00000000	0.0
17	0x00000000	0.0
18	0x00000000	0.0
19	0x00000000	0.0
20	0x00000000	0.0
21	0x4415bf78	598.9917
22	0x42d9116d	108.534035
23	0x43647464	228.45465
24	0x42e8a80c	116.32822
25	0x42bbd605	93.91801
26	0x3d706e24	0.05869879
27	0x39a5f7a2	0.00031655753
28	0x00000000	0.0
29	0x00000000	0.0
30	0x00000000	0.0
31	0x00000000	0.0
32	0x00000000	0.0
33	0x00000000	0.0
34	0x00000000	0.0
35	0x46fce56e	32370.715
36	0x4487a5c3	1085.18
37	0x46af0585	22402.76
38	0x448ef752	1143.7288
39	0x446ac2a3	939.0412
40	0x3f163f26	0.58690107
41	0x3b6a7b3b	0.0035779017
42	0x490b9a9a	571817.6
43	0x46917ea2	18623.316
44	0x48c1d427	396961.22
45	0x46a1e1f6	20720.98
46	0x467bcd81	16115.376
47	0x41212764	10.072117
48	0x3d9d62f3	0.07684889
49	0x00000000	0.0
50	0x00000000	0.0
51	0x00000000	0.0
52	0x00000000	0.0
53	0x00000000	0.0
54	0x00000000	0.0
55	0x00000000	0.0
56	0x443d2483	756.5705
57	0x42a63cf5	83.11906
58	0x43eed385	477.6525
59	0x428ef716	71.48259
60	0x428fd9ed	71.92564
61	0x3d38212d	0.044953514
62	0x3b34794f	0.0027538126
63	0x484612f8	202827.88
64	0x45ce3545	6598.6587
65	0x4809639c	140686.44
66	0x45deb736	7126.9014
67	0x45b27047	5710.0347
68	0x406466b6	3.568769
69	0x3cacdf07	0.021102441
70	0x488565a5	273197.16
71	0x4605ae1e	8555.529
72	0x483a350e	190676.22
73	0x4629e6e6	10873.725
74	0x45e75b0d	7403.3813
75	0x40941155	4.6271157
76	0x3c8fb8dc	0.017544203
77	0x45f27ed5	7759.854
78	0x438e7b20	284.9619
79	0x45a77ef2	5359.868
80	0x4391cb2b	291.58725
81	0x43769630	246.58667
82	0x3e1dd0c8	0.15411675
83	0x3c1342f8	0.008988135
84	0x00000000	0.0
85	0x00000000	0.0
86	0x00000000	0.0
87	0x00000000	0.0
88	0x00000000	0.0
89	0x00000000	0.0
90	0x00000000	0.0
91	0x4624059d	10497.403
92	0x43c0fe34	385.98596
93	0x45e0c7b6	7192.964
94	0x43aeb6e1	349.42874
95	0x43a700c8	334.0061
96	0x3e55c399	0.20875396
97	0x3bfe3724	0.007758038
98	0x3fa2d820	1.2722206
99	0x3fa7962d	1.3092705
100	0x3c777a34	0.015104819
101	0x3f2b71b6	0.66970384
102	0x3f9104a8	1.1329546
103	0x3a399f8c	0.0007080964
104	0x36ed9908	7.0809656e-06
105	0x00000000	0.0
106	0x00000000	0.0
107	0x00000000	0.0
108	0x00000000	0.0
109	0x00000000	0.0
110	0x00000000	0.0
111	0x00000000	0.0
112	0x00000000	0.0
113	0x00000000	0.0
114	0x00000000	0.0
115	0x00000000	0.0
116	0x00000000	0.0
117	0x00000000	0.0
118	0x00000000	0.0
119	0x48024e8b	133434.17
120	0x45893eb0	4391.836
121	0x47b499de	92467.734
122	0x459129fc	4645.248
123	0x456d865d	3800.3977
124	0x4018040f	2.3752477
125	0x3c9675a1	0.018366637
126	0x00000000	0.0
127	0x00000000	0.0
128	0x00000000	0.0
129	0x00000000	0.0
130	0x00000000	0.0
131	0x00000000	0.0
132	0x00000000	0.0
133	0x00000000	0.0
134	0x00000000	0.0
135	0x00000000	0.0
136	0x00000000	0.0
137	0x00000000	0.0
138	0x00000000	0.0
139	0x00000000	0.0
140	0x43bca66d	377.3002
141	0x43337d0c	179.48846
142	0x42772b14	61.79207
143	0x42ed6cf5	118.71281
144	0x431b5136	155.31723
145	0x3dc6ce59	0.097073264
146	0x3a803d2d	0.0009783857

exp_avg f4 [21]
0	0x3c18ef19	0.009334349
1	0x00000000	0.0
2	0x00000000	0.0
3	0x3c25d6c5	0.010122006
4	0x00000000	0.0
5	0xba92277d	-0.0011150684
6	0xbb84a9a8	-0.004048545
7	0x00000000	0.0
8	0xbc281a7a	-0.010260219
9	0x3a388ca2	0.0007039999
10	0xb0955d0c	-1.0867622e-09
11	0xbc6294d9	-0.013829433
12	0x00000000	0.0
13	0x372e49de	1.0388407e-05
14	0x3a9c31f9	0.0011916748
15	0x00000000	0.0
16	0x00000000	0.0
17	0x3c4cdf04	0.012504343
18	0x00000000	0.0
19	0x00000000	0.0
20	0x3b6525a2	0.0034965058

exp_avg_sq f4 [21]
0	0x38ac68d8	8.221128e-05
1	0x00000000	0.0
2	0x00000000	0.0
3	0x3a19e014	0.0005869877
4	0x00000000	0.0
5	0x3bc050d5	0.005869011
6	0x3dce46d2	0.10072102
7	0x00000000	0.0
8	0x39ebafa0	0.00044953544
9	0x3d122d48	0.035687715
10	0x3d3d86d3	0.046271157
11	0x3aca00f8	0.0015411666
12	0x00000000	0.0
13	0x3b08cf20	0.002087541
14	0x36ed9908	7.0809656e-06
15	0x00000000	0.0
16	0x00000000	0.0
17	0x3cc29490	0.02375248
18	0x00000000	0.0
19	0x00000000	0.0
20	0x3a7e78c4	0.00097073265

exp_avg f4 [21, 21]
0	0x3ef1232b	0.47097144
1	0x00000000	0.0
2	0x00000000	0.0
3	0xc0be14c3	-5.9400344
4	0x00000000	0.0
5	0xbfae5b8f	-1.3621691
6	0x3f4eac24	0.80731416
7	0x00000000	0.0
8	0xbe1c1ec9	-0.15246119
9	0x3e0afa7e	0.13572118
10	0x329e9d9f	1.8465299e-08
11	0x3f9c86dc	1.2228656
12	0x00000000	0.0
13	0x3d008f37	0.03138658
14	0xc086de3b	-4.2146277
15	0x00000000	0.0
16	0x00000000	0.0
17	0xbfd5e0d2	-1.6709235
18	0x00000000	0.0
19	0x00000000	0.0
20	0xc0a3a16a	-5.113454
21	0xbe845672	-0.25847203
22	0x00000000	0.0
23	0x00000000	0.0
24	0x3ea89922	0.3292933
25	0x00000000	0.0
26	0xbe359d1f	-0.17735718
27	0xbf1c69f8	-0.61099195
28	0x00000000	0.0
29	0xbe1800df	-0.14844082
30	0xbc5e946a	-0.013585189
31	0x330c1787	3.2617688e-08
32	0xbecf59c8	-0.40498185
33	0x00000000	0.0
34	0x3bd68ef8	0.006547805
35	0x3f2ca662	0.6744138
36	0x00000000	0.0
37	0x00000000	0.0
38	0xbec984f3	-0.39359245
39	0x00000000	0.0
40	0x00000000	0.0
41	0x3ed2e7e4	0.41192544
42	0x3dd03a19	0.10167331
43	0x00000000	0.0
44	0x00000000	0.0
45	0x3fd9e8bf	1.7024153
46	0x00000000	0.0
47	0x3f24c12a	0.64357245
48	0x3eb8db43	0.36104783
49	0x00000000	0.0
50	0x3e5779bc	0.21042532
51	0xbcf44946	-0.029820096
52	0xb31b7415	-3.6194326e-08
53	0x3cae2204	0.021256454
54	0x00000000	0.0
55	0xbc8719ee	-0.016491856
56	0x3f3f8834	0.74817204
57	0x00000000	0.0
58	0x00000000	0.0
59	0x3f7f74d4	0.9978764
60	0x00000000	0.0
61	0x00000000	0.0
62	0x3faa7132	1.3315794
63	0x3f16dd87	0.58931774
64	0x00000000	0.0
65	0x00000000	0.0
66	0xc0ad9202	-5.424073
67	0x00000000	0.0
68	0xbf8900b4	-1.070334
69	0x3f8fecef	1.1244181
70	0x00000000	0.0
71	0xbd03577c	-0.032065853
72	0x3e02fccb	0.12791745
73	0xb1bdc916	-5.523485e-09
74	0x3fac5233	1.3462585
75	0x00000000	0.0
76	0x3cbbd562	0.022928897
77	0xc084cd81	-4.150086
78	0x00000000	0.0
79	0x00000000	0.0
80	0xbf98ce7e	-1.1938016
81	0x00000000	0.0
82	0x00000000	0.0
83	0xc0983ac6	-4.7571745
84	0x3dd7104d	0.10501156
85	0x00000000	0.0
86	0x00000000	0.0
87	0xc01de59a	-2.4671388
88	0x00000000	0.0
89	0xbf29b2a1	-0.6628819
90	0x3de1b0c4	0.110200435
91	0x00000000	0.0
92	0xbe016c54	-0.1263898
93	0x3d5aa64f	0.05338126
94	0x32b11006	2.0612799e-08
95	0x3ebc861c	0.36821067
96	0x00000000	0.0
97	0x3c838fb2	0.01605973
98	0xbfc99dab	-1.5751241
99	0x00000000	0.0
100	0x00000000	0.0
101	0xbf63f235	-0.89041454
102	0x00000000	0.0
103	0x00000000	0.0
104	0xc004a7f2	-2.0727506
105	0x3c8e678c	0.01738336
106	0x00000000	0.0
107	0x00000000	0.0
108	0xbbbfb30a	-0.0058502005
109	0x00000000	0.0
110	0x3c668d63	0.014071795
111	0x3d972860	0.07380748
112	0x00000000	0.0
113	0x3cb934d2	0.022608195
114	0x3d37465e	0.04474484
115	0x3332dc24	4.164407e-08
116	0x3d9421a7	0.07232981
117	0x00000000	0.0
118	0x3c954a5c	0.018223934
119	0x00000000	0.0
120	0x00000000	0.0
121	0x00000000	0.0
122	0x3d97a0a1	0.074036844
123	0x00000000	0.0
124	0x00000000	0.0
125	0xbc0863e3	-0.008324596
126	0x3ea84ac2	0.32869536
127	0x00000000	0.0
128	0x00000000	0.0
129	0xc0b482aa	-5.64095
130	0x00000000	0.0
131	0xbfb5cd72	-1.4203322
132	0x3ef14400	0.47122192
133	0x00000000	0.0
134	0xbe69261b	-0.22768442
135	0x3dff9d51	0.124811776
136	0x331137e8	3.381129e-08
137	0x3f7a0ea7	0.9767861
138	0x00000000	0.0
139	0x3d0a0992	0.033700533
140	0xc0716ba9	-3.772196
141	0x00000000	0.0
142	0x00000000	0.0
143	0xbfec2fe5	-1.8452116
144	0x00000000	0.0
145	0x00000000	0.0
146	0xc0993f16	-4.788951
147	0xbeadf0cf	-0.33972785
148	0x00000000	0.0
149	0x00000000	0.0
150	0xc0fe63cd	-7.9496827
151	0x00000000	0.0
152	0xbfd98b77	-1.6995686
153	0xc0672883	-3.6118476
154	0x00000000	0.0
155	0xbff898ed	-1.9421669
156	0xbdf6cd8d	-0.120509245
157	0xb316849b	-3.50452e-08
158	0xc09a60f3	-4.8243346
159	0x00000000	0.0
160	0xbd0a18fe	-0.03371524
161	0xbfd5a8bc	-1.6692119
162	0x00000000	0.0
163	0x00000000	0.0
164	0xc104ec0b	-8.307628
165	0x00000000	0.0
166	0x00000000	0.0
167	0xc0b784b6	-5.73495
168	0xbe47beda	-0.19506398
169	0x00000000	0.0
170	0x00000000	0.0
171	0xbfe2076f	-1.7658519
172	0x00000000	0.0
173	0xbef96c59	-0.48715475
174	0xbfbb4b8e	-1.4632432
175	0x00000000	0.0
176	0xbf15a13b	-0.58449143
177	0xbce921c7	-0.02845849
178	0x335fa411	5.207045e-08
179	0xbfdeb036	-1.7397525
180	0x00000000	0.0
181	0x3c1842e9	0.009293296
182	0x3ecf15fa	0.40446454
183	0x00000000	0.0
184	0x00000000	0.0
185	0xc025a96f	-2.5884664
186	0x00000000	0.0
187	0x00000000	0.0
188	0xbf84f45f	-1.0387076
189	0x00000000	0.0
190	0x00000000	0.0
191	0x00000000	0.0
192	0x00000000	0.0
193	0x00000000	0.0
194	0x00000000	0.0
195	0x00000000	0.0
196	0x00000000	0.0
197	0x00000000	0.0
198	0x00000000	0.0
199	0x00000000	0.0
200	0x00000000	0.0
201	0x00000000	0.0
202	0x00000000	0.0
203	0x00000000	0.0
204	0x00000000	0.0
205	0x00000000	0.0
206	0x00000000	0.0
207	0x00000000	0.0
208	0x00000000	0.0
209	0x00000000	0.0
210	0xbc4a990c	-0.012365591
211	0x00000000	0.0
212	0x00000000	0.0
213	0xbc0da100	-0.008644342
214	0x00000000	0.0
215	0xbca9298c	-0.020649694
216	0xbd793667	-0.060842898
217	0x00000000	0.0
218	0xbcacfe7a	-0.021117438
219	0xbcd6e1e7	-0.026230766
220	0x00000000	0.0
221	0xbd503239	-0.050829146
222	0x00000000	0.0
223	0xbbfbf7c0	-0.007689446
224	0x00000000	0.0
225	0x00000000	0.0
226	0x00000000	0.0
227	0xbd7d907c	-0.06190537
228	0x00000000	0.0
229	0x00000000	0.0
230	0x00000000	0.0
231	0x00000000	0.0
232	0x00000000	0.0
233	0x00000000	0.0
234	0x00000000	0.0
235	0x00000000	0.0
236	0x00000000	0.0
237	0x00000000	0.0
238	0x00000000	0.0
239	0x00000000	0.0
240	0x00000000	0.0
241	0x00000000	0.0
242	0x00000000	0.0
243	0x00000000	0.0
244	0x00000000	0.0
245	0x00000000	0.0
246	0x00000000	0.0
247	0x00000000	0.0
248	0x00000000	0.0
249	0x00000000	0.0
250	0x00000000	0.0
251	0x00000000	0.0
252	0x3e2dbc62	0.16966394
253	0x00000000	0.0
254	0x00000000	0.0
255	0x400f9051	2.2431834

exp_avg_sq f4 [21, 21]
0	0x467c3951	16142.329
1	0x00000000	0.0
2	0x00000000	0.0
3	0x42fcd28b	126.41122
4	0x00000000	0.0
5	0x471702cc	38658.797
6	0x489ecdc0	325230.0
7	0x00000000	0.0
8	0x47084ffb	34895.98
9	0x48867c2f	275425.47
10	0x443b757c	749.8357
11	0x47ddebaa	113623.33
12	0x00000000	0.0
13	0x473f9df8	49053.97
14	0x40871786	4.2216215
15	0x00000000	0.0
16	0x00000000	0.0
17	0x47b63881	93297.01
18	0x00000000	0.0
19	0x00000000	0.0
20	0x426eafc8	59.67166
21	0x400320ac	2.0488691
22	0x00000000	0.0
23	0x00000000	0.0
24	0x3dc6bb83	0.09703734
25	0x00000000	0.0
26	0x3f94aa35	1.1614443
27	0x41fa9bc6	31.326061
28	0x00000000	0.0
29	0x40192835	2.393079
30	0x41df76a9	27.93294
31	0x3fd55a8d	1.6668259
32	0x41c3aa7c	24.458244
33	0x00000000	0.0
34	0x40a1cd64	5.056322
35	0x3ef72772	0.48272282
36	0x00000000	0.0
37	0x00000000	0.0
38	0x41545831	13.271531
39	0x00000000	0.0
40	0x00000000	0.0
41	0x3e0cf4b5	0.13765223
42	0x44e2f851	1815.7599
43	0x00000000	0.0
44	0x00000000	0.0
45	0x4161aef1	14.10521
46	0x00000000	0.0
47	0x458da06c	4532.0527
48	0x470f99fc	36761.984
49	0x00000000	0.0
50	0x457a0d57	4000.8337
51	0x46f13240	30873.125
52	0x42da8f46	109.27983
53	0x46428a75	12450.614
54	0x00000000	0.0
55	0x45ab134d	5474.4126
56	0x3f6b8e84	0.92014337
57	0x00000000	0.0
58	0x00000000	0.0
59	0x4620c4ef	10289.233
60	0x00000000	0.0
61	0x00000000	0.0
62	0x40d84bfe	6.7592764
63	0x463e0243	12160.565
64	0x00000000	0.0
65	0x00000000	0.0
66	0x42c0f819	96.484566
67	0x00000000	0.0
68	0x46e14744	28835.633
69	0x486ee881	244642.02
70	0x00000000	0.0
71	0x46cc824b	26177.146
72	0x484a9666	207449.6
73	0x44046d77	529.7104
74	0x47a7fdb9	86011.445
75	0x00000000	0.0
76	0x47106acf	36970.81
77	0x4060619e	3.505958
78	0x00000000	0.0
79	0x00000000	0.0
80	0x47899fd3	70463.65
81	0x00000000	0.0
82	0x00000000	0.0
83	0x42368268	45.62735
84	0x4537d69a	2941.4126
85	0x00000000	0.0
86	0x00000000	0.0
87	0x41bedbbb	23.85729
88	0x00000000	0.0
89	0x45de7c50	7119.539
90	0x476811b8	59409.72
91	0x00000000	0.0
92	0x45c774fc	6382.623
93	0x47449087	50320.527
94	0x43121ac7	146.1046
95	0x46a16f3f	20663.623
96	0x00000000	0.0
97	0x460c10d2	8964.205
98	0x3f5abae5	0.8544143
99	0x00000000	0.0
100	0x00000000	0.0
101	0x4685168a	17035.27
102	0x00000000	0.0
103	0x00000000	0.0
104	0x41346331	11.274217
105	0x44f8c83b	1990.2572
106	0x00000000	0.0
107	0x00000000	0.0
108	0x3fbfb6d8	1.4977674
109	0x00000000	0.0
110	0x459ab3e3	4950.486
111	0x471dc839	40392.223
112	0x00000000	0.0
113	0x45887159	4366.1685
114	0x4705544c	34132.297
115	0x42eb608b	117.68856
116	0x46580067	13824.101
117	0x00000000	0.0
118	0x45bdcb81	6073.438
119	0x00000000	0.0
120	0x00000000	0.0
121	0x00000000	0.0
122	0x463327e8	11465.977
123	0x00000000	0.0
124	0x00000000	0.0
125	0x3ee3d965	0.44501796
126	0x466d0189	15168.384
127	0x00000000	0.0
128	0x00000000	0.0
129	0x42efcd35	119.900795
130	0x00000000	0.0
131	0x470ed2a7	36562.652
132	0x48956679	305971.78
133	0x00000000	0.0
134	0x47006e4c	32878.297
135	0x487ce012	258944.28
136	0x44378238	734.03467
137	0x47cffe38	106492.44
138	0x00000000	0.0
139	0x47341834	46104.203
140	0x4082d651	4.0886617
141	0x00000000	0.0
142	0x00000000	0.0
143	0x47ab1204	87588.03
144	0x00000000	0.0
145	0x00000000	0.0
146	0x42627e5b	56.623394
147	0x466b78d0	15070.203
148	0x00000000	0.0
149	0x00000000	0.0
150	0x42942535	74.07267
151	0x00000000	0.0
152	0x470e3eaf	36414.684
153	0x4894554d	303786.4
154	0x00000000	0.0
155	0x46ffb765	32731.697
156	0x487a7b13	256492.3
157	0x44397e45	741.97296
158	0x47cd9026	105248.3
159	0x00000000	0.0
160	0x47322683	45606.51
161	0x3f8f07b9	1.1174232
162	0x00000000	0.0
163	0x00000000	0.0
164	0x47a8c67f	86412.99
165	0x00000000	0.0
166	0x00000000	0.0
167	0x420100c9	32.250767
168	0x422e190f	43.52447
169	0x00000000	0.0
170	0x00000000	0.0
171	0x4028ce27	2.6375825
172	0x00000000	0.0
173	0x428dc030	70.87537
174	0x444aba3e	810.91003
175	0x00000000	0.0
176	0x42a092ba	80.286575
177	0x442fcb41	703.17584
178	0x4052d166	3.2940307
179	0x43b15f02	354.74225
180	0x00000000	0.0
181	0x42fcb592	126.35463
182	0x3eb28eb5	0.34874502
183	0x00000000	0.0
184	0x00000000	0.0
185	0x43811310	258.14893
186	0x00000000	0.0
187	0x00000000	0.0
188	0x3fa9d9a3	1.3269542
189	0x00000000	0.0
190	0x00000000	0.0
191	0x00000000	0.0
192	0x00000000	0.0
193	0x00000000	0.0
194	0x00000000	0.0
195	0x00000000	0.0
196	0x00000000	0.0
197	0x00000000	0.0
198	0x00000000	0.0
199	0x00000000	0.0
200	0x00000000	0.0
201	0x00000000	0.0
202	0x00000000	0.0
203	0x00000000	0.0
204	0x00000000	0.0
205	0x00000000	0.0
206	0x00000000	0.0
207	0x00000000	0.0
208	0x00000000	0.0
209	0x00000000	0.0
210	0x40b3d2ae	5.6194677
211	0x00000000	0.0
212	0x00000000	0.0
213	0x3e6dcc84	0.23222548
214	0x00000000	0.0
215	0x4150e371	13.055528
216	0x4308110a	136.06656
217	0x00000000	0.0
218	0x41406f45	12.027165
219	0x42d711e1	107.53492
220	0x00000000	0.0
221	0x4277d8db	61.961773
222	0x00000000	0.0
223	0x4197cdfe	18.975582
224	0x00000000	0.0
225	0x00000000	0.0
226	0x00000000	0.0
227	0x4269ba96	58.432213
228	0x00000000	0.0
229	0x00000000	0.0
230	0x00000000	0.0
231	0x00000000	0.0
232	0x00000000	0.0
233	0x00000000	0.0
234	0x00000000	0.0
235	0x00000000	0.0
236	0x00000000	0.0
237	0x00000000	0.0
238	0x00000000	0.0
239	0x00000000	0.0
240	0x00000000	0.0
241	0x00000000	0.0
242	0x00000000	0.0
243	0x00000000	0.0
244	0x00000000	0.0
245	0x00000000	0.0
246	0x00000000	0.0
247	0x00000000	0.0
248	0x00000000	0.0
249	0x00000000	0.0
250	0x00000000	0.0
251	0x00000000	0.0
252	0x458c440a	4488.505
253	0x00000000	0.0
254	0x00000000	0.0
255	0x417caa30	15.79155

exp_avg f4 [21]
0	0xbc83892d	-0.016056621
1	0xba742b2b	-0.0009314294
2	0x3bd6282d	0.006535551
3	0xbc5bd5bf	-0.01341766
4	0xbbf28a80	-0.0074017644
5	0x397c20dd	0.00024044835
6	0xbc84ce60	-0.016211689
7	0xbd2d6cf7	-0.042340245
8	0xbc45d144	-0.012073819
9	0x00000000	0.0
10	0xb970f9fe	-0.00022981313
11	0x00000000	0.0
12	0x3c565b13	0.013083237
13	0xbc3b5c40	-0.011435568
14	0xbab5f2fe	-0.0013881621
15	0x00000000	0.0
16	0x3c8f6dd5	0.017508427
17	0xba21f417	-0.0006178035
18	0x3c983edd	0.018584663
19	0x3c75851e	0.014985351
20	0x3ceab8ff	0.028652666

exp_avg_sq f4 [21]
0	0x3ead3fec	0.3383783
1	0x3855a486	5.093638e-05
2	0x3d192f79	0.03739879
3	0x3e82d063	0.2554961
4	0x3d7d21f2	0.06179995
5	0x3d28d1cf	0.041215714
6	0x3ea2b366	0.31777495
7	0x3ea0311e	0.31287473
8	0x3a8129b9	0.0009854353
9	0x00000000	0.0
10	0x39bce745	0.00036030464
11	0x00000000	0.0
12	0x3dc038ff	0.09385871
13	0x3bc6934b	0.006060039
14	0x3aa1abd1	0.001233453
15	0x00000000	0.0
16	0x3ec29a9b	0.3800858
17	0x3f1915ae	0.59798706
18	0x3b586eed	0.0033025101
19	0x3b22f1f2	0.002486345
20	0x3bb60c0d	0.005555636

exp_avg f4 [2, 21]
0	0x40fddb8d	7.9330506
1	0x409e6664	4.949999
2	0xc01ae901	-2.4204714
3	0x3e70fffc	0.2353515
4	0xbf4a8cea	-0.7912127
5	0xbd7c352d	-0.06157415
6	0x407d91bc	3.96202
7	0xc036d802	-2.856934
8	0xc02d490d	-2.7075837
9	0x00000000	0.0
10	0xba99b6c2	-0.001172744
11	0x00000000	0.0
12	0xc017c235	-2.3712285
13	0x402c14f8	2.6887798
14	0x3ec4d3bf	0.384428
15	0x00000000	0.0
16	0x3ff9b6ab	1.9508871
17	0xbc4aa04d	-0.01236732
18	0xbf8357b5	-1.0261141
19	0x414ef148	12.933907
20	0x409555d4	4.666727
21	0xc0f85def	-7.7614665
22	0xc0b1b257	-5.55302
23	0x3ee4ebd7	0.44711182
24	0xbe22b4cf	-0.15889286
25	0x3f397470	0.72443295
26	0x3dc7892c	0.0974296
27	0xc057bcad	-3.3708909
28	0x3fa0bfdb	1.255855
29	0x3eedfd32	0.46482235
30	0x00000000	0.0
31	0x3b83555a	0.0040079774
32	0x00000000	0.0
33	0x3f60cb62	0.8781034
34	0xbff27965	-1.8943297
35	0xbf388ea0	-0.7209263
36	0x00000000	0.0
37	0xc058ab4b	-3.385455
38	0x3cb0511a	0.021523047
39	0x3ea35b75	0.31905714
40	0xc14124aa	-12.071451
41	0xc08c066b	-4.3757834

exp_avg_sq f4 [2, 21]
0	0x481974ed	157139.7
1	0x48788cce	254515.22
2	0x4862cb5b	232237.42
3	0x485ca4a0	225938.5
4	0x491e5c00	648640.0
5	0x4899cbbd	314973.9
6	0x476176b7	57718.715
7	0x490a2a74	565927.25
8	0x485feb4d	229293.2
9	0x00000000	0.0
10	0x3bde6922	0.006787435
11	0x00000000	0.0
12	0x4900a975	526999.3
13	0x413c2263	11.758395
14	0x4390e7a2	289.80963
15	0x00000000	0.0
16	0x48e7ea46	474962.2
17	0x47e249cd	115859.6
18	0x40e97f6d	7.296805
19	0x43989f49	305.24442
20	0x420f193a	35.774635
21	0x481ae437	158608.86
22	0x487bb25c	257737.44
23	0x4864de33	234360.8
24	0x485c8fc7	225855.11
25	0x491f3b90	652217.0
26	0x489b5807	318144.22
27	0x47643e88	58430.53
28	0x490b78dd	571277.8
29	0x486354a0	232786.5
30	0x00000000	0.0
31	0x3c9620b8	0.018326148
32	0x00000000	0.0
33	0x490285fe	534623.9
34	0x4143f02d	12.246137
35	0x43922342	292.27545
36	0x00000000	0.0
37	0x48eae513	481064.6
38	0x47e31649	116268.57
39	0x40cbc1c5	6.3674035
40	0x43993957	306.44797
41	0x420fa49a	35.910744

exp_avg f4 [2]
0	0x3d87dee1	0.06634308
1	0xbd9b3e09	-0.07580192

exp_avg_sq f4 [2]
0	0x40d365aa	6.60616
1	0x40d48053	6.6406646
