runs/ml-model-test-18/model.pt (torch, 65001 bytes, 18 tensors)

fc1.weight f4 [64, 9]
00000000: f8b2 99be b088 91bd ab13 9a3b 00d4 f43d
00000010: c631 db3d b828 7dbe 40bf 2e3e f393 93be
00000020: aecb 15be a204 f1bc c744 433e d8b7 223e
00000030: ad81 643e dbf1 373e 02a1 803e d566 793e
00000040: cdfb 3f3d 839e 45be 05bf 5cbe 6b9d a4be
00000050: 8e50 f6bb ff45 323c 87e9 d1bd 7f37 f63d
00000060: a819 8dbe 2a2a ce3c 131e 82bd c4e7 373e
00000070: d7b3 13be 4e0b 4d3e 76c7 dd3d 7588 bbbc
00000080: aa13 9e3e d03e ffbd 9115 553e c29c 183e
00000090: dbf7 a3bd 5bee 803d 1172 36be 3dd2 873e
000000a0: 2c80 16be e3e7 1fbe c43f 6dbe ad82 22bd
000000b0: aef1 4a3e 779d 01be 170a 943e 43a3 29bc
000000c0: b42a 96be 88af 5d3e db31 243e b371 2ebe
000000d0: 8779 3ebe e03e f0bd 857f 67be 7a96 81be
000000e0: e87d 83be 46f3 b9bd 86f8 d0bd 6436 8a3c
000000f0: 0d2c 23be 2bba 09be ff80 8d3e 9703 333d
00000100: 5758 e5be 0034 c63e 1468 853d b7c6 d3be
00000110: 6be8 fbbd 07b3 adbe fe3a 6ebc f935 5cbd
00000120: 0040 1bbc a0d5 493e 0b07 3f3d db3b 14be
00000130: 4b03 ab3d 56b6 61be 6b95 1dbe b68e 313e
00000140: 37ba a3be ef4f 78be abd0 c3be 19dd 81be
00000150: e5fa d6bb a135 28be 1635 f33d 44d1 7bbe
00000160: a90e a13c b103 f9bd c04b 36be 928e 8ebe
00000170: 00c2 253b 8bd5 febd 002a 7b3b cbd4 b03d
00000180: c8f5 5abe 3019 403e 0086 863e c762 53bd
00000190: ebfc fc3c ad35 c4bd d803 dfbd 4078 a03d
000001a0: 2dc6 663d 1d1a 1b3e 41cc 5c3e 4683 4bbe
000001b0: 3497 80be 56a1 a23c ab3c 923e a0ae 59be
000001c0: 580e 1bbe 5ad0 82be 80a4 fb3d 78fc 053e
000001d0: 1bea c43d 4a4f 65bd 34d5 113e e128 d6bd
000001e0: 5bbf 18be d642 d5bd 53a2 573e d1af 223e
000001f0: a2ba b33d 2efa 403e fdba a3be 292a aa3d
00000200: 5436 ca3b 8207 d0bd 3a61 133e 31c1 46bd
00000210: 923c 95be cf95 debd db84 843d 17fa f33d
00000220: 2626 7e3e 2715 11be 4863 9abe bcdd 08be
00000230: b4a2 2fbe b30f 36be 922d 12be 7d5e 23be
00000240: beda 38be cd64 a9be 7379 8cbe 779a 37be
00000250: 8895 ee3c e6fe 6fbe 93e5 d0bc f142 903e
00000260: 2204 9dbe 26f6 98be 9bf5 513e f68b 8e3d
00000270: abc7 6ebd 2b57 4ebd d73b 88be fe33 2a3e
00000280: 97a2 853e d661 333d b548 bcbe 66bb 2ebd
00000290: 7550 a33d 6fbd eabd b458 133e b12d 01be
000002a0: acf1 1a3e dc55 bdbd 10dc 28be 980e 6d3e
000002b0: afb6 ae3d 0d20 41be ad0a fa3d 655f 443e
000002c0: 6d43 d33d c7d6 86be de85 bdbd 54f1 c33d
000002d0: 46de 1b3e 08e4 863e 96c2 9dbe 1c16 9a3d
000002e0: bbd3 58be e406 763e 973d bf3b a862 b03e
000002f0: 8f6a 4abe 1df2 bf3d 0794 92be 3cd6 3a3c
00000300: 2fbc 1bbe 4432 813e f661 463e 1284 8c3e
00000310: 11ac 24be 24fa a5be 0aad 8abe 2903 293e
00000320: 369e fcbd a0aa 16bd a6f7 c3be 09ff 09bd
00000330: e022 903d 020f 3bbd 605e c1be b373 85be
00000340: 8066 0bbe 2b42 cc3c 4bcf 073d 3b89 2dbe
00000350: 6314 65be ab12 39be 481b 96be 23ce 4e3e
00000360: cd31 123d 804e a2be 35ca 173e c624 8c3d
00000370: 8eff 48be 2203 1b3e 5812 0e3d 54d3 933e
00000380: 1da1 d2be 5c1a b73c 9bd7 bc3c 7367 b8bd
00000390: 7931 3e3e 7d96 54be a8b8 9abe 7db6 723e
000003a0: 3d72 2cbe 1f45 0b3e c1a5 0ebe 1556 63be
000003b0: 818c 88be 27b7 a7be c61b 2d3c a2e9 ebbd
000003c0: 9380 d33d 5cd9 50be 23c7 38be b95b 523e
000003d0: f367 83be da42 8e3c 17db 973d b7b8 943d
000003e0: c1ef aabe d367 59bc ed8b 273e 96a3 053e
000003f0: ded5 25be 9614 8e3c bb45 ce3d 5868 653e
-0.30019355 -0.07106149 0.0047020516 0.11954498 0.10702853 -0.24722564 0.17065144 -0.28823814
-0.14628479 -0.029421154 0.19069205 0.15890443 0.22315092 0.17963354 0.2512284 0.24355634
0.046870995 -0.19298749 -0.21557243 -0.3215135 -0.007516927 0.010880946 -0.1024962 0.12022304
-0.27558637 0.02516659 -0.063533925 0.17959505 -0.14424072 0.20023844 0.1082906 -0.022892216
0.30874377 -0.124631524 0.20809008 0.14903548 -0.08006259 0.06295463 -0.1781695 0.26527587
-0.14697331 -0.15615802 -0.23168856 -0.039675403 0.19818756 -0.12657724 0.28913948 -0.010353866
-0.29329455 0.21648991 0.16034643 -0.1703556 -0.18601047 -0.117307425 -0.22607239 -0.25310117
-0.25681996 -0.09079604 -0.10203652 0.016871639 -0.15934773 -0.13449924 0.2763748 0.043704595
-0.4479396 0.38711548 0.06513992 -0.41362545 -0.123001896 -0.3392565 -0.014540432 -0.05376241
-0.009475708 0.19710398 0.046637576 -0.14475958 0.083502375 -0.22042212 -0.1538903 0.17339596
-0.31978008 -0.24249242 -0.3824514 -0.25363997 -0.0065606707 -0.16426708 0.1187536 -0.24591547
0.01966031 -0.12158907 -0.17802334 -0.27843148 0.0025292635 -0.12443074 0.0038324594 0.08634337
-0.2138282 0.18759608 0.2627411 -0.051607873 0.03088232 -0.0958055 -0.10889405 0.07835436
0.05634134 0.1514668 0.21562292 -0.19874296 -0.2511536 0.019852322 0.2856191 -0.2125802
-0.1514219 -0.25549585 0.12287235 0.1308459 0.096149646 -0.05598382 0.14241487 -0.10457016
-0.14916746 -0.104131386 0.21058016 0.15887381 0.08775832 0.18845436 -0.31978598 0.08308823
0.006171027 -0.10157682 0.14392558 -0.048524085 -0.29147774 -0.108684175 0.06470653 0.11912935
0.2481924 -0.14168225 -0.3015387 -0.13365835 -0.1715191 -0.17779426 -0.14275196 -0.15954013
-0.18052194 -0.33084717 -0.27436408 -0.17930017 0.029124036 -0.2343708 -0.025500095 0.28176072
-0.30667216 -0.29875296 0.20503847 0.06960289 -0.058295887 -0.0503761 -0.26608154 0.16621396
0.2610061 0.043794475 -0.3677422 -0.042659186 0.0797433 -0.11461913 0.14389306 -0.12615086
0.15131253 -0.09244892 -0.16490197 0.23150098 0.08530938 -0.18859883 0.122090675 0.19177015
0.10315595 -0.26335737 -0.09254049 0.09567514 0.1522151 0.2634585 -0.3081252 0.07523748
-0.21174519 0.24026066 0.0058361995 0.3445027 -0.19767211 0.09372351 -0.2862856 0.0114036165
-0.15208505 0.25233662 0.19373307 0.27444512 -0.16081263 -0.32417405 -0.27085143 0.16505112
-0.12334864 -0.036783814 -0.38274878 -0.033690486 0.07037902 -0.04566861 -0.37767315 -0.26064834
-0.1361332 0.024933895 0.033156674 -0.1694688 -0.22371058 -0.18073528 -0.2931769 0.20195822
0.035692025 -0.31700516 0.1482323 0.068429515 -0.19628736 0.15137914 0.034685463 0.28872168
-0.41138545 0.022351436 0.023052027 -0.090041064 0.1857356 -0.20760532 -0.30219007 0.23702426
-0.16840453 0.13600586 -0.13930418 -0.22200806 -0.26669696 -0.32756922 0.010565704 -0.11519171
0.10327258 -0.20395416 -0.18044715 0.20542802 -0.25665244 0.017365862 0.07414835 0.07261794
-0.33386043 -0.0132693825 0.16361971 0.13050684 -0.16194865 0.0173438 0.10071894 0.22403085

fc1.bias f4 [64]
00000000: e285 913e 3c73 5f3b d7b3 0c3c 8f1d 533e
00000010: b522 c4be f4d0 7ebe 39d9 473d 63ff 8fbe
00000020: 80ef 0a3d 011b 46be 4ba9 033e 76db 9cbe
00000030: abf5 d23b fb19 bfbe 0f74 c9be b44c dcbc
00000040: 40a5 b0be 8b64 49bd 48c0 e8bc c92f d7bd
00000050: ca03 1dbd e72e 403e bdd9 b5be 6017 f93d
00000060: b673 783e 41b6 75be f628 1c3e f6e5 66be
00000070: 7b76 9f3d 7e99 1d3e 7a30 e4bd ef88 98be
00000080: 10d9 4ebe 597a 88be 32d2 95be c06d 113e
00000090: d356 9bbe d665 703d 2e32 463e e097 8abe
000000a0: ae10 8ebe 915e c23d 2ee8 f3bc d1c3 243e
000000b0: 9770 4d3e 3b7d 123e 4158 1ebd 0db7 883d
000000c0: cf25 283d 9dd8 21be 3037 d7be e642 9e3c
000000d0: 052f 783e 3a82 ae3d 963c c0bd 3848 2cbe
000000e0: a8c4 0bbe 1677 03be d544 da3b ac91 bcbd
000000f0: 82c4 4bbe 687e aa3e 7fa2 8cbe bebb 92be
0.28422457 0.0034095785 0.008587799 0.20616744 -0.3830773 -0.24884397 0.048791144 -0.28124532
0.03391981 -0.19346239 0.12857549 -0.30636185 0.0064379773 -0.3732451 -0.39346358 -0.026892044
-0.34501076 -0.04916815 -0.028412 -0.10507161 -0.03833369 0.18767892 -0.35517684 0.121626616
0.2426289 -0.23995306 0.1525 -0.2254866 0.0778627 0.15390584 -0.11142059 -0.29791972
-0.2019999 -0.26655844 -0.2926193 0.14202023 -0.3033968 0.05869087 0.1935508 -0.27068996
-0.277471 0.09490693 -0.029773798 0.16090323 0.20062481 0.14305584 -0.038658384 0.06675539
0.041051682 -0.15805288 -0.42034292 0.019319009 0.24236687 0.085209325 -0.09386556 -0.16824424
-0.13649237 -0.12838396 0.0066610374 -0.09207472 -0.1989918 0.33299565 -0.27467725 -0.2865886

fc2.weight f4 [64, 64]
00000000: 32bc bc3d 70b8 acbd caca af3d f6dd fabd
00000010: b8fc c4bd 6042 ac3c 6c00 a8bd 004d caba
00000020: 2483 d83d 6641 d6bd 7278 88bd 6057 13bc
00000030: c6f8 b7bd 30b3 9ebc 48c8 003d 8c87 703d
00000040: 7017 bcbc 8006 21bb 5877 4cbd 5a47 ff3d
00000050: dc19 7d3d 70f5 803c 603c 89bb 58cc e13d
00000060: 10c0 b33d 6eb3 b93d c069 b03d f04c ef3d
00000070: fe1a df3d 98f9 e7bc d2a0 bd3d 6c7c 80bd
00000080: 0a1d e33d 4229 f13d 1eac d93d 0cd5 46bd
00000090: a80a 943c 506e 7abc 0059 6f3d 203b 833b
000000a0: 54d1 febd 56ca bbbd 0cc7 3cbd 0274 ecbd
000000b0: cc30 3e3d dc56 a53d 9ed8 c73d 324e 9bbd
000000c0: 40de ae3b fe5c c5bd 6666 893d c447 b03d
000000d0: c26d ecbd c020 bbbb 76a6 cbbd 20f5 47bd
000000e0: 846f 15bd c846 913c 743e dd3d 082b 15bd
000000f0: 0246 e8bd 20d5 543c 5037 863c 2836 33bd
00000100: 6af2 b43d ec49 5abc 209f efbb 2469 313d
00000110: 22b4 b4bc 49b7 44be 7e8e 46be 0863 80bd
00000120: dcde 6e3d 40c4 dfbb 2e7b c2bd 15c1 c3bd
00000130: 0078 51bd 018b dbbd 731d 4bbd 98ef 1cbd
00000140: 00e4 af3c 966e b6bd f8e5 a03d e7d6 9dbd
00000150: 18c5 0abe 004c 38be ad2e 953c 4099 bdbc
00000160: 6cf5 3ebd 9c8e 45be a9c2 22be 105c cc3d
00000170: acf5 263d 7895 85bd 5433 6a3d c034 30bd
00000180: 7c2d 9f3d 479a dbbd 50cd f3bc d0de 943d
00000190: d047 50bc 6a95 abbd 00c1 2e3d a386 c3bb
000001a0: ba36 bbbc 1400 9c3d 1469 79bd a54b d9bd
000001b0: 5744 18be be5e b43d 00d1 923d 8460 723d
000001c0: 30f5 c13c b9dc 04be 00df 7dbd 78fe ee3d
000001d0: 398d 6d3c a01f 073c f8d7 ae3d 4001 c53c
000001e0: 8ad8 f5bd 32e7 f4bc 9745 3cbb e869 3dbd
000001f0: d17e 1abe 8033 bfbb 186c 833c b4af dcbd
00000200: 1ed7 debd 0e38 f7bd 0a8a 783d baf2 ecbd
00000210: 2117 ed3c 9713 96bd 8005 323d 94c8 2e3d
00000220: 9859 063d 19f6 2ebe 68e2 b93c 6451 15be
00000230: 3090 c53c 2534 21bc 4763 433d f76d a1bd
00000240: 4bc4 0b3d e014 debb 50d7 763c 4f4b b53c
00000250: 56b3 20bc 05e8 13be 53a2 eebd 00f4 473d
00000260: dec9 ea3d e66f 92bc 6f3a 8f3d 2591 893b
00000270: c05a 53bb 3a37 86bd 0061 203d a037 babd
00000280: 780c 863c 7cba acbd f61b 8abd 3296 ca3d
00000290: b8a3 2fbd c40f 9ebd dc0c 9e3d 981c 60bc
000002a0: 860b 0cbe 9ac3 e6bd 48af 21bd e404 7b3d
000002b0: 658e e739 10f5 a1bd 4e45 803d 79d5 803d
000002c0: 2e9f f13d 3acb dabc 602d b93d ba64 b7bd
000002d0: f90c 8abc fea3 e0bd 18e3 fbbc 58a8 d83d
000002e0: 7cbe 2ebd 303b 07be f276 18be ec8b aebd
000002f0: 848a 46bd 30e5 283d 5082 94bc 54e7 40bd
00000300: d8b3 f1bc c4cb 073d 8615 72bc 0418 36bc
00000310: 047b c13d fe5d b23d 0134 bd3d cf78 573d
00000320: 72f8 9b3d 921b c13d 5e79 d6bd 9cc9 84bc
00000330: 8242 d7bd 760a f33d 5045 623d 4130 a53d
00000340: bdd9 c73d 4064 993c 9645 29bd 8a65 9c3c
00000350: e790 1c3e 9ae9 113e 9586 2b3e aa5e 98bd
00000360: 8a35 ad3c d319 a2bc 0076 39bd 1a84 bb3a
00000370: c0a9 4a3b 9451 2abd f812 dabd 9a4d d1bd
00000380: b040 52bd 6620 f93c 9ad8 223c d462 b7bd
00000390: 1059 663c e857 e7bc 65a7 f0bc ceee b13c
000003a0: dfe5 033e a59b 0fbe e4ad 00be 4e4d 103e
000003b0: 13c6 d93d 123c e6bd 1af6 203c f5ca 1ebd
000003c0: c46e 5abe 02b8 1a3e ba7e cc3d 237b a23d
000003d0: abf6 a93d 363a 943d e4fd 5c3d 1cde 2e3e
000003e0: def6 a33d c60c 4abd 8388 6e3c b32b f5bd
000003f0: a7af fc3d 58ce fb3d 3029 183c 7925 c4bd
0.09215583 -0.08433616 0.08583601 -0.12249367 -0.09618515 0.021027744 -0.082032055 -0.0015434325
0.10571888 -0.104616925 -0.06663598 -0.008993 -0.08982997 -0.019372553 0.031441003 0.058723018
-0.022960395 -0.0024570525 -0.049918503 0.12464781 0.06179224 0.015742034 -0.0041881055 0.110253036
0.087768674 0.090674266 0.0861392 0.116845965 0.1089382 -0.028317258 0.0925919 -0.062737316
0.11089523 0.117754474 0.10628532 -0.04854302 0.018071488 -0.01528509 0.058434486 0.004004851
-0.1244227 -0.09169452 -0.046088263 -0.11545564 0.046433255 0.08073208 0.09758113 -0.07583274
0.005336553 -0.096368775 0.06708984 0.08607438 -0.11544372 -0.005710691 -0.09943859 -0.048817754
-0.036483303 0.017733946 0.108029276 -0.03641799 -0.11341478 0.012990266 0.016383797 -0.04375282
0.08835299 -0.013323288 -0.0073126704 0.04331316 -0.02205855 -0.19210543 -0.19390294 -0.06268889
0.058318004 -0.0068288147 -0.09496151 -0.09558312 -0.05113983 -0.10719872 -0.04958863 -0.038314432
0.021471024 -0.08907811 0.07856363 -0.07707005 -0.13551748 -0.17997742 0.018210733 -0.023144364
-0.04662077 -0.19292682 -0.1589457 0.09978497 0.040761635 -0.065226495 0.057177857 -0.043019056
0.07772347 -0.107227854 -0.029760987 0.072690606 -0.012712434 -0.08378108 0.042664528 -0.0059669777
-0.022853244 0.076172024 -0.060891226 -0.10610131 -0.1486982 0.08807133 0.0716877 0.059174076
0.023676485 -0.12974824 -0.061980247 0.1166963 0.014499002 0.008247286 0.085372865 0.024048448
-0.12004192 -0.029895399 -0.0028728002 -0.04624358 -0.15087439 -0.0058349967 0.016042754 -0.107757
-0.10880874 -0.120712385 0.06067852 -0.11569734 0.028941693 -0.07327955 0.043462276 0.042671755
0.032800287 -0.17086066 0.022690967 -0.1458183 0.024116606 -0.009839092 0.0477021 -0.07882302
0.034122746 -0.006777391 0.015065983 0.022130636 -0.009808382 -0.14443977 -0.11652055 0.04881668
0.11464284 -0.017875623 0.06993567 0.004198211 -0.0032250136 -0.065535024 0.039155006 -0.09092641
0.016363367 -0.084340066 -0.067436144 0.09891929 -0.042880744 -0.07717851 0.077172965 -0.013678692
-0.13676271 -0.11267777 -0.0394738 0.06128396 0.00044165846 -0.0790807 0.06263219 0.06290717
0.11797939 -0.026708234 0.09041858 -0.08954759 -0.016851889 -0.10968779 -0.030747935 0.10578984
-0.04266213 -0.13206172 -0.14889124 -0.08522782 -0.048471943 0.041234195 -0.018128544 -0.04709561
-0.029504701 0.03315331 -0.014775639 -0.011114124 0.094472915 0.08709334 0.092384346 0.052605446
0.076157466 0.09429087 -0.10472368 -0.016209416 -0.10510732 0.1186723 0.055241883 0.08065844
0.09758327 0.01872456 -0.041326128 0.019091386 0.15289651 0.14249268 0.16750558 -0.07439931
0.021143693 -0.019787705 -0.04527855 0.0014306337 0.0030923933 -0.041581705 -0.10648149 -0.102198794
-0.051331222 0.030410957 0.009939337 -0.08954397 0.01405932 -0.02824016 -0.029376695 0.021720316
0.12880658 -0.14024217 -0.12566334 0.1409199 0.10633483 -0.11241926 0.0098243 -0.038767774
-0.21331316 0.15109256 0.09985109 0.07933643 0.08299001 0.07237665 0.053953066 0.17076916
0.080060706 -0.049328588 0.014558914 -0.119712256 0.123381905 0.12295216 0.009287164 -0.0957746

fc2.bias f4 [64]
00000000: 3479 d0bd fadc 46be 5630 903d b0bd 103e
00000010: 1e75 a6bc 5b7a 98bd 45dc 36bd b680 fdbd
00000020: 600c cbbc b7dc 9bbd 6cde 0f3d 4bb0 d93b
00000030: f7e3 80bd 31b2 073d 3a44 89bd d880 c83c
00000040: cd2c 31be f641 30be 0013 39bd c9d3 cdbd
00000050: 90c8 353d 605c 6cbd 72f7 e13c 26a1 b0bd
00000060: 446a 183d 2712 aabc 4bc2 0fbd 4df5 993b
00000070: 97fa 2dbd bc77 113d 512e 723c f24c 38bc
00000080: a04a 0f3c eb0a 91bd 6859 4b3d 7078 e7bd
00000090: d717 91bd fcb9 b93d 1e5d 703d 9e61 983d
000000a0: 9991 36be 9637 1a3c a7ef a5bd ca50 83bb
000000b0: ed19 223d 90a3 ae3c f802 bd3d 1f33 d2bd
000000c0: b811 e93d 9b8e 0c3e 2db9 dcbc 83e3 c1bd
000000d0: 79d8 1fbd bf70 d7bd 77a6 19be cdfc 9a3d
000000e0: 30d7 78be 5074 8d3d b946 b1bc 6bd9 c6bd
000000f0: b8ff ddbb 7f6f dfbd a40e ec3d e88e 543d
-0.10179368 -0.19420233 0.07040469 0.1413486 -0.020319518 -0.074452125 -0.04464366 -0.12378065
-0.024786174 -0.076104574 0.035124227 0.00664333 -0.06293481 0.03312892 -0.06702466 0.0244755
-0.17302246 -0.17212662 -0.045184135 -0.100501604 0.044380724 -0.057705283 0.027583811 -0.086244866
0.037210718 -0.020760609 -0.0350974 0.0046984316 -0.04247531 0.03551458 0.0147815505 -0.011248814
0.008745819 -0.070821606 0.04964581 -0.113022685 -0.07084625 0.09068677 0.058682553 0.07440494
-0.17828979 0.009412667 -0.08102351 -0.0040074335 0.039575506 0.021318227 0.09229082 -0.10263657
0.11380333 0.13726275 -0.026943767 -0.094672225 -0.039024804 -0.105195515 -0.15004908 0.07567749
-0.24300838 0.069069505 -0.021640169 -0.09709438 -0.006774869 -0.10909938 0.1152623 0.0518941

fc3.weight f4 [2, 64]
00000000: e83f d4bd 5c5f fa3d 182d c33c eaae 3cbe
00000010: 24fa 023d b6e7 a5bd 10b4 bebc f485 5e3d
00000020: 1411 7d3d acc9 a73d 10e9 683c e465 efbd
00000030: 2634 3dbe 64e6 41bd bc4c 20be 082d a53c
00000040: 7c85 20bb 2e38 51bd 31b3 6e3d 53ca 4abc
00000050: 0ee6 b83d 642a 113d d8f4 2fbd 808a f13a
00000060: 9828 46bd 6754 cabd 0660 dcbd f0c9 243c
00000070: e09a f73b 388a a8bd 31ac 313d 2377 d137
00000080: d095 ee3d 7837 bcbd f1df fdbd cc8e a3bd
00000090: c88f 4abd a43a 87bd 7081 dbbc eace 9cbd
000000a0: 7248 fb3d 268f 983c 1325 323d 6c82 69bd
000000b0: 247c adbb ee4b e6bd e905 a5bd 5b5c 2a3d
000000c0: 40d6 3c3b d761 efbd f81d 07bc 7d45 24bd
000000d0: 77bb cbbc b63f dd3c aee7 243d b67d 0cbe
000000e0: 4407 5bbd f0c1 773d 163a b53d 7cc6 473d
000000f0: 01e2 613d b87f 9f3c 40e6 5bbc 52af f8bd
00000100: 2088 7f3c 3602 873d 0ee2 1abe 3d0a 0c3d
00000110: 183a 95bd 6813 56bd 41e4 82bd c95b 08bd
00000120: 36cf 88bd a0ee 92bd 66d9 7a3d f6e8 bbbb
00000130: e747 803d 68ca 18bd 5a8f 853c a412 7d3d
00000140: 1f7d c6bd 72c6 d0bd 7c9c dfbd da13 c5bc
00000150: aedc 973d 829a dabd 749d 4abd 600f 2dbc
00000160: eccc 763d 2580 ef3b bec5 343d f86a 90bc
00000170: 4ec2 f7bc e8a0 83bd 8a4b e8bd f212 2cbe
00000180: 7069 5c3c 79ec e53d 51be 8b3d 3af3 d0bd
00000190: ef32 0a3d 8d00 a6bd 1995 e73d e004 00be
000001a0: f225 ed3d fe22 f4b9 826b fe3d 6218 533c
000001b0: 6924 1dbe 9e9a ac3d a9b6 2ebc 48c7 abbc
000001c0: 36a3 d63d 5b9e 99bb c884 24be 58f5 95bd
000001d0: 11a2 303d 105c e63c 7407 833d 04bc abbd
000001e0: 6cb8 aa3d 34b9 2abd f3a0 3d3d 9776 c43d
000001f0: 2edd 84bd f5ee 7dbd 0070 0bb8 4534 6c3c
-0.10363752 0.122252196 0.023825213 -0.184261 0.031976834 -0.08100836 -0.02327922 0.054326966
0.061783865 0.08192763 0.014215723 -0.11689356 -0.18476924 -0.04733886 -0.15654272 0.020163074
-0.0024493625 -0.051078968 0.05827636 -0.012377339 0.090282544 0.035440817 -0.04295811 0.0018428117
-0.048378557 -0.0987938 -0.107605025 0.010057911 0.0075563043 -0.08229488 0.043377105 2.4970219e-05
0.11649668 -0.09190267 -0.12396229 -0.07986221 -0.049453527 -0.06602982 -0.026795119 -0.07656653
0.12269677 0.018622946 0.043492388 -0.057009146 -0.0052943397 -0.11244951 -0.08057768 0.041591983
0.0028814226 -0.11688583 -0.008246891 -0.04010533 -0.024869664 0.027007919 0.04026001 -0.1371983
-0.053473726 0.060487688 0.0884897 0.048773274 0.055147175 0.01947008 -0.013421595 -0.12142815
0.01559642 0.065922186 -0.15125296 0.03418945 -0.07286471 -0.0522646 -0.06391192 -0.03329066
-0.06680147 -0.0717442 0.061242484 -0.005734558 0.06263714 -0.037302405 0.016303707 0.061785355
-0.09691834 -0.101941004 -0.10918519 -0.024057318 0.07415138 -0.10674001 -0.049466565 -0.010562748
0.060254022 0.007308977 0.044133894 -0.017629132 -0.030244019 -0.06427175 -0.11342533 -0.16804102
0.013452873 0.11226744 0.06823409 -0.10202642 0.03373998 -0.08105574 0.11307735 -0.1250186
0.11579503 -0.00046565378 0.12422849 0.012884231 -0.1534592 0.084279284 -0.010663667 -0.020969048
0.10480349 -0.004688067 -0.16066277 -0.07322186 0.04312331 0.02812007 0.06397906 -0.083854705
0.08335957 -0.04168053 0.04629607 0.09592932 -0.06487499 -0.061995465 -3.324449e-05 0.014416759

fc3.bias f4 [2]
00000000: 10ec 09be 9ef3 efbc
-0.13468957 -0.02929097

exp_avg f4 [64, 9]
00000000: 0000 0000 0000 0000 0000 0000 0000 0000
00000010: 0000 0000 0000 0000 0000 0000 0000 0000
00000020: 0000 0000 e357 ba41 e357 ba41 7ee4 79c0
00000030: 4fe3 8941 4fe3 8941 3fad e742 ee57 cd41
00000040: 5157 bcc2 77ea 5d3d 4550 4241 4550 4241
00000050: f63d 4cc0 3adc 2341 3adc 2341 d730 7442
00000060: 6432 5641 6600 47c2 645e e73c 44cb 0340
00000070: 44cb 0340 ff54 47c0 b429 1640 b429 1640
00000080: 5ade 3c41 c6ea 1140 fe37 1ec1 d783 9c3b
00000090: d851 3a38 d851 3a38 bb0c d4b8 0398 3338
000000a0: 0398 3338 20e0 b938 fb73 2038 266e 46b8
000000b0: 93af d533 9107 6441 9107 6441 d79a 43c0
000000c0: 6c43 4441 6c43 4441 b2d2 8e42 4179 7b41
000000d0: ad9d 68c2 1cb9 073d 12fc 2638 12fc 2638
000000e0: 4d36 cfb8 4338 0e38 4338 0e38 d9bb af38
000000f0: 4290 0f38 0922 44b8 d31f e233 0fcc a740
00000100: 0fcc a740 9df4 b0bf 3d36 8f40 3d36 8f40
00000110: dbe2 d241 90f7 b840 17dd abc1 b1cb 473c
00000120: 0000 0000 0000 0000 0000 0000 0000 0000
00000130: 0000 0000 0000 0000 0000 0000 0000 0000
00000140: 0000 0000 a917 e535 a917 e535 de52 b5b6
00000150: 3512 0e36 3512 0e36 2b01 8a36 aac4 c635
00000160: 6474 29b6 101a 42b1 0000 0000 0000 0000
00000170: 0000 0000 0000 0000 0000 0000 0000 0000
00000180: 0000 0000 0000 0000 0000 0000 18bc 0c41
00000190: 18bc 0c41 e25a e5bf f8a5 de40 f8a5 de40
000001a0: ac17 3042 6b33 1b41 0f5d 0fc2 b787 a73c
000001b0: 0000 0000 0000 0000 0000 0000 0000 0000
000001c0: 0000 0000 0000 0000 0000 0000 0000 0000
000001d0: 0000 0000 1a97 0e42 1a97 0e42 3bd8 43c0
000001e0: 3f40 d741 3f40 d741 aac7 2f43 811e 1d42
000001f0: 909e 0ec3 52d1 a93d 621d 8e41 621d 8e41
00000200: 9dc9 8dc0 583f 6a41 583f 6a41 4b7f b242
00000210: cab0 9c41 8172 91c2 0032 293d da39 acb6
00000220: da39 acb6 95b6 5d37 ce4b 90b6 ce4b 90b6
00000230: 5af0 3bb7 40ee 92b6 d3aa d736 3d03 50b2
00000240: 9358 0633 9358 0633 bd7c 24b4 ff81 2433
00000250: ff81 2433 b2bd 7c33 6037 1c33 2b89 ffb2
00000260: 0806 b2aa 0000 0000 0000 0000 0000 0000
00000270: 0000 0000 0000 0000 0000 0000 0000 0000
00000280: 0000 0000 0000 0000 c061 1333 c061 1333
00000290: 60f1 33b4 a93a 3233 a93a 3233 ab20 8a33
000002a0: cc5f 2b33 e527 0bb3 0000 0000 692a 3940
000002b0: 692a 3940 7786 00c0 73fd 6940 73fd 6940
000002c0: a6b6 7541 31d7 4c40 e8a6 4ac1 900b dc3b
000002d0: be39 8e41 be39 8e41 2bba 92be 3e28 6e41
000002e0: 3e28 6e41 f3ad ae42 c5db 9c41 939a 8dc2
000002f0: a44d 293d 8cd5 b541 8cd5 b541 0587 93c0
00000300: 1eff 8f41 1eff 8f41 6930 e342 7173 c841
00000310: f1e6 b8c2 d080 583d c796 3d41 c796 3d41
00000320: edcd 13c0 ad26 1541 ad26 1541 f6a4 6c42
00000330: 14fd 5041 ce8d 40c2 3dbe e13c 0000 0000
00000340: 0000 0000 0000 0000 0000 0000 0000 0000
00000350: 0000 0000 0000 0000 0000 0000 0000 0000
00000360: 05a0 2e32 05a0 2e32 8161 1eb3 baa9 f331
00000370: baa9 f331 16ac 5932 6f0d 4b32 d4eb 5cb1
00000380: feec cf2d 8e70 85b9 8e70 85b9 f12f d939
00000390: 8ed4 27b9 8ed4 27b9 2386 dfb9 ff97 65b9
000003a0: c3c9 4639 051a 22b5 c964 d8b6 c964 d8b6
000003b0: 84a8 0937 48f7 fbb6 48f7 fbb6 a717 23b7
000003c0: ddb4 b9b6 dcc6 7936 f58c c0b2 e3d5 1f32
000003d0: e3d5 1f32 e825 43b3 1e4a 4132 1e4a 4132
000003e0: 9ccc 9532 f6da 3932 1dea 16b2 0000 0000
000003f0: 0000 0000 0000 0000 0000 0000 0000 0000
0.0 0.0 0.0 0.0 0.0 0.0 0.0 0.0
0.0 23.292913 23.292913 -3.904571 17.23599 17.23599 115.83837 25.667934
-94.17054 0.05417868 12.144597 12.144597 -3.1912818 10.241266 10.241266 61.047695
13.387302 -49.75039 0.028243251 2.0592813 2.0592813 -3.1145627 2.3462954 2.3462954
11.804285 2.2799544 -9.88867 0.0047764587 4.442208e-05 4.442208e-05 -0.00010111319 4.2818498e-05
4.2818498e-05 8.863234e-05 3.8254988e-05 -4.7309462e-05 9.950522e-08 14.251847 14.251847 -3.0563257
12.26646 12.26646 71.411514 15.717103 -58.15398 0.03313552 3.9812243e-05 3.9812243e-05
-9.8806435e-05 3.3907836e-05 3.3907836e-05 8.3796396e-05 3.4228207e-05 -4.676174e-05 1.0529734e-07 5.2436595
5.2436595 -1.382465 4.475371 4.475371 26.36077 5.78022 -21.482954 0.01219456
0.0 0.0 0.0 0.0 0.0 0.0 0.0 0.0
0.0 1.7068716e-06 1.7068716e-06 -5.4038674e-06 2.1170247e-06 2.1170247e-06 4.1128565e-06 1.4809386e-06
-2.525071e-06 -2.824553e-09 0.0 0.0 0.0 0.0 0.0 0.0
0.0 0.0 0.0 8.795921 8.795921 -1.791836 6.95776 6.95776
44.023117 9.700053 -35.840878 0.020450456 0.0 0.0 0.0 0.0
0.0 0.0 0.0 0.0 0.0 35.64756 35.64756 -3.0600727
26.90637 26.90637 175.77994 39.27979 -142.61938 0.08291878 17.764347 17.764347
-4.430861 14.640465 14.640465 89.24862 19.586323 -72.72364 0.04130745 -5.1327343e-06
-5.1327343e-06 1.3215137e-05 -4.3003593e-06 -4.3003593e-06 -1.120203e-05 -4.378875e-06 6.427386e-06 -1.210793e-08
3.1279864e-08 3.1279864e-08 -1.531907e-07 3.8302456e-08 3.8302456e-08 5.884585e-08 3.6371944e-08 -2.9748284e-08
-3.1623337e-13 0.0 0.0 0.0 0.0 0.0 0.0 0.0
0.0 0.0 3.4315008e-08 3.4315008e-08 -1.6758486e-07 4.1497206e-08 4.1497206e-08 6.432068e-08
3.9901167e-08 -3.2399743e-08 0.0 2.8932135 2.8932135 -2.008207 3.6560943 3.6560943
15.357092 3.2006342 -12.665749 0.0067152455 17.778194 17.778194 -0.2865766 14.884825
14.884825 87.339745 19.60731 -70.8019 0.04133381 22.72927 22.72927 -4.610232
17.999569 17.999569 113.59455 25.056368 -92.45106 0.05285722 11.849311 11.849311
-2.3094437 9.321942 9.321942 59.161095 13.061787 -48.13848 0.027556533 0.0
0.0 0.0 0.0 0.0 0.0 0.0 0.0 0.0
1.0164517e-08 1.0164517e-08 -3.687592e-08 7.0915265e-09 7.0915265e-09 1.267019e-08 1.181921e-08 -3.2148266e-09
2.3638421e-11 -0.00025451597 -0.00025451597 0.00041425184 -0.00016005544 -0.00016005544 -0.00042633814 -0.00021895765
0.00018957914 -6.0387566e-07 -6.4490346e-06 -6.4490346e-06 8.205072e-06 -7.5091702e-06 -7.5091702e-06 -9.721064e-06
-5.534485e-06 3.7219643e-06 -2.2415842e-08 9.30365e-09 9.30365e-09 -4.543645e-08 1.1250931e-08 1.1250931e-08
1.7438929e-08 1.0818203e-08 -8.78438e-09 0.0 0.0 0.0 0.0 0.0

exp_avg_sq f4 [64, 9]
00000000: 0000 0000 0000 0000 0000 0000 0000 0000
00000010: 0000 0000 0000 0000 0000 0000 0000 0000
00000020: 0000 0000 934c 0447 934c 0447 d9b4 2649
00000030: 3e11 3147 3e11 3147 7020 5f48 6d78 2f47
00000040: 28e0 d647 2f6a f23c 33b3 8046 33b3 8046
00000050: 0c13 d147 b7cb 6b46 b7cb 6b46 a5b8 9b48
00000060: 6028 a146 bb84 4848 e620 863d 8c8e 8746
00000070: 8c8e 8746 d919 ea44 1dd9 4046 1dd9 4046
00000080: baf5 d348 2d22 a446 d595 8c48 b12f c03d
00000090: 2839 a347 2839 a347 6244 f349 73aa ee47
000000a0: 73aa ee47 2963 8f48 0aaa dc47 b88d 9147
000000b0: d682 2b39 3af5 1e47 3af5 1e47 3d4d 1149
000000c0: 9a1f 3a47 9a1f 3a47 4912 ec48 6c2e 4e47
000000d0: fd1c 8b48 7a9e b03d 7e5c 3945 7e5c 3945
000000e0: 0830 7e47 8e9f 7c45 8e9f 7c45 737d 2b46
000000f0: aea9 6d45 0c2c 3945 9af7 563b 7a71 b543
00000100: 7a71 b543 599a cd41 b0b7 8443 b0b7 8443
00000110: 8458 0f46 ca79 dc43 636c be45 219f 003b
00000120: 0000 0000 0000 0000 0000 0000 0000 0000
00000130: 0000 0000 0000 0000 0000 0000 0000 0000
00000140: 0000 0000 b80b ef45 b80b ef45 8e5a 3148
00000150: d152 2e46 d152 2e46 5d97 d246 1b24 2146
00000160: 4794 d645 357d b039 0000 0000 0000 0000
00000170: 0000 0000 0000 0000 0000 0000 0000 0000
00000180: 0000 0000 0000 0000 0000 0000 857b 4a45
00000190: 857b 4a45 2b18 4347 1194 7145 1194 7145
000001a0: bd62 0647 72a9 8145 f9a2 9946 8885 da3b
000001b0: 0000 0000 0000 0000 0000 0000 0000 0000
000001c0: 0000 0000 0000 0000 0000 0000 0000 0000
000001d0: 0000 0000 cbc1 7747 cbc1 7747 ca43 6649
000001e0: 8ce2 9047 8ce2 9047 b28c 3049 f4af 9f47
000001f0: a4c3 cd48 ccf6 063e ceac 9645 ceac 9645
00000200: a704 bc46 b004 8045 b004 8045 6311 bd47
00000210: 35b9 b745 c35d 7447 8c90 b03c fca4 c847
00000220: fca4 c847 887d 154a 4da2 1248 4da2 1248
00000230: 4043 b048 699d 0748 25ee b247 c6d4 813a
00000240: 209c b846 209c b846 e093 0949 1eeb 0647
00000250: 1eeb 0647 2320 a247 889b f946 4a85 a446
00000260: b22e be39 0000 0000 0000 0000 0000 0000
00000270: 0000 0000 0000 0000 0000 0000 0000 0000
00000280: 0000 0000 0000 0000 1d3d bc46 1d3d bc46
00000290: 0d4d 0c49 26a4 0947 26a4 0947 6b57 a547
000002a0: a383 fe46 f0cf a746 0000 0000 65e0 a446
000002b0: 65e0 a446 f90b 6f48 e780 af46 e780 af46
000002c0: 377d 9448 40ac d146 283a 3648 6744 773d
000002d0: 6bee ce46 6bee ce46 7a68 1649 0bf4 1447
000002e0: 0bf4 1447 e56a c847 dae0 0a47 d84c ee46
000002f0: cabf ae3b 0d7b 9c47 0d7b 9c47 5be3 e149
00000300: 7727 e147 7727 e147 4326 a448 f7db d247
00000310: c97d d947 ff28 633c 0812 3547 0812 3547
00000320: ee2c 8549 ab73 8347 ab73 8347 39cd 2b48
00000330: 477d 7447 85b8 4647 b915 923b 0000 0000
00000340: 0000 0000 0000 0000 0000 0000 0000 0000
00000350: 0000 0000 0000 0000 0000 0000 0000 0000
00000360: a902 d13c a902 d13c ebee ab3e a478 4b3c
00000370: a478 4b3c 1361 223d ae4c 0d3d 3143 273b
00000380: d029 1434 c5cd e847 c5cd e847 faf0 2c4a
00000390: eed3 2948 eed3 2948 bbe9 cc48 ba0c 1d48
000003a0: b585 d047 9a00 893b c767 a946 c767 a946
000003b0: f125 fc48 e779 f746 e779 f746 1ef2 9447
000003c0: 8bd4 e446 395c 9746 9a3d f939 1d65 dd44
000003d0: 1d65 dd44 7603 2547 ade2 2145 ade2 2145
000003e0: 0377 c245 11ac 1545 ef5e c544 0000 0000
000003f0: 0000 0000 0000 0000 0000 0000 0000 0000
0.0 0.0 0.0 0.0 0.0 0.0 0.0 0.0
0.0 33868.574 33868.574 682829.56 45329.242 45329.242 228481.75 44920.426
110016.31 0.029591648 16473.6 16473.6 107046.09 15090.929 15090.929 318917.16
20628.188 205330.92 0.06549244 17351.273 17351.273 1872.8077 12342.278 12342.278
434093.8 21009.088 287918.66 0.093840964 83570.31 83570.31 1.9928442e+06 122196.9
122196.9 293657.28 112980.08 74523.44 0.00016356571 40693.227 40693.227 595155.8
47647.6 47647.6 483474.28 52782.42 284903.9 0.08623977 2965.7808 2965.7808
65072.03 4041.9722 4041.9722 10975.362 3802.605 2962.753 0.003280139 362.88654
362.88654 25.700365 265.43506 265.43506 9174.129 440.95148 6093.5483 0.0019626098
0.0 0.0 0.0 0.0 0.0 0.0 0.0 0.0
0.0 7649.465 7649.465 181610.22 11156.704 11156.704 26955.682 10313.026
6866.5347 0.00033662622 0.0 0.0 0.0 0.0 0.0 0.0
0.0 0.0 0.0 3239.72 3239.72 49944.168 3865.2542 3865.2542
34402.74 4149.1807 19665.486 0.00666875 0.0 0.0 0.0 0.0
0.0 0.0 0.0 0.0 0.0 63425.793 63425.793 943164.6
74181.09 74181.09 723147.1 81759.91 421405.12 0.13180083 4821.6006 4821.6006
24066.326 4096.586 4096.586 96802.77 5879.151 62557.76 0.0215533 102729.97
102729.97 2.44925e+06 150153.2 150153.2 360986.0 138869.64 91612.29 0.000990533
23630.062 23630.062 563518.0 34539.117 34539.117 83008.27 31949.766 21058.645
0.00036274415 0.0 0.0 0.0 0.0 0.0 0.0 0.0
0.0 0.0 24094.557 24094.557 574672.8 35236.15 35236.15 84654.836
32577.818 21479.969 0.0 21104.197 21104.197 244783.89 22464.451 22464.451
304105.72 26838.125 186600.62 0.060367968 26487.209 26487.209 616071.6 38132.043
38132.043 102613.79 35552.85 30502.422 0.0053329216 80118.1 80118.1 1.8504754e+06
115278.93 115278.93 336178.1 107959.93 111355.57 0.013864755 46354.03 46354.03
1.0909738e+06 67303.336 67303.336 175924.89 62589.277 50872.52 0.004458156 0.0
0.0 0.0 0.0 0.0 0.0 0.0 0.0 0.0
0.025513964 0.025513964 0.33580717 0.0124189 0.0124189 0.03964336 0.034496956 0.0025522227
1.3798785e-07 119195.54 119195.54 2.8334705e+06 173903.72 173903.72 419661.84 160818.9
106763.414 0.00418098 21683.889 21683.889 516399.53 31676.951 31676.951 76260.234
29290.271 19374.111 0.00047538878 1771.1598 1771.1598 42243.46 2590.1672 2590.1672
6222.8765 2394.7542 1578.9667 0.0 0.0 0.0 0.0 0.0

exp_avg f4 [64]
00000000: 0000 0000 eae0 5d3d 645e e73c 3bed 9c3b
00000010: b8d9 dd33 d6c1 073d 08d4 c633 b1cb 473c
00000020: 0000 0000 d863 8831 0000 0000 9492 a73c
00000030: 0000 0000 27c8 a93d 3937 293d b511 4db2
00000040: 2bf7 9f2e 0000 0000 b77c af2e f579 dc3b
00000050: fe58 293d 7382 583d 3dbe e13c 0000 0000
00000060: feec cf2d e2e2 1eb5 6bd4 80b2 d950 be2d
00000070: 0000 0000 0000 0000 cfbf 0931 0000 0000
00000080: 0000 0000 a691 053d 75ee 0f34 0000 0000
00000090: 0000 0000 0000 0000 61bd 503c 09f4 9d38
000000a0: 07a7 f731 2fea a43c 15e9 9831 1b90 ec2e
000000b0: 7c80 993c 0000 0000 8487 bb3c 4549 0a2e
000000c0: 961d fb39 91ed 13b7 a0e1 bd3c 812b 9c2e
000000d0: 2d12 6a3d 0424 8532 0000 0000 5420 4d3c
000000e0: 0000 0000 e339 9f3c 0732 a838 69f6 063d
000000f0: faf9 493d 0000 0000 0000 0000 d026 8136
0.0 0.054169573 0.028243251 0.0047890223 1.0330717e-07 0.03314384 9.258662e-08 0.01219456
0.0 3.969472e-09 0.0 0.020455636 0.0 0.08290129 0.04131243 -1.1936597e-08
7.274389e-11 0.0 7.9802324e-11 0.0067284056 0.041344635 0.05285878 0.027556533 0.0
2.3638421e-11 -5.9189745e-07 -1.4997758e-08 2.1636403e-11 0.0 0.0 2.0045154e-09 0.0
0.0 0.032609604 1.3404663e-07 0.0 0.0 0.0 0.012740464 7.5317985e-05
7.207635e-09 0.020131199 4.4502806e-09 1.0757636e-10 0.018738024 0.0 0.022891767 3.1442644e-11
0.00047896494 -8.8171955e-06 0.023178875 7.1017865e-11 0.05714624 1.5499616e-08 0.0 0.012519915
0.0 0.019436782 8.0201826e-05 0.03294984 0.04931066 0.0 0.0 3.849018e-06

exp_avg_sq f4 [64]
00000000: 0000 0000 8791 3b3e 4277 b63d ec2f c03d
00000010: 4e69 e73e 485d 613e 2566 833c 219f 003b
00000020: 0000 0000 7674 293d 0000 0000 3089 8f3c
00000030: 0000 0000 4ea1 af3e 069f d53c a03b 0e3f
00000040: cadd 023e 0000 0000 4c70 053e 65c1 e93d
00000050: 8eb0 123e 21da dd3e 7a5b 803e 0000 0000
00000060: d029 1434 b107 253f 282d f03d 4ff1 1c3c
00000070: 0000 0000 0000 0000 1996 2238 0000 0000
00000080: 0000 0000 5452 3e3d a36c e12c 0000 0000
00000090: 0000 0000 0000 0000 386c 8d3b 8ecc 6a3d
000000a0: 4305 b13c 9d97 263b ba7a ba37 1eb6 bc3c
000000b0: 9b1a 723d 0000 0000 f8c7 723c 446e 0c3d
000000c0: 828e a535 e6d9 a43e a407 523c c054 ad3d
000000d0: 7d23 063e 26c3 173a 0000 0000 0552 8e3b
000000e0: 0000 0000 60ad 403e 2bec b03d 6eef 013d
000000f0: cfa3 dc3e 0000 0000 0000 0000 51f6 db33
0.0 0.18317233 0.089094654 0.0938414 0.4519753 0.2200824 0.016039917 0.0019626098
0.0 0.04137083 0.0 0.01752147 0.0 0.34302753 0.026076805 0.5555973
0.12779918 0.0 0.13031119 0.1141384 0.14325163 0.43330482 0.2506979 0.0
1.3798785e-07 0.6446486 0.11727363 0.009579017 0.0 0.0 3.87636e-05 0.0
0.0 0.046465233 6.4069457e-12 0.0 0.0 0.0 0.004315879 0.057323985
0.021608954 0.0025419958 2.2230077e-05 0.023036059 0.059107404 0.0 0.014818184 0.034284845
1.2334933e-06 0.32197493 0.0128192045 0.084634304 0.13099475 0.0005789272 0.0 0.0043432736
0.0 0.18816137 0.086387955 0.03172248 0.43093726 0.0 0.0 1.0242787e-07

exp_avg f4 [64, 64]
00000000: 0000 0000 0000 0000 0000 0000 0000 0000
00000010: 0000 0000 0000 0000 0000 0000 0000 0000
00000020: 0000 0000 0000 0000 0000 0000 0000 0000
00000030: 0000 0000 0000 0000 0000 0000 0000 0000
00000040: 0000 0000 0000 0000 0000 0000 0000 0000
00000050: 0000 0000 0000 0000 0000 0000 0000 0000
00000060: 0000 0000 0000 0000 0000 0000 0000 0000
00000070: 0000 0000 0000 0000 0000 0000 0000 0000
00000080: 0000 0000 0000 0000 0000 0000 0000 0000
00000090: 0000 0000 0000 0000 0000 0000 0000 0000
000000a0: 0000 0000 0000 0000 0000 0000 0000 0000
000000b0: 0000 0000 0000 0000 0000 0000 0000 0000
000000c0: 0000 0000 0000 0000 0000 0000 0000 0000
000000d0: 0000 0000 0000 0000 0000 0000 0000 0000
000000e0: 0000 0000 0000 0000 0000 0000 0000 0000
000000f0: 0000 0000 0000 0000 0000 0000 0000 0000
00000100: 0000 0000 a6ce 9034 0000 0000 0000 0000
00000110: d4b8 9e33 7a4e de33 9a02 b132 0000 0000
00000120: 0000 0000 0000 0000 0000 0000 8e75 9734
00000130: 0000 0000 21bc 7734 6cca 0434 0000 0000
00000140: 0000 0000 0000 0000 0000 0000 d7c8 c134
00000150: e5c2 0435 d981 4c34 f009 ae32 0000 0000
00000160: 0000 0000 28f6 b533 c5d6 7633 0000 0000
00000170: 0000 0000 0000 0000 0000 0000 0000 0000
00000180: 0000 0000 b543 9832 0000 0000 0000 0000
00000190: 0000 0000 0000 0000 0000 0000 692b 6b33
000001a0: 0fd9 c633 0000 0000 0000 0000 2db4 9733
000001b0: f351 2034 0000 0000 0000 0000 0000 0000
000001c0: 0000 0000 35ab b034 0000 0000 0000 0000
000001d0: e1e6 b934 7477 4133 0000 0000 0000 0000
000001e0: 0000 0000 93d5 ab33 ac6c 3e34 0000 0000
000001f0: 7fc2 9b34 0000 0000 0000 0000 0000 0000
00000200: 0000 0000 b7de ac32 a465 1a33 0000 0000
00000210: 3971 ca33 1de7 7231 069b ec33 0000 0000
00000220: 0000 0000 8551 b833 0000 0000 9a30 2a34
00000230: 0000 0000 7774 1634 904a 8932 4bb8 9333
00000240: 929f 5533 0000 0000 d7c4 ab31 b4bf b933
00000250: 0c69 ec33 1900 de32 2376 b733 0000 0000
00000260: 0000 0000 06e4 ab33 48ad e733 a92d 7631
00000270: 0000 0000 0000 0000 0000 0000 0000 0000
00000280: 0000 0000 6e9e 8d33 0000 0000 0000 0000
00000290: 0000 0000 0000 0000 0000 0000 ce63 2b33
000002a0: e36e bd33 0000 0000 0000 0000 e744 b333
000002b0: b759 1534 0000 0000 0000 0000 5021 6a32
000002c0: 0000 0000 4417 6633 0000 0000 b945 6e32
000002d0: 705e a133 a296 c232 0000 0000 0000 0000
000002e0: 0000 0000 9918 0134 a52a 8c32 0000 0000
000002f0: e945 7433 0000 0000 0000 0000 0000 0000
00000300: 0000 0000 7968 5c41 82e8 a3bf 1df1 4941
00000310: 63b9 0cb4 58fa 8441 7832 e336 e0f6 4340
00000320: 0000 0000 bb0a 57b3 0000 0000 8e64 1241
00000330: 0000 0000 93af 6740 234d 0441 fd2a 8e34
00000340: b557 aeb3 0000 0000 f058 feb1 8896 7f41
00000350: cb50 f240 70ce 9541 d5e3 8140 0000 0000
00000360: 6ba4 a52c ebb8 30b5 55d4 cc36 c743 b6b1
00000370: 0000 0000 0000 0000 b313 1735 0000 0000
00000380: 0000 0000 603f 4740 05d3 27b6 0000 0000
00000390: 0000 0000 0000 0000 a30e 0cc0 3db3 c4bc
000003a0: 9a96 90b4 c3a5 ff40 d08b a734 5f52 3cb4
000003b0: ef63 4240 0000 0000 432e 2241 b351 b1b2
000003c0: 3c7a 6e3c 0ac7 d2bc ef56 1ac0 fa7c b4b2
000003d0: 3767 6141 88c0 ef33 0000 0000 2873 8cbf
000003e0: 0000 0000 39a5 38bf 164b b1bb 77ef a740
000003f0: 0af3 0e41 0000 0000 0000 0000 39ed 59b6
0.0 0.0 0.0 0.0 0.0 0.0 0.0 0.0
0.0 0.0 0.0 0.0 0.0 0.0 0.0 0.0
0.0 0.0 0.0 0.0 0.0 0.0 0.0 0.0
0.0 0.0 0.0 0.0 0.0 0.0 0.0 0.0
0.0 0.0 0.0 0.0 0.0 0.0 0.0 0.0
0.0 0.0 0.0 0.0 0.0 0.0 0.0 0.0
0.0 0.0 0.0 0.0 0.0 0.0 0.0 0.0
0.0 0.0 0.0 0.0 0.0 0.0 0.0 0.0
0.0 2.6972447e-07 0.0 0.0 7.3910684e-08 1.03519554e-07 2.0606695e-08 0.0
0.0 0.0 0.0 2.8211474e-07 0.0 2.3072108e-07 1.2367099e-07 0.0
0.0 0.0 0.0 3.6095182e-07 4.945744e-07 1.9046219e-07 2.0260785e-08 0.0
0.0 8.473245e-08 5.747167e-08 0.0 0.0 0.0 0.0 0.0
0.0 1.7725919e-08 0.0 0.0 0.0 0.0 0.0 5.4754683e-08
9.259576e-08 0.0 0.0 7.064259e-08 1.4930974e-07 0.0 0.0 0.0
0.0 3.2907124e-07 0.0 0.0 3.4626922e-07 4.5044956e-08 0.0 0.0
0.0 8.001657e-08 1.7734664e-07 0.0 2.9012514e-07 0.0 0.0 0.0
0.0 2.0124714e-08 3.594836e-08 0.0 9.426953e-08 3.5347008e-09 1.1017805e-07 0.0
0.0 8.582996e-08 0.0 1.5850165e-07 0.0 1.4012208e-07 1.5982806e-08 6.8787436e-08
4.9738055e-08 0.0 4.999133e-09 8.6496044e-08 1.1008714e-07 2.5844246e-08 8.5430905e-08 0.0
0.0 8.004285e-08 1.07882954e-07 3.5823666e-09 0.0 0.0 0.0 0.0
0.0 6.594642e-08 0.0 0.0 0.0 0.0 0.0 3.9904812e-08
8.8211685e-08 0.0 0.0 8.34787e-08 1.3909344e-07 0.0 0.0 1.3628167e-08
0.0 5.3572208e-08 0.0 1.3869276e-08 7.514325e-08 2.2653072e-08 0.0 0.0
0.0 1.202301e-07 1.6317538e-08 0.0 5.687426e-08 0.0 0.0 0.0
0.0 13.775506 -1.2805331 12.621366 -1.310596e-07 16.622238 6.7710025e-06 3.061943
0.0 -5.0068348e-08 0.0 9.1495495 0.0 3.6200912 8.268832 2.648084e-07
-8.11846e-08 0.0 -7.402484e-09 15.974251 7.5723624 18.7258 4.0590615 0.0
4.707836e-12 -6.58342e-07 6.1043925e-06 -5.3046025e-09 0.0 0.0 5.628055e-07 0.0
0.0 3.113243 -2.5007769e-06 0.0 0.0 0.0 -2.1883934 -0.024011249
-2.6931667e-07 7.9889846 3.12079e-07 -1.7538831e-07 3.0373495 0.0 10.136294 -2.0642664e-08
0.01455551 -0.025729675 -2.411556 -2.101159e-08 14.087699 1.1164326e-07 0.0 -1.0972643
0.0 -0.7212711 -0.0054105623 5.2479815 8.934336 0.0 0.0 -3.2473602e-06

exp_avg_sq f4 [64, 64]
00000000: 0000 0000 0000 0000 0000 0000 0000 0000
00000010: 0000 0000 0000 0000 0000 0000 0000 0000
00000020: 0000 0000 0000 0000 0000 0000 0000 0000
00000030: 0000 0000 0000 0000 0000 0000 0000 0000
00000040: 0000 0000 0000 0000 0000 0000 0000 0000
00000050: 0000 0000 0000 0000 0000 0000 0000 0000
00000060: 0000 0000 0000 0000 0000 0000 0000 0000
00000070: 0000 0000 0000 0000 0000 0000 0000 0000
00000080: 0000 0000 0000 0000 0000 0000 0000 0000
00000090: 0000 0000 0000 0000 0000 0000 0000 0000
000000a0: 0000 0000 0000 0000 0000 0000 0000 0000
000000b0: 0000 0000 0000 0000 0000 0000 0000 0000
000000c0: 0000 0000 0000 0000 0000 0000 0000 0000
000000d0: 0000 0000 0000 0000 0000 0000 0000 0000
000000e0: 0000 0000 0000 0000 0000 0000 0000 0000
000000f0: 0000 0000 0000 0000 0000 0000 0000 0000
00000100: 0000 0000 eeee 603e 0000 0000 0000 0000
00000110: a21e 873c 0688 043d 050d a83a 0000 0000
00000120: 0000 0000 0000 0000 0000 0000 ed12 763e
00000130: 0000 0000 9695 243e c326 3d3d 0000 0000
00000140: 0000 0000 0000 0000 0000 0000 1a69 c93e
00000150: 4911 3d3f 0351 e03d c574 a23a 0000 0000
00000160: 0000 0000 6995 b13c 6565 233c 0000 0000
00000170: 0000 0000 0000 0000 0000 0000 0000 0000
00000180: 0000 0000 78b2 783a 0000 0000 0000 0000
00000190: 0000 0000 0000 0000 0000 0000 db4f 143c
000001a0: c412 d43c 0000 0000 0000 0000 86de 763c
000001b0: afda 893d 0000 0000 0000 0000 0000 0000
000001c0: 0000 0000 2f67 a73e 0000 0000 0000 0000
000001d0: a75b b93e 0ec0 c83b 0000 0000 0000 0000
000001e0: 0000 0000 d35d 9e3c 877c c23d 0000 0000
000001f0: 871f 823e 0000 0000 0000 0000 0000 0000
00000200: 0000 0000 2df0 5046 7633 0047 0000 0000
00000210: ca37 6a48 b3ce 4344 ef9f a048 0000 0000
00000220: 0000 0000 4f32 4148 0000 0000 d105 2849
00000230: 0000 0000 7ce6 0249 295c 0846 e6fa f547
00000240: 8d8b 7c47 0000 0000 2bb0 ff43 b854 5448
00000250: 089e aa48 8569 a546 df81 3f48 0000 0000
00000260: 0000 0000 45df 2748 66ef 9948 794c 8343
00000270: 0000 0000 0000 0000 0000 0000 0000 0000
00000280: 0000 0000 bed3 e147 0000 0000 0000 0000
00000290: 0000 0000 0000 0000 0000 0000 0464 2047
000002a0: cba2 4c48 0000 0000 0000 0000 28ea 3648
000002b0: 5ae7 0049 0000 0000 0000 0000 90ac 7d45
000002c0: 0000 0000 1be2 a647 0000 0000 ad6e 8345
000002d0: 642a 2148 4b35 8146 0000 0000 0000 0000
000002e0: 0000 0000 c3d4 bf48 21d0 0d46 0000 0000
000002f0: d227 bb47 0000 0000 0000 0000 0000 0000
00000300: 0000 0000 5680 e547 9cec 8c47 0627 4146
00000310: c224 fe48 a11e 4a47 fd46 2e49 72c7 2544
00000320: 0000 0000 fbad d148 0000 0000 04f0 b649
00000330: 0000 0000 a703 9149 e5b5 1d47 a291 8548
00000340: 6d42 0948 0000 0000 3c28 8c44 eb5a f648
00000350: 21e6 3c49 8a50 0548 ad8a d048 0000 0000
00000360: 5d0f bc31 b137 b648 ac09 2749 dbf1 0f44
00000370: 0000 0000 0000 0000 15a0 fb3f 0000 0000
00000380: 0000 0000 04f4 7848 2a3d 1931 0000 0000
00000390: 0000 0000 0000 0000 24eb d144 8978 ae47
000003a0: 0613 de48 8d5c 0b46 66b6 d740 1484 c648
000003b0: b4e5 8b49 0000 0000 bf31 0546 f3f2 0a46
000003c0: d84f 953a 0142 3548 18e9 0344 33fb 0f46
000003d0: 2d0d d148 c9cc 0a47 0000 0000 f3e6 1b42
000003e0: 0000 0000 5c2e 5049 d9db 9b46 a452 c344
000003f0: 03bf 7348 0000 0000 0000 0000 19ef bd34
0.0 0.0 0.0 0.0 0.0 0.0 0.0 0.0
0.0 0.0 0.0 0.0 0.0 0.0 0.0 0.0
0.0 0.0 0.0 0.0 0.0 0.0 0.0 0.0
0.0 0.0 0.0 0.0 0.0 0.0 0.0 0.0
0.0 0.0 0.0 0.0 0.0 0.0 0.0 0.0
0.0 0.0 0.0 0.0 0.0 0.0 0.0 0.0
0.0 0.0 0.0 0.0 0.0 0.0 0.0 0.0
0.0 0.0 0.0 0.0 0.0 0.0 0.0 0.0
0.0 0.21966144 0.0 0.0 0.016494099 0.032356285 0.0012821263 0.0
0.0 0.0 0.0 0.24030657 0.0 0.16072688 0.046179544 0.0
0.0 0.0 0.0 0.39338 0.738545 0.10952952 0.0012394419 0.0
0.0 0.02167769 0.009972905 0.0 0.0 0.0 0.0 0.0
0.0 0.0009487043 0.0 0.0 0.0 0.0 0.0 0.009052242
0.025887854 0.0 0.0 0.015067702 0.06731164 0.0 0.0 0.0
0.0 0.3269591 0.0 0.0 0.36202738 0.0061264103 0.0 0.0
0.0 0.019331848 0.09496408 0.0 0.25414678 0.0 0.0 0.0
0.0 13372.044 32819.46 0.0 239839.16 783.2297 328959.47 0.0
0.0 197833.23 0.0 688221.06 0.0 536167.75 8727.04 125941.8
64651.55 0.0 511.3763 217426.88 349424.25 21172.76 196103.48 0.0
0.0 171901.08 315259.2 262.59744 0.0 0.0 0.0 0.0
0.0 115623.484 0.0 0.0 0.0 0.0 0.0 41060.016
209547.17 0.0 0.0 187304.62 527989.6 0.0 0.0 4058.7852
0.0 85444.21 0.0 4205.8345 165033.56 16538.646 0.0 0.0
0.0 392870.1 9076.032 0.0 95823.64 0.0 0.0 0.0
0.0 117504.67 72153.22 12361.756 520486.06 51742.63 713839.8 663.11633
0.0 429423.84 0.0 1.4986245e+06 0.0 1.1879569e+06 40373.895 273549.06
140553.7 0.0 1121.2573 504535.34 773730.06 136514.16 427093.4 0.0
5.4732667e-09 373181.53 684186.75 575.779 0.0 0.0 1.9658228 0.0
0.0 254928.06 2.2299198e-09 0.0 0.0 0.0 1679.3481 89329.07
454808.2 8919.138 6.7410154 406560.62 1.1460385e+06 0.0 8524.437 8892.737
0.0011391593 185608.02 527.6421 9214.8 428137.4 35532.785 0.0 38.975536
0.0 852709.75 19949.924 1562.5825 249596.05 0.0 0.0 3.537796e-07

exp_avg f4 [64]
00000000: 0000 0000 cd8e 3730 0807 372f bce1 743c
00000010: 373a 1137 435b 1938 ff10 b22d fac6 9f2d
00000020: 0000 0000 53fc 1030 c093 a22d bf4e e72e
00000030: c5a1 0bbd 2f61 172e d026 383c 0000 0000
00000040: 0d31 0f2f 89e8 b52d 9ce1 952f 7a7d 022f
00000050: 0000 0000 0000 0000 213e 2d2e 0000 0000
00000060: 0000 0000 7556 443d c0e2 fc31 bec2 e6bc
00000070: d250 7936 0000 0000 6d02 832f 8321 eb2e
00000080: 0000 0000 011b 373b fde6 cebc 0000 0000
00000090: 0450 043d 5cff 05bd c908 bc3b 8f43 a9bd
000000a0: 341f 843d e459 4b2f cc27 832f 0bcb de36
000000b0: 0cee 1b2f 0000 0000 ea1a 9e3d 96bf 802f
000000c0: 0000 0000 b325 253c 22c4 c52e 956d 342e
000000d0: 3d6f c42e 528d 5c2f 98f1 8b2f e462 263e
000000e0: f413 4a3d d76a 9abb 91ed ba3c 0e33 ff3c
000000f0: eeea 912f c37b 472f 0000 0000 daca aa3a
0.0 6.6777944e-10 1.6646251e-10 0.014946397 8.656228e-06 3.6563037e-05 2.0243805e-11 1.816457e-11
0.0 5.274547e-10 1.8482882e-11 1.0518652e-10 -0.034089822 3.441974e-11 0.011239722 0.0
1.30232e-10 2.0680584e-11 2.7263247e-10 1.186801e-10 0.0 0.0 3.9390827e-11 0.0
0.0 0.047934014 7.3599438e-09 -0.028169032 3.7150935e-06 0.0 2.3830485e-10 1.06925156e-10
0.0 0.002793968 -0.025256628 0.0 0.03230287 -0.032714233 0.005738352 -0.08264839
0.06451264 1.8494678e-10 2.3857039e-10 6.639753e-06 1.4181739e-10 0.0 0.07719977 2.3419194e-10
0.0 0.010079789 8.993363e-11 4.102459e-11 8.932808e-11 2.005909e-10 2.5455615e-10 0.16248661
0.049335435 -0.0047124433 0.022818359 0.031152274 2.6542274e-10 1.8142914e-10 0.0 0.0013030425

exp_avg_sq f4 [64]
00000000: 0000 0000 87b6 b435 5eb1 463f c66d e03f
00000010: b755 9c35 49d0 1d35 e777 923b 55aa 0339
00000020: 0000 0000 5e63 f034 bf88 203b ab8b ca38
00000030: f11e 0f40 c972 933c f1b7 883f 0000 0000
00000040: ceb7 bb3e f761 0f3c 6dad c23f de28 7e3e
00000050: 0000 0000 0000 0000 1f0c 023d 0000 0000
00000060: 0000 0000 1836 443e e984 013a d3a9 853f
00000070: c14b a736 0000 0000 54bd 943f 172b d13e
00000080: 0000 0000 860b 3f39 f43b 6b3f 0000 0000
00000090: b953 e83e 39a6 4a3b 809c e83c 6f10 333a
000000a0: 6382 ac3c d370 2c3f 3c12 953f b48f ac35
000000b0: 5560 b83e 0000 0000 4c73 b73e 51a6 8f3f
000000c0: 0000 0000 200b 123f a9a0 9c3e 9cb9 323d
000000d0: 0124 193e 93c5 523f 138e 8e3f 59a1 0c40
000000e0: a7f8 183d a216 143f 4c48 613c ccf1 743e
000000f0: 6c84 b83f 58de 2f3f 0000 0000 f896 eb3b
0.0 1.3464168e-06 0.7761439 1.75335 1.1647852e-06 5.879015e-07 0.00446986 0.00012556587
0.0 4.4775783e-07 0.002449557 9.658126e-05 2.2362635 0.01799907 1.0681134 0.0
0.3666367 0.008751384 1.5209175 0.24820277 0.0 0.0 0.03174984 0.0
0.0 0.1916126 0.00049407646 1.0442451 4.9858068e-06 0.0 1.1620278 0.40853187
0.0 0.00018219472 0.91888356 0.0 0.45376375 0.003092183 0.028394938 0.0006830757
0.021058267 0.67359656 1.164619 1.2856822e-06 0.36010996 0.0 0.35830152 1.1222631
0.0 0.57048225 0.30591324 0.043634042 0.1495514 0.82332724 1.1137108 2.1973479
0.03734651 0.57847035 0.013750147 0.23920363 1.4415412 0.68698645 0.0 0.0071896277

exp_avg f4 [2, 64]
00000000: 0000 0000 0000 0000 f477 d134 e7e7 d434
00000010: 0000 0000 0000 0000 0000 0000 0000 0000
00000020: 0000 0000 0000 0000 0000 0000 0000 0000
00000030: aafb 8733 2f62 e134 352a 5d34 0000 0000
00000040: 8009 2535 78c2 cb33 e24d 0c34 cbea 0435
00000050: 0000 0000 0000 0000 a3a7 a732 0000 0000
00000060: 0000 0000 c578 be34 0000 0000 0000 0000
00000070: 0000 0000 0000 0000 4d31 8734 38ad 0235
00000080: 0000 0000 0000 0000 c225 0d34 0000 0000
00000090: 0000 0000 0000 0000 0000 0000 0000 0000
000000a0: 0000 0000 daf2 5635 9c34 cd34 0000 0000
000000b0: 715a 5135 0000 0000 7fb6 4535 f5c9 3c34
000000c0: 0000 0000 ee46 2334 96d3 e734 2f96 8134
000000d0: 6f0d 4b35 c72e a034 0200 9635 830c b134
000000e0: 0000 0000 0000 0000 0000 0000 0000 0000
000000f0: 5828 4e34 445a be34 0000 0000 0000 0000
00000100: 0000 0000 0465 43b0 d036 c031 8ab5 c4c3
00000110: 58c2 1438 53f0 5c39 f77d 84b1 c186 84ae
00000120: 0000 0000 2f8f 5733 1c53 4c30 3078 2cb1
00000130: 30fa 1b42 c10d 1e32 4180 10c1 0000 0000
00000140: 6adc d332 0000 0000 0000 0000 98d9 9332
00000150: 0000 0000 0000 0000 0000 0000 0000 0000
00000160: 0000 0000 2919 2bc4 4aec 94b8 7db0 9c43
00000170: 25f7 7037 0000 0000 0000 0000 ba94 8532
00000180: 0000 0000 c5ae 75c1 1278 2dc3 0000 0000
00000190: 0ba7 a8c3 3721 a242 af03 08c3 c2f1 203f
000001a0: 1ccc 3ec4 2440 e632 0000 0000 3132 bbb7
000001b0: 30ed d632 0000 0000 f9f1 0bc4 0000 0000
000001c0: 0000 0000 d43a 7943 e6d2 5232 eaf6 e82e
000001d0: 5992 2133 0000 0000 d5e3 2a33 11c9 55c4
000001e0: d018 94c1 77fb 9243 7a67 53c3 2568 84c3
000001f0: 0000 0000 bcfb ef31 0000 0000 52b4 d9c0
0.0 0.0 3.901656e-07 3.9656808e-07 0.0 0.0 0.0 0.0
0.0 0.0 0.0 0.0 6.332205e-08 4.1980954e-07 2.0597584e-07 0.0
6.1481114e-07 9.488298e-08 1.306685e-07 4.95155e-07 0.0 0.0 1.9517591e-08 0.0
0.0 3.547813e-07 0.0 0.0 0.0 0.0 2.518158e-07 4.868084e-07
0.0 0.0 1.3145385e-07 0.0 0.0 0.0 0.0 0.0
0.0 8.007461e-07 3.8222504e-07 0.0 7.7990177e-07 0.0 7.3653786e-07 1.7582336e-07
0.0 1.5206362e-07 4.3181052e-07 2.4137395e-07 7.564294e-07 2.9836357e-07 1.1175873e-06 3.2977923e-07
0.0 0.0 0.0 0.0 1.9199922e-07 3.5455935e-07 0.0 0.0
0.0 -7.108414e-10 5.594167e-09 -393.41827 3.5466946e-05 0.00021070363 -3.856026e-09 -6.026602e-11
0.0 5.0188813e-08 7.4332873e-10 -2.5097613e-09 38.994324 9.199938e-09 -9.031312 0.0
2.4663866e-08 0.0 0.0 1.7212002e-08 0.0 0.0 0.0 0.0
0.0 -684.3931 -7.101202e-05 313.3788 1.4362658e-05 0.0 0.0 1.555087e-08
0.0 -15.355168 -173.46902 0.0 -337.30502 81.06487 -136.01439 0.62868893
-763.1892 2.6804692e-08 0.0 -2.231551e-05 2.502074e-08 0.0 -559.7808 0.0
0.0 249.2298 1.22715615e-08 1.0593999e-10 3.7618836e-08 0.0 3.978842e-08 -855.14166
-18.512115 293.96457 -211.4042 -264.81363 0.0 6.9844344e-09 0.0 -6.8032618
