runs/ml-model-test-45/model.pt (torch, 9513 bytes, 18 tensors)

fc1.weight f4 [20, 4]
0	0xbe699c44	-0.22813517
1	0xbe647fb0	-0.22314334
2	0x3e401450	0.18757749
3	0xbedd578e	-0.4323086
4	0xbe382414	-0.17982513
5	0xbd2b19e0	-0.041772723
6	0x3e0d793c	0.13815778
7	0xbe150180	-0.14551353
8	0xbec02f3f	-0.37536046
9	0x3ef4786b	0.47748122
10	0x3efc5cc5	0.49289528
11	0x3ec06074	0.37573588
12	0x3ec5962a	0.3859113
13	0x3f04a810	0.51818943
14	0x3e30cd23	0.17265753
15	0xbef10fbd	-0.4708232
16	0x3ea1ec98	0.3162582
17	0xbe0e0996	-0.13870844
18	0xbe584ad4	-0.21122295
19	0xbe3080d4	-0.17236644
20	0xbeaa2dc4	-0.3323804
21	0xbeb4c8ee	-0.35309547
22	0xbe8b039e	-0.27151197
23	0x3b814580	0.0039450526
24	0x3ec0df16	0.376702
25	0x3de0599e	0.10954593
26	0x3ecf2521	0.40458015
27	0xbd82070b	-0.063489996
28	0xbe1e5904	-0.15463644
29	0x3db8ad18	0.0901739
30	0xbd518b40	-0.05115819
31	0x3e914c48	0.2837851
32	0xbed24c7e	-0.41073984
33	0x3e8a424c	0.27003706
34	0xbe9fc56a	-0.31205302
35	0xbecd3c4e	-0.4008507
36	0xbd9dc278	-0.077031076
37	0xbed2be43	-0.41160783
38	0x3dc6c263	0.09705045
39	0x3e0e4a05	0.13895424
40	0x3f059aae	0.5218915
41	0x3e76b94c	0.24094123
42	0xbe2979f2	-0.16550425
43	0xbdd0b846	-0.10191397
44	0x3ee63dc2	0.44968992
45	0xbeec4c50	-0.46151972
46	0xbefaab9a	-0.48959047
47	0xbe89657a	-0.26835233
48	0xbec8d2be	-0.39223284
49	0xbd211c30	-0.039333522
50	0xbe835fec	-0.2565912
51	0xbee4edee	-0.44712776
52	0x3ec196fc	0.37810504
53	0xbe999e3a	-0.3000353
54	0x3eec08fd	0.46100608
55	0xbeb2f2c7	-0.3495085
56	0x3ee38c32	0.44442898
57	0xbc1be578	-0.009515159
58	0x3cd45a6a	0.025922019
59	0xbed1a2f6	-0.40944642
60	0xbd6b3094	-0.057419375
61	0x3dffdab8	0.12492889
62	0x3efecef0	0.49767256
63	0xbe9142fb	-0.28371415
64	0xbeec2a54	-0.46126044
65	0xbe8966a6	-0.26836127
66	0xbdf76fb8	-0.120818555
67	0xbed1f07e	-0.41003793
68	0x3e31cbde	0.17362925
69	0xbe7da8ec	-0.2477147
70	0xbc9ab71d	-0.018886143
71	0x3d8953c4	0.0670543
72	0xbdaae5c0	-0.083446026
73	0x3ea260a0	0.31714344
74	0xbe9cad0a	-0.30600768
75	0xbe3cd630	-0.18441081
76	0xbed2b92e	-0.41156906
77	0x3edb5dae	0.4284491
78	0x3e76aa58	0.24088418
79	0xbee51590	-0.44743013

fc1.bias f4 [20]
0	0x3e893486	0.26797885
1	0x3d64d740	0.05586934
2	0xbe232f81	-0.1593609
3	0xbefa5222	-0.48890787
4	0x3d310991	0.043222014
5	0x3e0d225c	0.13782638
6	0x3dafdcab	0.08587011
7	0xbe11fd90	-0.14256883
8	0xbe8213fe	-0.25405878
9	0x3edb70d7	0.42859527
10	0xbe8b4c61	-0.2720671
11	0xbea6dae4	-0.32588875
12	0x3ee958de	0.45575613
13	0x3e5d8576	0.21632943
14	0xbe322dfb	-0.17400353
15	0x3ec65659	0.38737753
16	0x3e490c14	0.19633514
17	0x3ee24a34	0.44197237
18	0xbe2f3c3c	-0.17112821
19	0x3ec00554	0.37504065

fc2.weight f4 [8, 20]
0	0xbb1a840b	-0.002357724
1	0x3e43ece8	0.19133341
2	0x3db376ce	0.087628946
3	0xbe0ad927	-0.135594
4	0xbdf3f914	-0.11912742
5	0xbd52dceb	-0.051480215
6	0xbd624cae	-0.05524891
7	0x3d6d3e51	0.057920758
8	0xbe1bd0f2	-0.15216425
9	0x3df80bed	0.1211165
10	0x3e40e2ca	0.18836513
11	0x3d8c2095	0.06842152
12	0x3d028032	0.031860538
13	0x3e4d607d	0.20056339
14	0xbde7a801	-0.11311341
15	0x3dbb65a4	0.09150246
16	0x3e63540f	0.22200035
17	0x3d7a03eb	0.061038893
18	0x3d25161b	0.040304285
19	0x3dafe0a0	0.08587766
20	0xbe013992	-0.12619618
21	0xbe2f75f7	-0.17134844
22	0xbd8b03da	-0.06787844
23	0x3dbbe64c	0.09174785
24	0xbe574bc2	-0.21024993
25	0xbbf97b78	-0.0076135956
26	0x3e29cd17	0.16582142
27	0x3dc0f219	0.094211765
28	0x3bf4248f	0.007450647
29	0x3d4fc428	0.05072418
30	0xbd82a614	-0.06379333
31	0x3e0f2cb4	0.13981897
32	0xbe469d42	-0.19395927
33	0x3d8a4d24	0.06752995
34	0xbe434186	-0.19067964
35	0x3e15a26a	0.14612737
36	0x3cdd17b0	0.026988834
37	0x3e1be4ea	0.15224043
38	0x3e2a1338	0.16608894
39	0x3e0ffbd2	0.14060906
40	0xbca9797a	-0.020687807
41	0xbe2c92c3	-0.1685286
42	0xbd702853	-0.058632206
43	0xbdc78777	-0.09742635
44	0x3e0c174b	0.1368076
45	0x3d78c590	0.060735285
46	0x3db7df25	0.08978108
47	0x3e1f5d94	0.15563041
48	0xbe0d3cc2	-0.13792709
49	0xbe043d07	-0.12913905
50	0xbe464aa4	-0.1936441
51	0xbcc231ff	-0.02370548
52	0xbde4f018	-0.11178607
53	0xbe54787c	-0.20749086
54	0x3e5b9da7	0.21446858
55	0xbe528449	-0.20558275
56	0xbddc92b6	-0.107701704
57	0x3cd9f51b	0.026606133
58	0xbc2dadfa	-0.010600561
59	0xbd92e3b0	-0.07172334
60	0xbde016fb	-0.10941883
61	0x3e180a7e	0.14847752
62	0x3e07e00e	0.13269064
63	0xbdd7f340	-0.10544443
64	0xbe4e28a2	-0.20132688
65	0xbc4e2b5e	-0.012583582
66	0x3e391c94	0.18077308
67	0xbe275a3b	-0.16343014
68	0x3d38cc20	0.045116544
69	0x3e10b446	0.14131269
70	0xbd14fb32	-0.03637237
71	0x3df7bda1	0.12096716
72	0xbd8f8e7a	-0.07009597
73	0xbcdbd1bc	-0.026833408
74	0xbe286122	-0.16443303
75	0xb9124d1e	-0.00013952373
76	0xbe57e991	-0.21085192
77	0xbda3cae9	-0.079976864
78	0x3e411bd1	0.18858267
79	0x3dcb1287	0.09915643
80	0x3e3236ef	0.17403768
81	0x3db0b3cf	0.08628046
82	0x3b15a68d	0.0022834868
83	0xbe1d962d	-0.15389319
84	0x3e2e8131	0.1704147
85	0x3e6419dc	0.2227549
86	0x3dcd4874	0.10023585
87	0x3d97ba31	0.0740856
88	0xbdbb6558	-0.09150189
89	0x3e32e9b6	0.17471966
90	0x3e2109d6	0.15726408
91	0xbe6548e0	-0.22391081
92	0x3dcada7f	0.09904956
93	0x3e16f1a5	0.14740618
94	0x3d7a3473	0.061085176
95	0xbe7f7e58	-0.2495054
96	0x3d7213de	0.059100978
97	0xbdef2bc8	-0.116782725
98	0x3da084da	0.078378394
99	0x3e479864	0.19491726
100	0x3c80f7fe	0.015743252
101	0xbdb34de8	-0.08755094
102	0xbcec60d2	-0.028854761
103	0xbe0334d2	-0.12813118
104	0x3e685228	0.2268759
105	0x3db64abd	0.08900974
106	0x3d54e330	0.051974475
107	0x3d1c1e5c	0.03811489
108	0xbdd57faa	-0.104247406
109	0x3e4b489e	0.1985192
110	0x3e22eaf5	0.15909941
111	0xbd37d42d	-0.04488008
112	0x3e45abbf	0.19303797
113	0x3e6c0043	0.23046975
114	0x3e74d404	0.23909003
115	0xbcde5c52	-0.027143631
116	0x3e3b94e1	0.18318512
117	0x3c97b33b	0.018518081
118	0x3d9ea11e	0.077455744
119	0x3e3fe1b0	0.18738437
120	0xbe105964	-0.140966
121	0x3e176437	0.14784323
122	0x3e10089b	0.14065783
123	0xbde96240	-0.11395693
124	0x3a918f42	0.0011105316
125	0x3e629f29	0.22131027
126	0x3d052078	0.032501668
127	0xbcecd641	-0.028910758
128	0xbd8aec53	-0.067833565
129	0xbe398616	-0.18117556
130	0x3cf5d84a	0.030010361
131	0x3def8448	0.116951525
132	0xbdd38f66	-0.103300855
133	0x3e17f673	0.14840107
134	0x3d8bd40b	0.06827553
135	0xbe29fb32	-0.1659973
136	0xbde25990	-0.11052239
137	0xbdd5498c	-0.104144186
138	0x3e0df7f2	0.13864115
139	0xbe0e366a	-0.13887945
140	0xbdc5c856	-0.09657352
141	0xbcd7443b	-0.026277652
142	0x3e3515f5	0.17684157
143	0xbe30b4c6	-0.1725646
144	0xbe0fbb18	-0.14036214
145	0xbe3b2e69	-0.18279423
146	0x3dd40043	0.103516124
147	0xbc417216	-0.011806985
148	0xbddfdedb	-0.10931178
149	0xbda0d141	-0.07852412
150	0xbd01acd5	-0.031658966
151	0x3e34787a	0.17624083
152	0xbdbd6baa	-0.09249051
153	0xbe00aedb	-0.12566702
154	0xbe4dfe81	-0.20116617
155	0xbd19afde	-0.037521236
156	0xbe2be69f	-0.16787194
157	0x3cf6c336	0.03012238
158	0x3e00c575	0.12575324
159	0x3db45973	0.088061236

fc2.bias f4 [8]
0	0x3c10b8c6	0.008833116
1	0xba980469	-0.0011597994
2	0x3e5031cc	0.20331496
3	0x3b4295b9	0.0029691292
4	0xbdae9eb3	-0.08526363
5	0xbe39e97d	-0.18155475
6	0xbe4ed585	-0.20198639
7	0xbe2495d6	-0.16072783

fc3.weight f4 [2, 8]
0	0xbe1881b5	-0.1489323
1	0x3e53849b	0.20656054
2	0x3e6f8e63	0.2339416
3	0x3e946f40	0.28991127
4	0x3e2722a2	0.16321805
5	0xbdbce454	-0.09223238
6	0x3d91d563	0.071207784
7	0xbe959a24	-0.29219162
8	0x3ead6065	0.33862606
9	0xbe91ddb5	-0.28489462
10	0xbe746918	-0.23868215
11	0x3bf65d43	0.007518442
12	0xbe388b37	-0.18021856
13	0xbc389d50	-0.011267975
14	0xbe4d5aa7	-0.20054112
15	0xbe0b526c	-0.1360566

fc3.bias f4 [2]
0	0x3dbb5aec	0.09148201
1	0xbe4ad492	-0.19807652

exp_avg f4 [20, 4]
0	0x00000000	0.0
1	0x00000000	0.0
2	0x00000000	0.0
3	0x00000000	0.0
4	0x00000000	0.0
5	0x00000000	0.0
6	0x00000000	0.0
7	0x00000000	0.0
8	0xbdd9a25e	-0.10626672
9	0x3c4173e1	0.011807413
10	0xbdc173e1	-0.0944593
11	0x00000000	0.0
12	0x4510b1d0	2315.1133
13	0xc4b4a0e5	-1445.028
14	0x4459856e	870.08484
15	0x40033c71	2.050564
16	0x440d4de4	565.21704
17	0xc3b1acda	-355.3504
18	0x4351dddb	209.86662
19	0x3eeb7747	0.4598944
20	0x00000000	0.0
21	0x00000000	0.0
22	0x00000000	0.0
23	0x00000000	0.0
24	0x4611d72e	9333.795
25	0xc5b66b2a	-5837.3955
26	0x455a866a	3496.401
27	0x4103cc1d	8.237332
28	0x00000000	0.0
29	0x00000000	0.0
30	0x00000000	0.0
31	0x00000000	0.0
32	0x00000000	0.0
33	0x00000000	0.0
34	0x00000000	0.0
35	0x00000000	0.0
36	0xc42c8fdb	-690.24774
37	0x43d545b2	426.5445
38	0xc383da03	-263.70322
39	0xbf1a4afb	-0.6027066
40	0xc51cd4a0	-2509.289
41	0x44c39a4d	1564.8219
42	0xc46c1de3	-944.467
43	0xc00deb85	-2.2175
44	0x443c1ba5	752.43195
45	0xc3eda09d	-475.2548
46	0x438a96a4	277.17688
47	0x3f272619	0.6529251
48	0x00000000	0.0
49	0x00000000	0.0
50	0x00000000	0.0
51	0x00000000	0.0
52	0x450a0d27	2208.822
53	0xc4ad16fe	-1384.7185
54	0x444e06a9	824.10406
55	0x3ff7d1c7	1.9360894
56	0xc2fa88c9	-125.26716
57	0x42946c63	74.21169
58	0xc24c38b8	-51.05539
59	0xbe27f70e	-0.16402838
60	0xc53890a5	-2953.0403
61	0x44da12ff	1744.5936
62	0xc4970e4c	-1208.4468
63	0xc03734eb	-2.8626049
64	0x00000000	0.0
65	0x00000000	0.0
66	0x00000000	0.0
67	0x00000000	0.0
68	0xc3edd3da	-475.6551
69	0x43947a85	296.95718
70	0xc332b2b2	-178.69803
71	0xbed37f38	-0.41307998
72	0x00000000	0.0
73	0x00000000	0.0
74	0x00000000	0.0
75	0x00000000	0.0
76	0x00000000	0.0
77	0x00000000	0.0
78	0x00000000	0.0
79	0x00000000	0.0

exp_avg_sq f4 [20, 4]
0	0x00000000	0.0
1	0x00000000	0.0
2	0x00000000	0.0
3	0x00000000	0.0
4	0x00000000	0.0
5	0x00000000	0.0
6	0x00000000	0.0
7	0x00000000	0.0
8	0x3a55d1e3	0.0008156581
9	0x3728f1af	1.0069852e-05
10	0x3a28f1af	0.0006444705
11	0x00000000	0.0
12	0x4986e10b	1.1049294e+06
13	0x48d32c83	432484.1
14	0x48175dd5	154999.33
15	0x3f5c8937	0.86146873
16	0x48894ce0	281191.0
17	0x47d7cc87	110489.055
18	0x471a421a	39490.1
19	0x3e5f4839	0.21804895
20	0x00000000	0.0
21	0x00000000	0.0
22	0x00000000	0.0
23	0x00000000	0.0
24	0x4bc4e6e0	2.580832e+07
25	0x4b1bf9d4	1.0222036e+07
26	0x4a586f15	3.5460532e+06
27	0x419f94e9	19.94771
28	0x00000000	0.0
29	0x00000000	0.0
30	0x00000000	0.0
31	0x00000000	0.0
32	0x00000000	0.0
33	0x00000000	0.0
34	0x00000000	0.0
35	0x00000000	0.0
36	0x493ef349	782132.56
37	0x48992d10	313704.5
38	0x47cd9e55	105276.664
39	0x3f1d91f7	0.6155085
40	0x48bfb0da	392582.8
41	0x48174617	154904.36
42	0x4754247a	54308.477
43	0x3e993fad	0.29931393
44	0x499f9bb1	1.3075101e+06
45	0x48ff4a08	522832.25
46	0x482ca69b	176794.42
47	0x3f812ba7	1.0091447
48	0x00000000	0.0
49	0x00000000	0.0
50	0x00000000	0.0
51	0x00000000	0.0
52	0x4a3c946b	3.0896908e+06
53	0x4994ba46	1.2183768e+06
54	0x48d0d93a	427721.8
55	0x4018f0ca	2.3896966
56	0x47da5bea	111799.83
57	0x472d8b1d	44427.113
58	0x4671ce03	15475.503
59	0x3db871d2	0.090060845
60	0x491960b8	628235.5
61	0x4848ffba	205822.9
62	0x47e0e76d	115150.85
63	0x3f239f84	0.63915277
64	0x00000000	0.0
65	0x00000000	0.0
66	0x00000000	0.0
67	0x00000000	0.0
68	0x46eb2470	30098.219
69	0x46348e7d	11555.622
70	0x4589ae11	4405.7583
71	0x3ccac9db	0.024754455
72	0x00000000	0.0
73	0x00000000	0.0
74	0x00000000	0.0
75	0x00000000	0.0
76	0x00000000	0.0
77	0x00000000	0.0
78	0x00000000	0.0
79	0x00000000	0.0

exp_avg f4 [20]
0	0x00000000	0.0
1	0x00000000	0.0
2	0xb9779e91	-0.00023614826
3	0x400b36ac	2.175212
4	0x3f06508c	0.52466655
5	0x00000000	0.0
6	0x410bdb26	8.741003
7	0x00000000	0.0
8	0x00000000	0.0
9	0xbf28c524	-0.6592581
10	0xc0171d5d	-2.3611672
11	0x3f3164a9	0.6929422
12	0x00000000	0.0
13	0x4003db4d	2.06026
14	0xbe02b3a9	-0.12763847
15	0xc04159fd	-3.0211174
16	0x00000000	0.0
17	0xbee4bbc5	-0.44674507
18	0x00000000	0.0
19	0x00000000	0.0

exp_avg_sq f4 [20]
0	0x00000000	0.0
1	0x00000000	0.0
2	0x318a6624	4.0279406e-09
3	0x3f77ffb8	0.9687457
4	0x3e7cbc94	0.24681312
5	0x00000000	0.0
6	0x41b14d7b	22.162832
7	0x00000000	0.0
8	0x00000000	0.0
9	0x3f287154	0.65797925
10	0x3eadc97e	0.3394279
11	0x3f8d6f7e	1.104965
12	0x00000000	0.0
13	0x402b16b8	2.6732616
14	0x3dc6161c	0.09672186
15	0x3f383dca	0.7196928
16	0x00000000	0.0
17	0x3ce19322	0.027535979
18	0x00000000	0.0
19	0x00000000	0.0

exp_avg f4 [8, 20]
0	0x00000000	0.0
1	0x00000000	0.0
2	0xbc158ee2	-0.009128304
3	0xc565612b	-3670.073
4	0xc60443c3	-8464.94
5	0x00000000	0.0
6	0xc63b5e16	-11991.521
7	0x00000000	0.0
8	0x00000000	0.0
9	0xc5ab2799	-5476.9497
10	0xc5dc9569	-7058.6763
11	0xc65d68f0	-14170.234
12	0x00000000	0.0
13	0xc693e10a	-18928.52
14	0xc636311c	-11660.277
15	0xc45109c7	-836.1528
16	0x00000000	0.0
17	0xc5f8dc6e	-7963.5537
18	0x00000000	0.0
19	0x00000000	0.0
20	0x00000000	0.0
21	0x00000000	0.0
22	0x3c50cfc5	0.012744849
23	0x457dcca8	4060.791
24	0x46118108	9312.258
25	0x00000000	0.0
26	0x464e3308	13196.758
27	0x00000000	0.0
28	0x00000000	0.0
29	0x45bc2560	6020.672
30	0x45f15dd0	7723.7266
31	0x467354fa	15573.244
32	0x00000000	0.0
33	0x46a29956	20812.668
34	0x46483fb5	12815.927
35	0x44622579	904.5855
36	0x00000000	0.0
37	0x4608bc63	8751.097
38	0x00000000	0.0
39	0x00000000	0.0
40	0x00000000	0.0
41	0x00000000	0.0
42	0x00000000	0.0
43	0x00000000	0.0
44	0x00000000	0.0
45	0x00000000	0.0
46	0x00000000	0.0
47	0x00000000	0.0
48	0x00000000	0.0
49	0x00000000	0.0
50	0x00000000	0.0
51	0x00000000	0.0
52	0x00000000	0.0
53	0x00000000	0.0
54	0x00000000	0.0
55	0x00000000	0.0
56	0x00000000	0.0
57	0x00000000	0.0
58	0x00000000	0.0
59	0x00000000	0.0
60	0x00000000	0.0
61	0x00000000	0.0
62	0x00000000	0.0
63	0x4306b0f0	134.69116
64	0x4394de37	297.73605
65	0x00000000	0.0
66	0x43ccbfa7	409.49728
67	0x00000000	0.0
68	0x00000000	0.0
69	0x43466eb3	198.43242
70	0x434ad9cf	202.85081
71	0x43fb16fd	502.1796
72	0x00000000	0.0
73	0x4420f9c4	643.9026
74	0x43c27686	388.92596
75	0x40e1df61	7.058518
76	0x00000000	0.0
77	0x438a2ca7	276.34885
78	0x00000000	0.0
79	0x00000000	0.0
80	0x00000000	0.0
81	0x00000000	0.0
82	0x3c251903	0.010076764
83	0x45346e9b	2886.9128
84	0x45ce892d	6609.147
85	0x00000000	0.0
86	0x46126397	9368.897
87	0x00000000	0.0
88	0x00000000	0.0
89	0x45858223	4272.267
90	0x45ab2890	5477.0703
91	0x462ca7bc	11049.934
92	0x00000000	0.0
93	0x4666cfbb	14771.933
94	0x460e1d62	9095.346
95	0x442046e6	641.1078
96	0x00000000	0.0
97	0x45c20e46	6209.784
98	0x00000000	0.0
99	0x00000000	0.0
100	0x00000000	0.0
101	0x00000000	0.0
102	0xbbb90f79	-0.0056475964
103	0xc3e88c24	-465.09485
104	0xc4848173	-1060.0453
105	0x00000000	0.0
106	0xc4bdb70b	-1517.7201
107	0x00000000	0.0
108	0x00000000	0.0
109	0xc42b8998	-686.1499
110	0xc462cbf8	-907.187
111	0xc4ddc516	-1774.1589
112	0x00000000	0.0
113	0xc51576f6	-2391.435
114	0xc4b83510	-1473.6582
115	0xc2efdc0f	-119.9298
116	0x00000000	0.0
117	0xc47a9109	-1002.2662
118	0x00000000	0.0
119	0x00000000	0.0
120	0x00000000	0.0
121	0x00000000	0.0
122	0x3b90821e	0.0044100424
123	0x4510d746	2317.4546
124	0x45a6686c	5325.0527
125	0x00000000	0.0
126	0x45eb82c4	7536.3457
127	0x00000000	0.0
128	0x00000000	0.0
129	0x45572e9f	3442.9138
130	0x4589a77d	4404.936
131	0x460b2985	8906.38
132	0x00000000	0.0
133	0x4639c4d8	11889.211
134	0x45e4c878	7321.0586
135	0x43fe75b0	508.91943
136	0x00000000	0.0
137	0x459c4d8d	5001.694
138	0x00000000	0.0
139	0x00000000	0.0
140	0x00000000	0.0
141	0x00000000	0.0
142	0x00000000	0.0
143	0x00000000	0.0
144	0x00000000	0.0
145	0x00000000	0.0
146	0x00000000	0.0
147	0x00000000	0.0
148	0x00000000	0.0
149	0x00000000	0.0
150	0x00000000	0.0
151	0x00000000	0.0
152	0x00000000	0.0
153	0x00000000	0.0
154	0x00000000	0.0
155	0x00000000	0.0
156	0x00000000	0.0
157	0x00000000	0.0
158	0x00000000	0.0
159	0x00000000	0.0

exp_avg_sq f4 [8, 20]
0	0x00000000	0.0
1	0x00000000	0.0
2	0x36d01970	6.2018444e-06
3	0x4a3b53d4	3.069173e+06
4	0x4b568d01	1.4060801e+07
5	0x00000000	0.0
6	0x4bd4437b	2.7821814e+07
7	0x00000000	0.0
8	0x00000000	0.0
9	0x4ab317ac	5.868502e+06
10	0x4ae93112	7.641225e+06
11	0x4c131008	3.8551584e+07
12	0x00000000	0.0
13	0x4c8158c8	6.781498e+07
14	0x4bc0f2cf	2.5290142e+07
15	0x473d90df	48528.87
16	0x00000000	0.0
17	0x4b37d7fc	1.204838e+07
18	0x00000000	0.0
19	0x00000000	0.0
20	0x00000000	0.0
21	0x00000000	0.0
22	0x374a8be1	1.2072706e-05
23	0x4a871663	4.4265455e+06
24	0x4b988328	1.9990096e+07
25	0x00000000	0.0
26	0x4c174f5c	3.966501e+07
27	0x00000000	0.0
28	0x00000000	0.0
29	0x4aff1f30	8.359832e+06
30	0x4b23f100	1.0744064e+07
31	0x4c50ee9b	5.4770284e+07
32	0x00000000	0.0
33	0x4cb8031e	9.647538e+07
34	0x4c090016	3.5913816e+07
35	0x477f3fdb	65343.855
36	0x00000000	0.0
37	0x4b82baa9	1.713493e+07
38	0x00000000	0.0
39	0x00000000	0.0
40	0x00000000	0.0
41	0x00000000	0.0
42	0x00000000	0.0
43	0x00000000	0.0
44	0x00000000	0.0
45	0x00000000	0.0
46	0x00000000	0.0
47	0x00000000	0.0
48	0x00000000	0.0
49	0x00000000	0.0
50	0x00000000	0.0
51	0x00000000	0.0
52	0x00000000	0.0
53	0x00000000	0.0
54	0x00000000	0.0
55	0x00000000	0.0
56	0x00000000	0.0
57	0x00000000	0.0
58	0x00000000	0.0
59	0x00000000	0.0
60	0x00000000	0.0
61	0x00000000	0.0
62	0x00000000	0.0
63	0x48bc4781	385596.03
64	0x49ccefa3	1.6788364e+06
65	0x00000000	0.0
66	0x4a4ac2e7	3.3220418e+06
67	0x00000000	0.0
68	0x00000000	0.0
69	0x4936dac2	748972.1
70	0x49425120	795922.0
71	0x4a911f39	4.7553565e+06
72	0x00000000	0.0
73	0x4af66cc6	8.074851e+06
74	0x4a3243ca	2.9206905e+06
75	0x44ea1bcf	1872.869
76	0x00000000	0.0
77	0x49b13a42	1.4518482e+06
78	0x00000000	0.0
79	0x00000000	0.0
80	0x00000000	0.0
81	0x00000000	0.0
82	0x36fd3459	7.5460816e-06
83	0x4a0c9c64	2.303769e+06
84	0x4b1e344d	1.0368077e+07
85	0x00000000	0.0
86	0x4b9d18a0	2.0590912e+07
87	0x00000000	0.0
88	0x00000000	0.0
89	0x4a845c17	4.3371635e+06
90	0x4aa9c950	5.56356e+06
91	0x4bd8ae02	2.8400644e+07
92	0x00000000	0.0
93	0x4c3ef2cf	5.0055996e+07
94	0x4b8e1d7c	1.862732e+07
95	0x4703abe4	33707.89
96	0x00000000	0.0
97	0x4b079f6a	8.88817e+06
98	0x00000000	0.0
99	0x00000000	0.0
100	0x00000000	0.0
101	0x00000000	0.0
102	0x361f5873	2.374433e-06
103	0x46c6ef9e	25463.809
104	0x47e41317	116774.18
105	0x00000000	0.0
106	0x48659ef4	235131.81
107	0x00000000	0.0
108	0x00000000	0.0
109	0x473b84c6	48004.773
110	0x4786d820	69040.25
111	0x489b9c48	318690.25
112	0x00000000	0.0
113	0x490bd19b	572697.7
114	0x4851f70f	215004.23
115	0x4428bfc1	674.99615
116	0x00000000	0.0
117	0x47c3dfbc	100287.47
118	0x00000000	0.0
119	0x00000000	0.0
120	0x00000000	0.0
121	0x00000000	0.0
122	0x35c1dc17	1.4443675e-06
123	0x49b9bfde	1.5216598e+06
124	0x4ad21e20	6.885136e+06
125	0x00000000	0.0
126	0x4b501f58	1.3639512e+07
127	0x00000000	0.0
128	0x00000000	0.0
129	0x4a2fefce	2.8825475e+06
130	0x4a60c371	3.6825242e+06
131	0x4b9002da	1.8875828e+07
132	0x00000000	0.0
133	0x4bfd32e4	3.3187272e+07
134	0x4b3c7273	1.2350067e+07
135	0x46a8c690	21603.281
136	0x00000000	0.0
137	0x4ab416b2	5.901145e+06
138	0x00000000	0.0
139	0x00000000	0.0
140	0x00000000	0.0
141	0x00000000	0.0
142	0x00000000	0.0
143	0x00000000	0.0
144	0x00000000	0.0
145	0x00000000	0.0
146	0x00000000	0.0
147	0x00000000	0.0
148	0x00000000	0.0
149	0x00000000	0.0
150	0x00000000	0.0
151	0x00000000	0.0
152	0x00000000	0.0
153	0x00000000	0.0
154	0x00000000	0.0
155	0x00000000	0.0
156	0x00000000	0.0
157	0x00000000	0.0
158	0x00000000	0.0
159	0x00000000	0.0

exp_avg f4 [8]
0	0xc1bc83d3	-23.564367
1	0x41cf33df	25.900328
2	0x00000000	0.0
3	0x3f3bbb20	0.73332405
4	0x419317c4	18.386604
5	0xc0416a1b	-3.0221012
6	0x416c4d10	14.768814
7	0x00000000	0.0

exp_avg_sq f4 [8]
0	0x42c5ca0d	98.89463
1	0x430ca27f	140.63475
2	0x00000000	0.0
3	0x412fe3dc	10.99313
4	0x4291ff54	72.99869
5	0x3f5ec072	0.870124
6	0x4240e6a5	48.22524
7	0x00000000	0.0

exp_avg f4 [2, 8]
0	0x45c0e62f	6172.773
1	0x45f2cbe3	7769.486
2	0x00000000	0.0
3	0x41a85f54	21.046547
4	0x460c9a62	8998.596
5	0x46a31d32	20878.598
6	0x46114f6b	9299.8545
7	0x00000000	0.0
8	0xc5c57750	-6318.914
9	0xc5f6f50d	-7902.6313
10	0x00000000	0.0
11	0xc1afc4bb	-21.97106
12	0xc60f6b2e	-9178.795
13	0xc6a6928f	-21321.28
14	0xc614a4ad	-9513.169
15	0x00000000	0.0

exp_avg_sq f4 [2, 8]
0	0x4a54e507	3.4880658e+06
1	0x4b96c931	1.976381e+07
2	0x00000000	0.0
3	0x465a67ba	13977.932
4	0x4bb6049e	2.3857468e+07
5	0x4c89ee1c	7.23151e+07
6	0x4bc35add	2.5605562e+07
7	0x00000000	0.0
8	0x4a5f9716	3.6633015e+06
9	0x4b9c3731	2.047549e+07
10	0x00000000	0.0
11	0x466ba739	15081.806
12	0x4bbd12df	2.478227e+07
13	0x4c8fba5b	7.535484e+07
14	0x4bcbe3b0	2.6724192e+07
15	0x00000000	0.0

exp_avg f4 [2]
0	0x424a7185	50.61086
1	0xc24c7a9e	-51.119743

exp_avg_sq f4 [2]
0	0x43faa01f	501.25095
1	0x43ffb743	511.43173
