runs/ml-model-test-106/model.pt (torch, 14505 bytes, 18 tensors)

fc1.weight f4 [21, 7]
0.32165527 0.093810104 -0.24630857 0.18199065 -0.16313535 0.109009676 -0.068499416 0.18288936
0.067298114 0.04374442 -0.03255689 0.12697007 0.20154688 -0.2877656 0.17467028 0.028667994
-0.13883112 0.3659486 -0.021956068 -0.20335296 0.07499087 -0.14621346 -0.36657548 -0.34177694
0.16086893 0.0050049876 0.27129135 0.27901495 -0.009613277 0.048452288 -0.05782163 0.35108432
0.14966588 0.33483538 0.19489643 0.089045525 0.28297526 0.31073654 0.046081103 -0.06522885
-0.33812192 -0.26235873 0.15760243 0.17458531 0.06817046 0.18395647 -0.36427945 -0.12008066
-0.33144858 -0.038271643 0.05819865 0.21287486 -0.15336919 0.13467216 -0.034848727 -0.2708116
-0.0068164514 0.10541755 -0.13781269 -0.09969716 0.24013834 0.12247185 -0.20511632 0.26907265
0.23910642 0.22475982 0.2754518 0.0050304923 -0.21853538 -0.37112933 0.24223937 0.13508423
-0.26998836 -0.33569428 0.10919698 0.047294673 -0.17252839 0.20543408 0.3309955 0.15902534
-0.15488946 0.2914716 0.00048142206 -0.20926261 0.30326384 -0.20331502 -0.09728533 -0.027049232
0.2992632 0.033791643 0.07383314 0.061682176 -0.19542158 0.099016935 0.38177305 -0.188401
-0.26931715 -0.1044143 0.029399164 0.1726027 -0.33172214 0.016400391 -0.03723802 0.27705604
-0.09280033 0.14661877 0.12764286 -0.1274825 0.29088408 0.17892402 0.12645972 -0.28700858
0.34132943 -0.36840189 -0.11754251 0.18509108 -0.15508471 -0.035417777 0.11129818 0.1873821
-0.0053351726 -0.100383766 -0.2404622 0.14206648 -0.25447544 0.21732068 0.18515371 -0.18090728
0.2242478 0.06894797 -0.11381759 -0.3136351 -0.03793361 -0.3509474 0.3303197 -0.19465345
-0.18629491 -0.024258217 0.086934805 -0.3484209 0.25291106 -0.014903986 0.15306167 0.06459365
0.11411474 -0.08811345 -0.29112396
00000000: 00b0 a43e 831f c03d 5038 7cbe c25b 3a3e
00000010: f40c 27be 7740 df3d 6c49 8cbd 5947 3b3e
00000020: 98d3 893d 592d 333d 605a 05bd 7104 023e
00000030: 4e62 4e3e 0356 93be c4dc 323e 24d9 ea3c
00000040: bf29 0ebe 9d5d bb3e 36dd b3bc c23b 50be
00000050: d094 993d fbb8 15be c8af bbbe 63fd aebe
00000060: d3ba 243e e100 a43b b3e6 8a3e 0cdb 8e3e
00000070: 0281 1dbc e875 463d 60d6 6cbd 53c1 b33e
00000080: 0342 193e 8b6f ab3e ee92 473e 805d b63d
00000090: 22e2 903e dc18 9f3e 8abf 3c3d b496 85bd
000000a0: 511e adbe e253 86be 8862 213e 7ec6 323e
000000b0: f49c 8b3d 165f 3c3e d682 babe d9ec f5bd
000000c0: a1b3 a9be bac2 1cbd b561 6e3d defb 593e
000000d0: d00c 1dbe 80e7 093e 8abd 0ebd d1a7 8abe
000000e0: 8a5c dfbb 28e5 d73d c51e 0dbe 062e ccbd
000000f0: d3e6 753e 85d2 fa3d 030a 52be e4c3 893e
00000100: 50d8 743e 7027 663e 0508 8d3e d4d6 a43b
00000110: bdc7 5fbe aa04 bebe 990d 783e 8553 0a3e
00000120: ea3b 8abe 1fe0 abbe aba2 df3d 0fb8 413d
00000130: 48ab 30be 505d 523e 3e78 a93e 8ad7 223e
00000140: 589b 1ebe c43b 953e 6067 fc39 f048 56be
00000150: 6645 9b3e d031 50be 883d c7bd 5a96 ddbc
00000160: 0739 993e 1b69 0a3d d435 973d 73a6 7c3d
00000170: 981c 48be 64c9 ca3d c277 c33e 31ec 40be
00000180: f0e3 89be 2ad7 d5bd 84d6 f03c c3be 303e
00000190: 7cd7 a9be 1d5a 863c e586 18bd 4ada 8d3e
000001a0: 190e bebd 3b23 163e cfb4 023e c68a 02be
000001b0: c2ee 943e dc37 373e a87e 013e caf2 92be
000001c0: bbc2 ae3e 2c9f bcbe 21ba f0bd 8488 3d3e
000001d0: 87ce 1ebe 3b12 11bd 4df0 e33d 18e1 3f3e
000001e0: acd2 aebb 0196 cdbd b93b 76be e079 113e
000001f0: 9b4a 82be 5089 5e3e ef98 3d3e c23f 39be
00000200: 37a1 653e 9834 8d3d 3219 e9bd c894 a0be
00000210: 4660 1bbd 61af b3be aa1f a93e 3c53 47be
00000220: 18c4 3ebe 2bb9 c6bc e00a b23d 3964 b2be
00000230: 8f7d 813e d92f 74bc 33bc 1c3e ad49 843d
00000240: fdb4 e93d d374 b4bd 330e 95be

fc1.bias f4 [21]
0.29507536 -0.22620043 -0.081274055 0.31095403 0.118506245 -0.25787392 0.16392148 0.048856962
0.33122244 0.23999907 0.13527955 -0.011177498 -0.20175177 0.025260273 0.09366563 0.15691654
-0.29988277 0.25968704 0.09666263 -0.16830167 -0.36384425
00000000: 1e14 973e 16a1 67be 0373 a6bd 5e35 9f3e
00000010: 67b3 f23d 0d08 84be 08db 273e 3d1e 483d
00000020: fd95 a93e 51c2 753e b986 0a3e d321 37bc
00000030: 0498 4ebe a2ee ce3c c4d3 bf3d bbae 203e
00000040: 3c8a 99be b3f5 843e 0ff7 c53d 4657 2cbe
00000050: cb49 babe

fc2.weight f4 [21, 21]
-0.13038057 0.17889589 -0.116895996 -0.07034962 0.10933777 0.19292106 0.021110306 -0.11734619
-0.06976021 -0.1190472 0.16584596 -0.10381865 0.05642362 -0.024872003 0.027542518 0.10058932
0.19470865 0.16066492 0.008188535 0.13435031 0.05631404 -0.113015875 -0.04969014 -0.05677757
0.08583749 -0.21052812 -0.09987654 -0.1594468 -0.09245496 0.09141036 0.004153826 0.097403765
0.07979404 0.14949521 0.04343241 -0.17581591 0.10093854 -0.06556054 0.028202774 -0.11354869
-0.10912604 0.017483324 -0.0948647 -0.18316342 -0.0129472315 0.08885426 -0.06781536 0.11863958
0.032655995 0.02470573 -0.12816738 0.06457705 0.23456614 0.014130091 -0.110318325 0.20845735
0.19873767 0.07588272 0.05393633 0.15104428 0.039773338 -0.023704842 0.041035026 -0.21265495
0.05679531 0.1537587 0.0049915416 0.046819765 0.1754183 0.05668344 -0.108185 -0.11222656
0.109715335 0.1471301 0.10547086 -0.19309944 -0.09670089 -0.2146337 -0.14554617 -0.18135265
-0.053231955 -0.16219407 0.10233834 -0.11430805 0.06529323 -0.0017033463 0.10071325 -0.26212916
0.019076817 -0.0008644151 0.0879818 -0.054201245 0.1348497 0.11316599 -0.10441125 -0.18639868
0.12211541 -0.13665077 0.10069868 0.17093717 0.13695055 0.041054137 0.14835775 -0.19584878
-0.18170157 0.078056924 -0.19685613 0.0895585 -0.060297184 0.030163353 -0.044586476 -0.0399392
-0.12139377 0.13387065 -0.06424664 -0.20381583 0.13266028 -0.06597224 0.20777157 -0.047169447
-0.13188048 -0.10630442 0.12194271 0.11607781 -0.12748139 0.06553369 -0.053035434 -0.014285941
-0.01174743 0.068537146 0.20680268 -0.20722874 0.036051415 0.15588675 0.037590746 -0.13887176
-0.1709956 -0.18779986 -0.18612905 -0.09296849 -0.027729196 0.06738935 0.15071656 0.18323751
0.06971494 -0.1715643 -0.098593235 0.08965801 -0.1746768 0.012889878 -0.008177614 -0.17853014
-0.115314394 -0.09497526 -0.20590667 -0.043911718 0.07627449 0.13597403 -0.21778707 -0.0034522912
0.40044641 0.017244535 -0.002530605 -0.07793356 0.065697044 -0.15989852 0.09874531 0.1321984
0.045735087 -0.19469932 -0.04516452 -0.047130916 0.08260906 0.13892055 0.109641865 0.072148904
-0.1295614 -0.14222868 -0.0811271 0.06595513 0.1652333 0.09258503 -0.0014784893 -0.1638684
0.08928954 0.17310186 0.21003911 0.026984116 -0.10545947 0.20740333 0.19364874 0.20807414
0.10232512 -0.17487738 0.08379093 -0.056951508 -0.006396223 -0.050050072 -0.04135767 -0.15203725
-0.048808243 -0.14231898 0.003030474 0.15099807 -0.004478591 0.21870838 -0.03215465 0.15695046
0.015822615 0.08773085 -0.094168946 -0.044207238 0.122717224 0.09136771 -0.03569355 0.15173505
0.106477804 0.0064458027 0.004848943 0.12555045 -0.07962283 0.19877452 0.11101899 0.007456049
-0.14057831 0.22333798 0.014858248 -0.08151345 0.12637524 0.12256526 0.099186 0.11726421
0.11500065 0.1660458 -0.097435825 0.13831286 -0.031664833 0.09691059 -0.059097547 0.124503836
0.038339965 0.020904828 -0.22132674 0.07204696 0.0143828215 0.06360003 0.06540931 -0.076596476
0.10520801 -0.17990369 -0.021837585 -0.14172013 -0.090762 0.0691013 0.114566945 0.035103638
00000000: 7c82 05be 7c30 373e 2b67 efbd 7613 90bd
00000010: 7bec df3d 198d 453e 85ef ac3c 3353 f0bd
00000020: 71de 8ebd 05cf f3bd 86d3 293e df9e d4bd
00000030: 741c 673d 5fc0 cbbc d9a0 e13c c601 ce3d
00000040: b461 473e 5885 243e 3529 063c 2193 093e
00000050: 8da9 663d de74 e7bd e387 4bbd 998f 68bd
00000060: 91cb af3d af94 57be 128c ccbd 0646 23be
00000070: 0759 bdbd 5b35 bb3d d11c 883b a07b c73d
00000080: 0f6b a33d 4615 193e 2fe6 313d 1609 34be
00000090: deb8 ce3d 9b44 86bd 8109 e73c 378c e8bd
000000a0: 797d dfbd 3039 8f3c 6d48 c2bd 318f 3bbe
000000b0: a020 54bc 39f9 b53d c8e2 8abd 4ff9 f23d
000000c0: 4bc2 053d ac63 ca3c 4f3e 03be f940 843d
000000d0: 1b32 703e e681 673c 93ee e1bd d875 553e
000000e0: e381 4b3e 6668 9b3d 57ec 5c3d 5aab 1a3e
000000f0: 5ee9 223d a830 c2bc 5814 283d 38c2 59be
00000100: 33a2 683d ec72 1d3e 1690 a33b 15c6 3f3d
00000110: dba0 333e e52c 683d 1990 ddbd 0ad7 e5bd
00000120: 6fb2 e03d 46a9 163e 1b01 d83d dcbb 45be
00000130: 1e0b c6bd f0c8 5bbe 0e0a 15be 82b4 39be
00000140: c009 5abd 3416 26be c396 d13d 571a eabd
00000150: 75b8 853d d142 dfba c042 ce3d cb35 86be
00000160: fc46 9c3c ea99 62ba cd2f b43d 2002 5ebd
00000170: 0a16 0a3e 92c3 e73d 91d5 d5bd 4cdf 3ebe
00000180: a517 fa3d 2eee 0bbe 1c3b ce3d 270a 2f3e
00000190: c43c 0c3e 6228 283d 18eb 173e 958c 48be
000001a0: fa0f 3abe 4fdc 9f3d a794 49be 726a b73d
000001b0: 2efa 76bd 2319 f73c 4fa0 36bd 4997 23bd
000001c0: 4c9d f8bd 6315 093e be93 83bd 19b5 50be
000001d0: 19d8 073e 741c 87bd 12c2 543e c034 41bd
000001e0: ad0b 07be 22b6 d9bd 19bd f93d 34ba ed3d
000001f0: 7b8a 02be 8736 863d af3b 59bd 940f 6abc
00000200: 4b78 40bc 345d 8c3d 15c4 533e c533 54be
00000210: a6aa 133d c7a0 1f3e c1f8 193d 6634 0ebe
00000220: 7819 2fbe 9b4e 40be 9d98 3ebe 4466 bebd
00000230: 5728 e3bc 6d03 8a3d 7155 1a3e 9da2 3b3e
00000240: b5c6 8e3d 8dae 2fbe 40eb c9bd 9e9e b73d
00000250: 7ade 32be 1130 533c 66fb 05bc 9bd0 36be
00000260: f429 ecbd 6482 c2bd 33d9 52be c6dc 33bd
00000270: cd35 9c3d c73c 0b3e 9303 5fbe d63f 62bb
00000280: 5007 cd3e 6944 8d3c 82d8 25bb a19b 9fbd
00000290: 2c8c 863d 70bc 23be fb3a ca3d 045f 073e
000002a0: b754 3b3d 425f 47be 6ffe 38bd 590c 41bd
000002b0: f02e a93d 3041 0e3e ea8b e03d cec2 933d
000002c0: beab 04be 65a4 11be f725 a6bd 7c13 873d
000002d0: eb32 293e 389d bd3d dec9 c1ba 1ecd 27be
000002e0: 6fdd b63d 9d41 313e 7e14 573e cb0d dd3c
000002f0: 22fb d7bd 8a61 543e db4b 463e 6311 553e
00000300: d58f d13d 0e13 33be 949a ab3d fc45 69bd
00000310: 6897 d1bb 4e01 4dbd a966 29bd a7af 1bbe
00000320: 27eb 47bd 11bc 11be eb9a 463b 3d9f 1a3e
00000330: 25c1 92bb 17f5 5f3e 98b4 03bd 9fb7 203e
00000340: 6e9e 813c 3bac b33d a6db c0bd a612 35bd
00000350: 2b53 fb3d fe1e bb3d 6633 12bd 6f60 1b3e
00000360: 0911 da3d 5037 d33b e2e3 9e3b 4c90 003e
00000370: 4b11 a3bd 8c8b 4b3e ed5d e33d df51 f43b
00000380: c3f3 0fbe b6b2 643e 0270 733c 86f0 a6bd
00000390: 8368 013e 7f03 fb3d 0822 cb3d 3828 f03d
000003a0: 7685 eb3d e907 2a3e 6f8c c7bd e3a1 0d3e
000003b0: fcb2 01bd 0f79 c63d 4510 72bd defb fe3d
000003c0: 5e0a 1d3d 9a40 ab3c 7aa3 62be 5b8d 933d
000003d0: eda5 6b3c bc40 823d 51f5 853d 9dde 9cbd
000003e0: 4c77 d73d ac38 38be bce4 b2bc 151f 11be
000003f0: 6de1 b9bd fb84 8d3d 13a2 ea3d d5c8 0f3d

fc2.bias f4 [21]
0.17227034 -0.02469497 -0.10475607 -0.03976824 0.13249075 0.09224712 -0.055905774 0.08185093
-0.026239388 0.14043956 -0.13068683 -0.0921702 0.038306233 0.13656244 0.057391163 -0.15678625
0.056246694 -0.12010984 0.05087821 -0.15404584 -0.1571458
00000000: a367 303e 1b4d cabc 5a8a d6bd 06e4 22bd
00000010: a8ab 073e 0fec bc3d 74fd 64bd 76a1 a73d
00000020: fcf3 d6bc 63cf 0f3e c5d2 05be bbc3 bcbd
00000030: ffe6 1c3d 06d7 0b3e ff12 6b3d 938c 20be
00000040: ef62 663d 26fc f5bd ac65 503d 31be 1dbe
00000050: d4ea 20be

fc3.weight f4 [2, 21]
-0.117548384 -0.008162938 -0.18875769 -0.04920359 0.08515158 0.20141926 0.1368105 0.04400941
0.15418245 -0.11927939 -0.054596428 0.087793626 -0.21141 0.051941603 0.1630216 0.03537659
-0.18153301 -0.15239142 0.044690445 0.17001873 0.13372457 -0.12711689 0.18971232 -0.12588306
0.05280968 -0.0123847155 -0.0019431378 -0.18495524 -0.1469389 -0.047858767 0.09592681 -0.1873979
0.05067469 -0.13812028 0.15665767 -0.12934929 0.15193899 -0.121132314 0.0423863 0.1637185
-0.19181322 0.010264784
00000000: 35bd f0bd d8bd 05bc b249 41be b489 49bd
00000010: f463 ae3d da40 4e3e 0d18 0c3e 3643 343d
00000020: 01e2 1d3e c148 f4bd 81a0 5fbd 25cd b33d
00000030: dd7b 58be b8c0 543d 22ef 263e 0be7 103d
00000040: cae3 39be 7f0c 1cbe 540d 373d 6419 2e3e
00000050: 18ef 083e ee2a 02be f243 423e 7de7 00be
00000060: f74e 583d 43e9 4abc e3b0 feba e864 3dbe
00000070: 2777 16be 8e07 44bd 4675 c43d 3ce5 3fbe
00000080: 4490 4f3d 676f 0dbe de6a 203e 2474 04be
00000090: e595 1b3e 3814 f8bd 429d 2d3d d3a5 273e
000000a0: af6a 44be a02d 283c

fc3.bias f4 [2]
-0.13606645 0.09239785
00000000: 0155 0bbe 153b bd3d

exp_avg f4 [21, 7]
-8.62161 -3.906526 4.9876328 -1.6824186 -3.6339777 -0.090849474 -0.018744433 -7.8189373
-1.2667454 6.6405725 -0.09594877 -1.1783643 -0.029459141 -0.010104339 5.129696 0.6614922
-4.5143523 0.050532352 0.6153425 0.015383543 0.0054790103 -12.021259 -3.3709714 8.885469
-1.4998302 -3.1357877 -0.07839469 -0.013798364 -0.49186587 -0.8233232 -0.27401605 -0.47128415
-0.7658817 -0.019147057 -0.0027137513 -0.54482275 -0.89268875 -0.28558403 -0.75571823 -0.83040804
-0.020760212 -0.00095378293 3.498458 -0.07539058 -3.5685887 -0.36946926 -0.0701306 -0.0017532666
0.0030070953 0.063189425 0.08449556 0.015410603 0.12522838 0.0786005 0.0019649994 -0.0004968826
0.40751776 -0.78057486 -1.1336306 -0.4716509 -0.7261146 -0.018152893 -0.0033458644 4.242613
0.84672123 -3.4549658 0.30155987 0.7876477 0.019691197 0.0047008283 8.271146 2.787174
-5.6784263 1.3316911 2.5927196 0.064817995 0.014809996 -6.98891 -0.6139505 6.417796
0.071300164 -0.57111746 -0.0142779285 -0.004420714 5.1155043 3.111822 -2.2207906 2.1657355
2.8947177 0.07236792 0.010217761 0.23648277 1.6314774 1.2811692 1.417189 1.5176525
0.037941325 0.0016170907 2.6943214 1.9926697 -0.8406749 1.3103896 1.8536465 0.04634116
0.008615923 -1.432891 -0.49335632 0.9739543 -0.3363163 -0.45893624 -0.011473408 -0.0015804899
1.7665805 0.7739212 -1.046654 0.4656994 0.71992654 0.01799816 0.0040240283 -3.5509713
-1.4153951 2.234325 -0.8610815 -1.3166467 -0.032916173 -0.0065687154 0.0 0.0
0.0 0.0 0.0 0.0 0.0 0.0 0.0 0.0
0.0 0.0 0.0 0.0 -2.4602427 0.35015583 2.785967 0.28990975
0.32572657 0.008143173 0.00034721394
00000000: 1df2 09c1 8604 7ac0 b09a 9f40 7e59 d7bf
00000010: 1793 68c0 4a0f babd ed8d 99bc bc34 fac0
00000020: b724 a2bf 927f d440 ca80 c4bd a4d4 96bf
00000030: 4c54 f1bc ab8c 25bc 7826 a440 8e57 293f
00000040: 9375 90c0 03fb 4e3d 1687 1d3f 420b 7c3c
00000050: 4589 b33b 1457 40c1 ffbd 57c0 e22a 0e41
00000060: 70fa bfbf bfb0 48c0 658d a0bd 8912 62bc
00000070: d8d5 fbbe 4fc5 52bf d54b 8cbe 284c f1be
00000080: d310 44bf 4ada 9cbc 31d9 31bb 8179 0bbf
00000090: 4087 64bf 1238 92be c076 41bf 9f95 54bf
000000a0: 5211 aabc 4a07 7aba bce6 5f40 6066 9abd
000000b0: c263 64c0 132b bdbe a2a0 8fbd ddcd e5ba
000000c0: b012 453b 7569 813d 020c ad3d c17c 7c3c
000000d0: de3b 003e 4df9 a03d 38c7 003b 3a41 02ba
000000e0: 2ba6 d03e c1d3 47bf cf1a 91bf 3a7c f1be
000000f0: a5e2 39bf 60b5 94bc 4a46 5bbb 7cc3 8740
00000100: b9c2 583f 291e 5dc0 0e66 9a3e 48a3 493f
00000110: 6f4f a13c 6809 9a3b 9d56 0441 0f61 3240
00000120: abb5 b5c0 db74 aa3f 1eef 2540 4cbf 843d
00000130: a0a5 723c 27a5 dfc0 dc2b 1dbf 965e cd40
00000140: d205 923d c134 12bf f9ed 69bc a3db 90bb
00000150: 36b2 a340 1728 4740 6f21 0ec0 699b 0a40
00000160: 0e43 3940 a235 943d 6568 273c 8a28 723e
00000170: 40d4 d03f 5afd a33f 7366 b53f 7042 c23f
00000180: 5d68 1b3d 8ff4 d33a c36f 2c40 cd0f ff3f
00000190: 7836 57bf d9ba a73f 4a44 ed3f 3ad0 3d3d
000001a0: cd29 0d3c f968 b7bf 3399 fcbe 1255 793f
000001b0: a631 acbe b1f9 eabe f6fa 3bbc 7128 cfba
000001c0: 4f1f e23f b31f 463f c2f8 85bf 2770 ee3e
000001d0: 1b4d 383f e170 933c ffdb 833b 1d43 63c0
000001e0: ab2b b5bf 2eff 0e40 d66f 5cbf e187 a8bf
000001f0: 1cd3 06bd 613e d7bb 0000 0000 0000 0000
00000200: 0000 0000 0000 0000 0000 0000 0000 0000
00000210: 0000 0000 0000 0000 0000 0000 0000 0000
00000220: 0000 0000 0000 0000 0000 0000 0000 0000
00000230: 9e74 1dc0 a047 b33e 494d 3240 0d6f 943e
00000240: a2c5 a63e f16a 053c 440a b639

exp_avg_sq f4 [21, 7]
271664.1 38302.043 116421.664 28557.7 33144.06 20.71506 0.15834339 556441.2
71180.375 248343.78 52332.14 61594.734 38.496716 0.32493442 146752.36 19055.795
65237.348 13908.784 16489.598 10.306005 0.08931127 2805.6267 212.85248 1614.4261
228.1069 184.1877 0.115117505 0.00044678512 41014.418 5271.9067 18442.225 3674.105
4561.948 2.8512175 0.029783946 2319.218 810.5695 763.0769 550.195 701.4134
0.43838283 0.0037291904 224911.27 28838.533 100516.19 20758.521 24954.932 15.596826
0.14397603 70.43581 76.35929 33.651 60.913826 66.07621 0.041297603 0.00036761997
40628.727 5637.697 17810.908 4425.522 4878.4805 3.0490546 0.02313495 29853.053
3897.6963 13250.235 2916.1516 3372.8047 2.1080024 0.017764246 546095.5 69608.3
244435.45 51378.938 60234.305 37.646465 0.2945998 469533.44 60639.164 209383.2
44730.168 52473.145 32.795685 0.2732861 581433.5 74703.086 259381.36 53851.19
64642.94 40.401802 0.3832588 71.30685 487.05756 219.2885 537.7822 421.46664
0.26341674 0.0016442969 361176.2 46956.035 159738.92 34785.242 40632.61 25.39538
0.20983452 82031.84 10035.851 37779.566 7309.6597 8684.35 5.427714 0.04296622
63368.87 7064.466 30367.059 4933.5186 6113.114 3.820693 0.03292712 17443.533
2395.5288 7694.822 1721.3007 2072.9324 1.2955822 0.010502074 0.0 0.0
0.0 0.0 0.0 0.0 0.0 0.0 0.0 0.0
0.0 0.0 0.0 0.0 254693.86 34663.645 110784.45 25125.557
29995.566 18.747242 0.17301567
00000000: 03a6 8448 0b9e 1547 d562 e347 661b df46
00000010: 0f78 0147 71b8 a541 c524 223e 93d9 0749
00000020: 3006 8b47 f285 7248 246c 4c47 bc9a 7047
00000030: a3fc 1942 ce5d a63e 1750 0f48 97df 9446
00000040: 59d5 7e47 2353 5946 32d3 8046 65e5 2441
00000050: d4e8 b63d 075a 2f45 3cda 5443 a3cd c944
00000060: 5e1b 6443 0d30 3843 bac2 eb3d 7c3e ea39
00000070: 6b36 2047 41bf a445 7314 9046 aea1 6545
00000080: 968f 8e45 597a 3640 76fd f33c 7df3 1045
00000090: 73a4 4a44 ecc4 3e44 7b8c 0944 755a 2f44
000000a0: b773 e03e 6f65 743b d1a3 5b48 114d e146
000000b0: 1852 c447 0b2d a246 ddf5 c246 998c 7941
000000c0: 746e 133e 22df 8c42 f5b7 9842 a09a 0642
000000d0: c2a7 7342 0527 8442 ad27 293d 1ebd c039
000000e0: bab4 1e47 932d b045 d125 8b46 2d4c 8a45
000000f0: d873 9845 b623 4340 8285 bd3c 1b3a e946
00000100: 249b 7345 f108 4f46 6d42 3645 e0cc 5245
00000110: 83e9 0640 5386 913c f852 0549 26f4 8747
00000120: ddb4 6e48 f0b2 4847 4e4a 6b47 fb95 1642
00000130: c9d5 963e ae43 e548 2adf 6c47 cd79 4c48
00000140: 2bba 2e47 25f9 4c47 c82e 0342 28ec 8b3e
00000150: 98f3 0d49 8be7 9147 574d 7d48 315b 5247
00000160: f182 7c47 729b 2142 7f3a c43e 1b9d 8e42
00000170: 5e87 f343 db49 5b43 1072 0644 bbbb d243
00000180: 8fde 863e 7385 d73a 065b b048 096c 3747
00000190: bbfe 1b48 3ee1 0747 9cb8 1e47 bd29 cb41
000001a0: dcde 563e ec37 a047 67cf 1c46 9193 1347
000001b0: 476d e445 66b1 0746 d5af ad40 59fd 2f3d
000001c0: df88 7747 bac3 dc45 1e3e ed46 262c 9a45
000001d0: e908 bf45 3c86 7440 96de 063d 1147 8846
000001e0: 76b8 1545 9376 f045 9f29 d744 eb8e 0145
000001f0: a3d5 a53f e410 2c3c 0000 0000 0000 0000
00000200: 0000 0000 0000 0000 0000 0000 0000 0000
00000210: 0000 0000 0000 0000 0000 0000 0000 0000
00000220: 0000 0000 0000 0000 0000 0000 0000 0000
00000230: 77b9 7848 a567 0747 3a60 d847 1d4b c446
00000240: 2257 ea46 5afa 9541 052b 313e

exp_avg f4 [21]
-0.009084944 -0.0029459097 0.0015383558 -0.007839467 -0.0019147036 -0.002076018 -0.00017532677 0.00019650035
-0.0018152895 0.0019691195 0.0064817998 -0.0014277924 0.0072367913 0.0037941318 0.0046341163 -0.0011473406
0.0017998164 -0.0032916167 0.0 0.0 0.0008143173
00000000: 04d9 14bc 2a10 41bb a8a2 c93a 1c71 00bc
00000010: cbf6 faba cd0d 08bb ecd7 37b9 a90b 4e39
00000020: 02ef edba 580c 013b 4765 d43b c324 bbba
00000030: 9b22 ed3b f8a6 783b c9d9 973b 5d62 96ba
00000040: d1e7 eb3a 2ab8 57bb 0000 0000 0000 0000
00000050: e977 553a

exp_avg_sq f4 [21]
0.20715089 0.38496625 0.10305988 0.0011511751 0.02851218 0.0043838313 0.15596834 0.00041297593
0.030490497 0.021080026 0.376465 0.3279569 0.4040176 0.002634169 0.25395313 0.05427713
0.03820696 0.0129558295 0.0 0.0 0.18747228
00000000: 5d1f 543e 4c1a c53e 0f11 d33d 07e3 963a
00000010: 6092 e93c 3ea6 8f3b 2ab6 1f3e b184 d839
00000020: 35c7 f93c 05b0 ac3c 05c0 c03e f7e9 a73e
00000030: 65db ce3e 06a2 2c3b 2506 823e b251 5e3d
00000040: e77e 1c3d b044 543c 0000 0000 0000 0000
00000050: bcf8 3f3e

exp_avg f4 [21, 21]
1.1250741 0.5953816 0.840185 0.049743075 0.13867989 -0.23835303 0.1736585 -0.39721194
0.57431746 0.32372522 0.8662532 0.63547945 1.1554571 -0.15131359 0.5315589 0.90949774
0.34433252 0.5226113 0.0 0.0 0.43908963 0.0 0.0 0.0
0.0 0.0 0.0 0.0 0.0 0.0 0.0 0.0
0.0 0.0 0.0 0.0 0.0 0.0 0.0 0.0
0.0 0.0 -1.222332 -0.07486309 -0.53775907 -0.11230276 -0.050707784 0.284939
-0.2002894 -0.14059381 -0.06751267 0.106198795 -1.4660304 0.31501198 -0.64082617 -0.1188592
-1.1534423 -0.3301653 -1.1886846 -0.78084004 0.0 0.0 -0.036204144 0.56995827
0.69311595 0.78324604 0.0 1.303058 1.3743074 0.22141828 0.52045333 0.44720557
1.9932218 0.022523897 1.814394 0.3427506 0.10056735 0.02094281 1.4423889 0.0
0.013058326 0.0 0.0 0.8999496 3.2384715 0.9485426 1.9170295 0.22183126
0.26760542 -0.7183525 0.51574683 -0.37595892 0.9082703 0.321921 3.194459 0.48538274
2.5026252 -0.056113195 2.3001266 1.7387699 2.0818193 1.7885251 0.0 0.0
0.67480063 7.080298e-26 1.6442049e-25 2.725682e-25 0.0 3.8835452e-25 3.8836512e-25 9.5021495e-26
1.3967113e-25 8.196395e-26 5.313857e-25 0.0 4.0673015e-25 6.678835e-26 5.511095e-26 0.0
4.176644e-25 0.0 0.0 0.0 0.0 2.3448188e-25 0.0 0.0
0.0 0.0 0.0 0.0 0.0 0.0 0.0 0.0
0.0 0.0 0.0 0.0 0.0 0.0 0.0 0.0
0.0 0.0 0.0 9.054314 3.523706 5.758435 0.45987624 2.35679
9.874289e-28 1.4826527 -2.0719288e-30 3.1030083 3.6279151 8.240848 4.183353 6.9571614
-0.03275454 5.6155853 6.390605 5.4544277 4.687727 0.0 0.0 3.0505974
5.69409e-25 2.0531917e-25 4.4121883e-25 2.8520634e-27 2.4633143e-25 1.4426259e-27 1.4457862e-25 0.0
1.6297875e-25 3.33291e-25 4.774569e-25 2.6791057e-25 4.627666e-25 0.0 3.7044842e-25 4.550588e-25
3.5278858e-25 3.2393222e-25 0.0 0.0 2.0247978e-25 -7.5605946 -2.3643863 -4.5754175
-0.50128067 -0.6594981 1.6589756 -1.2024026 1.0182575 -2.2646914 -0.8823196 -7.330006
-1.401776 -5.9997888 0.20111199 -5.227079 -4.236075 -4.6538815 -4.1245294 0.0
0.0 -1.6936133 5.5271406 1.9873065 3.5192175 0.34306103 0.54019415 -1.1892661
0.87673396 -0.99519104 1.9048793 0.86730784 5.1146464 1.4851328 4.658135 -0.27076513
3.558512 3.4020321 3.037557 2.914476 0.0 0.0 1.4415067 0.88286865
-0.040737208 0.27639142 0.07287848 -0.38137642 -0.73977464 0.09200786 -0.23777688 0.03333174
-0.66839314 0.97693986 -0.65726805 0.5561625 -0.013767063 0.74410313 -0.060532995 0.7342138
0.5304075 0.0 0.0 -0.17518674 1.566839e-24 2.1294349e-23 1.6835847e-23 0.0
00000000: 6e02 903f ee6a 183f 5d16 573f 65bf 4b3d
00000010: 1a02 0e3e d112 74be 89d3 313e 5d5f cbbe
00000020: 7806 133f 50bf a53e c5c2 5d3f c8ae 223f
00000030: 05e6 933f f3f1 1abe 3e14 083f d8d4 683f
00000040: 5a4c b03e dbc9 053f 0000 0000 0000 0000
00000050: 5bd0 e03e 0000 0000 0000 0000 0000 0000
00000060: 0000 0000 0000 0000 0000 0000 0000 0000
00000070: 0000 0000 0000 0000 0000 0000 0000 0000
00000080: 0000 0000 0000 0000 0000 0000 0000 0000
00000090: 0000 0000 0000 0000 0000 0000 0000 0000
000000a0: 0000 0000 0000 0000 6075 9cbf d251 99bd
000000b0: 94aa 09bf fdfe e5bd f7b2 4fbd 86e3 913e
000000c0: aa18 4dbe d3f7 0fbe 1544 8abd c17e d93d
000000d0: e2a6 bbbf 4049 a13e 2f0d 24bf 746c f3bd
000000e0: ffa3 93bf 6d0b a9be d126 98bf 22e5 47bf
000000f0: 0000 0000 0000 0000 cc4a 14bd c9e8 113f
00000100: 0c70 313f d082 483f 0000 0000 9bca a63f
00000110: 4ee9 af3f 79bb 623e 6e3c 053f 21f8 e43e
00000120: e421 ff3f 0984 b83c 103e e83f 027d af3e
00000130: 41f6 cd3d 4290 ab3c 33a0 b83f 0000 0000
00000140: 97f2 553c 0000 0000 0000 0000 1963 663f
00000150: 1e43 4f40 b0d3 723f 3961 f53f bc27 633e
00000160: 9403 893e f3e5 37bf fc07 043f b07d c0be
00000170: 6784 683f d4d2 a43e 0472 4c40 1684 f83e
00000180: 032b 2040 f3d6 65bd 4635 1340 0390 de3f
00000190: 873c 0540 64ee e43f 0000 0000 0000 0000
000001a0: bcbf 2c3f b84c af15 ef8a 4b16 28b6 a816
000001b0: 0000 0000 3b61 f016 e962 f016 0743 eb15
000001c0: 8ce7 2c16 d3ee ca15 b674 2417 0000 0000
000001d0: f7c0 fb16 255c a515 b772 8815 0000 0000
000001e0: c842 0117 0000 0000 0000 0000 0000 0000
000001f0: 0000 0000 2323 9116 0000 0000 0000 0000
00000200: 0000 0000 0000 0000 0000 0000 0000 0000
00000210: 0000 0000 0000 0000 0000 0000 0000 0000
00000220: 0000 0000 0000 0000 0000 0000 0000 0000
00000230: 0000 0000 0000 0000 0000 0000 0000 0000
00000240: 0000 0000 0000 0000 0000 0000 78de 1041
00000250: 6684 6140 1945 b840 e674 eb3e a6d5 1640
00000260: e076 9c12 90c7 bd3f 4718 288e b097 4640
00000270: c32f 6840 83da 0341 07de 8540 11a1 de40
00000280: a029 06bd e0b2 b340 d67f cc40 ac8a ae40
00000290: dc01 9640 0000 0000 0000 0000 fd3c 4340
000002a0: 3b39 3017 3e2c 7e16 f58c 0817 b8f6 6113
000002b0: c678 9816 dc97 e412 cbfa 3216 0000 0000
000002c0: 07c2 4916 114c ce16 08c4 1317 20d4 a516
000002d0: 2638 0f17 0000 0000 e54b e516 79d5 0c17
000002e0: 955d da16 1c81 c816 0000 0000 0000 0000
000002f0: 67a8 7a16 64f0 f1c0 1b52 17c0 d269 92c0
00000300: ee53 00bf ded4 28bf 5059 d43f 54e8 99bf
00000310: 4356 823f b4f0 10c0 b3df 61bf 698f eac0
00000320: 656d b3bf 45fe bfc0 4df0 4d3e 3b44 a7c0
00000330: ed8d 87c0 99ec 94c0 25fc 83c0 0000 0000
00000340: 0000 0000 52c8 d8bf 56de b040 0f60 fe3f
00000350: dc3a 6140 b2a5 af3e 2a4a 0a3f df39 98bf
00000360: a371 603f d7c4 7ebf 16d3 f33f e307 5e3f
00000370: 2fab a340 d518 be3f 710f 9540 baa1 8abe
00000380: a9be 6340 e5ba 5940 5567 4240 c686 3a40
00000390: 0000 0000 0000 0000 4b83 b83f ae03 623f
000003a0: 0fdc 26bd 2d83 8d3e 5041 953d c543 c3be
000003b0: df61 3dbf 9e6e bc3d c87b 73be dd86 083d
000003c0: d01b 2bbf bb18 7a3f b842 28bf aa60 0e3f
000003d0: 3f8f 61bc 8b7d 3e3f 72f1 77bd 70f5 3b3f
000003e0: c9c8 073f 0000 0000 0000 0000 2764 33be
000003f0: e374 f217 41f2 cd19 8ad3 a219 0000 0000

exp_avg_sq f4 [21, 21]
11059.78 1352.972 6780.519 15.544634 2120.2048 23.31843 759.31323 6.1131926
856.7052 3786.2354 7818.1577 2239.6902 7374.6196 0.16680144 4781.978 6932.3994
4482.977 3523.3997 0.0 0.0 1315.4221 0.0 0.0 0.0
0.0 0.0 0.0 0.0 0.0 0.0 0.0 0.0
0.0 0.0 0.0 0.0 0.0 0.0 0.0 0.0
0.0 0.0 23605.682 3376.5217 13677.804 56.589474 4409.1953 68.65452
1362.0018 11.189106 2109.812 8418.562 15621.087 6013.317 14845.428 1.3120794
9362.928 15812.038 8213.699 6872.698 0.0 0.0 3329.4763 3.0992687
26.35354 52.30965 0.0 128.08536 133.16077 5.644225 18.111946 8.492578
264.2173 0.17568447 179.69124 3.5545678 3.5863135 0.15311123 145.0155 0.0
0.06846462 0.0 0.0 50.722794 131236.9 17806.334 80647.09 32.329712
26307.19 115.22019 8669.323 12.841974 11072.174 48625.46 90887.914 31567.57
86970.18 3.016962 55295.27 87684.47 48963.887 41323.23 0.0 0.0
17604.91 0.0062014186 0.0334426 0.09190486 0.0 0.18657145 0.18658173 0.011169458
0.024132427 0.008310636 0.34930786 0.0 0.20464484 0.005518105 0.003757195 0.0
0.21579565 0.0 0.0 0.0 0.0 0.06801536 0.0 0.0
0.0 0.0 0.0 0.0 0.0 0.0 0.0 0.0
0.0 0.0 0.0 0.0 0.0 0.0 0.0 0.0
0.0 0.0 0.0 473803.7 61849.992 291537.25 81.637505 93249.97
5.2046723 31855.607 8.488988e-06 38762.254 169959.5 332096.47 106393.51 315782.88
0.0038007468 202211.34 309040.75 182491.89 151223.62 0.0 0.0 60657.48
395719.44 50794.38 247599.38 5.1754446 79638.87 5.515704 27643.664 0.0
31904.285 144502.67 285690.1 88511.52 270442.78 0.0 173302.53 256893.94
155902.84 131790.19 0.0 0.0 49659.305 408074.47 56733.0 248094.7
110.35716 81352.99 535.1522 26135.9 57.196846 35078.03 151576.83 276030.9
101112.27 265705.97 14.675294 168321.27 275931.78 148082.97 124816.96 0.0
0.0 56399.3 795.1154 171.2658 506.24994 12.429524 335.43335 241.78868
43.850494 35.831184 100.181015 683.7912 500.95743 513.5132 448.74527 5.961845
280.92087 762.5139 284.16766 160.58664 0.0 0.0 201.28119 28093.857
3769.4568 17314.305 14.757927 5621.9604 14.005364 1875.7985 1.3737562 2358.6714
10375.9795 19804.838 6676.369 18824.342 0.44851977 11983.994 18614.266 10624.441
9017.147 0.0 0.0 3704.4104 0.05206215 2.6235926 2.2210925 0.0
00000000: 1fcf 2c46 1b1f a944 27e4 d345 d2b6 7841
00000010: 4783 0445 258c ba41 0cd4 3d44 469f c340
00000020: 222d 5644 c4a3 6c45 4351 f445 0bfb 0b45
00000030: f574 e645 ffcd 2a3e d36f 9545 32a3 d845
00000040: d117 8c45 6536 5c45 0000 0000 0000 0000
00000050: 826d a444 0000 0000 0000 0000 0000 0000
00000060: 0000 0000 0000 0000 0000 0000 0000 0000
00000070: 0000 0000 0000 0000 0000 0000 0000 0000
00000080: 0000 0000 0000 0000 0000 0000 0000 0000
00000090: 0000 0000 0000 0000 0000 0000 0000 0000
000000a0: 0000 0000 0000 0000 5d6b b846 5908 5345
000000b0: 37b7 5546 9f5b 6242 90c9 8945 1d4f 8942
000000c0: 0f40 aa44 9406 3341 fedc 0345 3f8a 0346
000000d0: 5914 7446 89ea bb45 b6f5 6746 38f2 a73f
000000e0: b64b 1246 2710 7746 cc56 0046 96c5 d645
000000f0: 0000 0000 0000 0000 9f17 5045 6b5a 4640
00000100: 0dd4 d241 153d 5142 0000 0000 da15 0043
00000110: 2829 0543 7e9d b440 44e5 9041 99e1 0741
00000120: d01b 8443 a1e6 333e f5b0 3343 0a7e 6340
00000130: 2986 6540 31c9 1c3e f803 1143 0000 0000
00000140: 2e37 8c3d 0000 0000 0000 0000 24e4 4a42
00000150: 3a29 0048 ab1c 8b46 8c83 9d47 a051 0142
00000160: 6186 cd46 bd70 e642 4b75 0746 ba78 4d41
00000170: b200 2d46 76f1 3d47 f583 b147 249f f646
00000180: 17dd a947 e815 4140 45ff 5747 3c42 ab47
00000190: e343 3f47 3b6b 2147 0000 0000 0000 0000
000001a0: d289 8946 4535 cb3b 1cfb 083d 9e38 bc3d
000001b0: 0000 0000 960c 3f3e 480f 3f3e 1a00 373c
000001c0: 5eb1 c53c 5529 083c 7bd8 b23e 0000 0000
000001d0: 6b8e 513e 38d1 b43b 463b 763b 0000 0000
000001e0: 89f9 5c3e 0000 0000 0000 0000 0000 0000
000001f0: 0000 0000 a34b 8b3d 0000 0000 0000 0000
00000200: 0000 0000 0000 0000 0000 0000 0000 0000
00000210: 0000 0000 0000 0000 0000 0000 0000 0000
00000220: 0000 0000 0000 0000 0000 0000 0000 0000
00000230: 0000 0000 0000 0000 0000 0000 0000 0000
00000240: 0000 0000 0000 0000 0000 0000 7659 e748
00000250: fe99 7147 285a 8e48 6746 a342 fc20 b647
00000260: ad8c a640 37df f846 ed6b 0e37 416a 1747
00000270: e0f9 2548 0f28 a248 c1cc cf47 dc30 9a48
00000280: f315 793b d678 4548 18e6 9648 f936 3248
00000290: e8ad 1348 0000 0000 0000 0000 7bf1 6c47
000002a0: ee38 c148 616a 4647 d8cb 7148 3e9d a540
000002b0: 6f8b 9b47 a680 b040 54f7 d746 0000 0000
000002c0: 9240 f946 ab1d 0d48 437f 8b48 c3df ac47
000002d0: 590d 8448 0000 0000 a23d 2948 7cdf 7a48
000002e0: b63f 1848 8cb3 0048 0000 0000 0000 0000
000002f0: 4efb 4147 4f41 c748 009d 5d47 ad47 7248
00000300: deb6 dc42 7fe4 9e47 bec9 0544 cd2f cc46
00000310: 92c9 6442 0806 0947 3506 1448 ddc7 8648
00000320: 237c c547 3fbd 8148 01ce 6a41 5160 2448
00000330: 79bb 8648 be9c 1048 7bc8 f347 0000 0000
00000340: 0000 0000 4d4f 5c47 63c7 4644 0b44 2b43
00000350: fe1f fd43 55df 4641 78b7 a743 e7c9 7143
00000360: e866 2f42 2253 0f42 ae5c c842 a3f2 2a44
00000370: 8d7a fa43 d860 0044 655f e043 6fc7 be40
00000380: df75 8c43 e4a0 3e44 7615 8e43 2e96 2043
00000390: 0000 0000 0000 0000 fc47 4943 b77b db46
000003a0: 4f97 6b45 9c44 8746 7820 6c41 afaf af45
000003b0: f915 6041 8d79 ea44 3ed7 af3f be6a 1345
000003c0: eb1f 2246 adb9 9a46 f4a2 d045 af10 9346
000003d0: 62a4 e53e fa3f 3b46 886c 9146 c401 2646
000003e0: 97e4 0c46 0000 0000 0000 0000 9186 6745
000003f0: 1f3f 553d f1e8 2740 6126 0e40 0000 0000

exp_avg f4 [21]
0.0013663349 0.0 0.0010992457 0.006683208 0.00048350438 1.5950159e-27 0.0 0.011529911
8.95228e-28 -0.0018342183 0.0025450592 -0.002630585 2.3543206e-25 -0.0019914014 0.0024009028 -0.0019932294
0.0010587812 0.0 -0.0021214841 0.00020406503 0.0
00000000: 9716 b33a 0000 0000 9114 903a d0fe da3b
00000010: dc7e fd39 88bd fc12 0000 0000 f4e7 3c3c
00000020: c3da 8d12 276a f0ba 02cb 263b e565 2cbb
00000030: b3b9 9116 2c82 02bb 7758 1d3b d7a0 02bb
00000040: cdc6 8a3a 0000 0000 9908 0bbb 4afa 5539
00000050: 0000 0000

exp_avg_sq f4 [21]
0.026106587 0.0 0.06502299 0.00263541 0.35578203 3.1471614e-06 0.0 1.2114863
1.0238504 1.1249832 0.0065041073 0.07565397 0.00032374656 0.30012912 2.6993384 0.3299075
0.09611879 0.0 0.41303763 0.8690204 0.0
00000000: 7bdd d53c 0000 0000 c62a 853d d8b6 2c3b
00000010: 1029 b63e d233 5336 0000 0000 fc11 9b3f
00000020: 880d 833f 73ff 8f3f 6820 d53b 78f0 9a3d
00000030: 87bc a939 86aa 993e f6c1 2c40 a3e9 a83e
00000040: eed9 c43d 0000 0000 ab79 d33e 1f78 5e3f
00000050: 0000 0000

exp_avg f4 [2, 21]
9.532665 0.0 8.090756 -1.9080156 12.298349 9.843255e-29 0.0 1.6711106
1.8382319e-25 10.157464 0.34281477 13.32827 1.0903203e-24 2.2820592 11.324165 13.0394125
5.4595675 0.0 1.9218214 0.002160601 0.0 -10.604043 0.0 -7.680255
3.3664858 -14.89059 0.0 0.0 -2.1543572 -1.8897644e-25 -11.579522 -2.8171268
-15.507991 -8.5215224e-24 -2.4803488 -12.866239 -18.152267 -7.101067 0.0 -3.9102483
-4.164692e-18 0.0
00000000: cc85 1841 0000 0000 bd73 0141 db39 f4bf
00000010: 0ac6 4441 618e f910 0000 0000 f4e6 d53f
00000020: e58f 6316 f984 2241 6b85 af3e 9840 5541
00000030: 09b8 a817 420d 1240 c82f 3541 6fa1 5041
00000040: c7b4 ae40 0000 0000 3efe f53f df98 0d3b
00000050: 0000 0000 29aa 29c1 0000 0000 a6c4 f5c0
00000060: 8174 5740 db3f 6ec1 0000 0000 0000 0000
00000070: fde0 09c0 06f1 6996 b945 39c1 ce4b 34c0
00000080: bb20 78c1 89d4 2499 09be 1ec0 1ddc 4dc1
00000090: d837 91c1 f13b e3c0 0000 0000 8241 7ac0
000000a0: 67a6 99a2 0000 0000

exp_avg_sq f4 [2, 21]
1.03388356e+06 0.0 302145.38 861.81744 2.6910798e+06 1.19857555e-08 0.0 146115.75
64092.547 546195.2 13206.822 2.8715595e+06 0.5524807 81544.555 1.8917506e+06 2.1227302e+06
622304.8 0.0 220124.62 689.00555 0.0 1.0618664e+06 0.0 304953.97
960.5377 2.765722e+06 0.0 0.0 152336.0 67493.37 551712.1 13440.189
2.9461735e+06 1.8705779 79807.445 1.9473842e+06 2.1373842e+06 627641.6 0.0 220796.42
665.6273 0.0
00000000: b969 7c49 0000 0000 2c88 9348 5174 5744
00000010: 1f40 244a e9e9 4d32 0000 0000 f0b0 0e48
00000020: 8c5c 7a47 3359 0549 4a5b 4e46 1e44 2f4a
00000030: 606f 0d3f 4744 9f47 35ed e649 a98f 014a
00000040: 0dee 1749 0000 0000 28f7 5648 5b40 2c44
00000050: 0000 0000 539f 8149 0000 0000 3fe7 9448
00000060: 6a22 7044 68ce 284a 0000 0000 0000 0000
00000070: 00c4 1448 afd2 8347 02b2 0649 c200 5246
00000080: f6d1 334a 196f ef3f b9df 9b47 c2b7 ed49
00000090: a174 024a 9a3b 1949 0000 0000 1b9f 5748
000000a0: 2668 2644 0000 0000

exp_avg f4 [2]
0.003576354 -0.014011165
00000000: 4361 6a3b 168f 65bc

exp_avg_sq f4 [2]
27.822245 28.101028
00000000: f593 de41 e8ce e041
