runs/ml-model-test-85/model.pt (torch, 14505 bytes, 18 tensors)

fc1.weight f4 [21, 7]
-0.33140922 -0.058862124 -0.008372514 -0.15313755 0.1375481 0.024361216 0.2653555 -0.033567596
-0.2385479 0.26705146 0.052782282 -0.10824833 -0.24911743 0.0885907 -0.36048457 0.099547446
0.18688254 -0.33155063 -0.2474429 -0.27172843 0.3176816 0.3213154 0.023660898 0.35483524
-0.12635502 -0.3669363 0.13202105 0.13390093 0.35847312 -0.01223769 0.30173668 0.22171281
0.26143035 -0.38719484 0.29693785 -0.3221969 0.33884934 -0.015663076 -0.33495858 0.10510918
-0.07693344 -0.33948517 -0.14110114 0.034910318 0.296034 -0.120234944 0.22043899 0.043272156
0.008680627 0.07720573 -0.24263671 -0.31893173 -0.11261655 -0.346798 -0.17085436 0.023431936
-0.2489309 -0.15677814 -0.06791508 -0.043542784 -0.2086419 0.01816157 -0.05305127 0.09771008
0.0057277186 -0.17854379 -0.14036925 -0.0157003 -0.24718824 0.015505016 -0.05060463 0.12361844
0.11369511 0.25796792 -0.035483506 -0.3023035 0.15598644 -0.2554427 -0.05195211 -0.12238592
-0.14341652 -0.13984077 0.3473193 0.21636835 0.11350544 0.36336303 -0.35133293 0.06962775
0.25043467 0.2595488 -0.29037467 0.12747179 -0.2221804 -0.0076910574 -0.08623754 -0.32244647
-0.3674053 -0.2572138 0.16357799 0.16622253 -0.32055378 -0.1494486 -0.0004980351 -0.33345342
0.20524587 0.31845573 0.038779054 -0.25797158 0.06296637 0.10913779 0.2712201 -0.22235078
-0.33862206 0.16605891 0.023530683 -0.1231508 -0.15837555 -0.19488446 0.3059611 -0.072552174
0.2659877 0.34563702 0.03952315 0.07391015 -0.032344095 0.25298887 -0.3405792 0.15031005
-0.061581306 0.17258473 -0.0016834601 -0.13994741 -0.040801253 0.19887526 -0.26617166 -0.23338684
-0.089544386 -0.14076085 0.14481537 0.26224566 -0.02676171 0.3713628 -0.17158999 -0.2000685
-0.15524273 -0.24643736 -0.25267068
00000000: 78ae a9be 6919 71bd de2c 09bc 17d0 1cbe
00000010: 69d9 0c3e 2c91 c73c addc 873e 2d7e 09bd
00000020: e745 74be f8ba 883e 3c32 583d 4db1 ddbd
00000030: a418 7fbe 0a6f b53d 6f91 b8be 88df cb3d
00000040: 235e 3f3e 01c1 a9be ac61 7dbe fd1f 8bbe
00000050: 2aa7 a23e 7483 a43e 80d4 c13c f7ac b53e
00000060: 3663 01be 13df bbbe 8730 073e 531d 093e
00000070: ca89 b73e 9880 48bc 3b7d 9a3e af08 633e
00000080: 33da 853e 673e c6be 3d08 983e fef6 a4be
00000090: a97d ad3e da4f 80bc b17f abbe 7b43 d73d
000000a0: 488f 9dbd 00d1 adbe d17c 10be 1ffe 0e3d
000000b0: c591 973e bd3d f6bd c2ba 613e 253e 313d
000000c0: 3039 0e3c 0a1e 9e3d c275 78be 054b a3be
000000d0: 81a3 e6bd 828f b1be 72f4 2ebe 55f4 bf3c
000000e0: bee7 7ebe 738a 20be 1017 8bbd eb59 32bd
000000f0: 39a6 55be 93c7 943c 4a4c 59bd 391c c83d
00000100: 96af bb3b 2fd4 36be f5bc 0fbe ea9d 80bc
00000110: ea1e 7dbe c008 7e3c cd46 4fbd aa2b fd3d
00000120: fbd8 e83d 5f14 843e 2757 11bd 86c7 9abe
00000130: e9ba 1f3e 63c9 82be bccb 54bd 78a5 fabd
00000140: c8db 12be 6b32 0fbe d6d3 b13e aa8f 5d3e
00000150: 8a75 e83d b80a ba3e e9e1 b3be fe98 8e3d
00000160: f938 803e 95e3 843e fdab 94be f787 023e
00000170: 4283 63be 4405 fcbb 4f9d b0bd b417 a5be
00000180: 8c1c bcbe 87b1 83be fd80 273e 3d36 2a3e
00000190: a01f a4be 0e09 19be 928e 02ba 68ba aabe
000001a0: f92b 523e a10c a33e c9d6 1e3d da14 84be
000001b0: 83f4 803d a283 df3d 5cdd 8a3e ecaf 63be
000001c0: df5f adbe 590b 2a3e 6bc3 c03c 7d36 fcbd
000001d0: 332d 22be cb8f 47be efa6 9c3e 3c96 94bd
000001e0: 8a2f 883e 56f7 b03e 07e3 213d 345e 973d
000001f0: 3e7b 04bd c287 813e 6660 aebe e1ea 193e
00000200: ae3c 7cbd 0dba 303e 8ca7 dcba 604e 0fbe
00000210: 371f 27bd f5a5 4b3e a747 88be f6fc 6ebe
00000220: 0c63 b7bd 9d23 10be 7b4a 143e 1045 863e
00000230: 603b dbbc 4423 be3e 49b5 2fbe c2de 4cbe
00000240: f3f7 1ebe 135a 7cbe 0d5e 81be

fc1.bias f4 [21]
-0.3367722 -0.33498207 0.0986482 0.23050314 0.34272236 0.32194912 -0.02582812 0.078752704
-0.22614361 0.13474725 -0.38543144 0.1782756 0.077795304 0.10929066 0.13171922 -0.20159361
0.32433373 0.17378159 0.24828285 0.046257075 0.251326
00000000: 686d acbe c582 abbe 1108 ca3d 0409 6c3e
00000010: 4e79 af3e 84d6 a43e 7e95 d3bc 1949 a13d
00000020: 3192 67be 2ffb 093e 4557 c5be e18d 363e
00000030: 2553 9f3d c8d3 df3d 67e1 063e 8e6e 4ebe
00000040: 120f a63e cdf3 313e dc3d 7e3e 0f78 3d3d
00000050: cdad 803e

fc2.weight f4 [21, 21]
0.14686087 0.09890397 0.16623156 -0.0395799 0.13523003 0.050277214 0.12750994 0.20397034
0.049412627 -0.08983465 0.019996844 0.061434552 0.02840994 -0.06928204 0.16222845 0.122490905
-0.13554685 -0.02777721 -0.020947555 -0.14560348 0.02334745 -0.066991344 -0.11265749 -0.07016732
-0.07780527 0.19697629 0.08370227 0.21096045 0.04690696 0.04941135 0.07712504 0.08244452
-0.17125118 -0.14141853 -0.06492135 -0.009216346 0.06980557 0.08402442 0.1631388 0.044423215
-0.08717256 -0.1770892 -0.15982512 -0.13034973 0.06581529 0.11789704 0.1948086 -0.069024876
-0.021000694 -0.07612509 -0.0007973689 0.07505806 -0.0020306353 0.010102356 0.031771343 0.08126833
-0.061739773 -0.12582727 0.051482968 -0.0113845 -0.09885881 0.08032109 0.0065393024 -0.03174299
-0.10563574 -0.02871004 -0.18555616 0.058487725 0.003274722 0.12861407 0.023325501 0.01744701
0.06904164 0.12451189 -0.103120536 0.13919713 0.06480361 -0.13612251 0.08527959 -0.13087258
-0.059257906 -0.10401767 -0.13884823 0.18067607 -0.1950477 0.109112225 -0.1963987 -0.026558429
0.013014995 0.15513341 -0.07897165 0.06280911 0.033803243 0.12839611 0.012973399 0.08171051
-0.13182342 -0.15164201 0.19444908 -0.15900819 -0.037149347 -0.026378207 0.21339095 -0.047159847
-0.16613024 -0.055317998 0.1125614 0.08647761 0.18052994 -0.044672895 0.10279056 -0.20535177
0.084437184 0.10026321 0.14076953 -0.12513535 -0.05825946 0.052793406 -0.15506884 -0.17358819
-0.20993495 0.012181545 0.13551067 0.056051426 0.013303641 0.07603276 -0.13712902 0.02300583
-0.05421047 -0.10804921 0.19018555 -0.16882485 0.028195307 -0.19145818 -0.0074034184 -0.09703965
0.113463596 -0.122537635 0.1404822 -0.17218232 0.1311931 -0.16323656 0.11687432 -0.10175003
-0.00050835777 -0.04019589 0.14098439 0.071516015 -0.19229457 0.020063067 -0.1505403 0.16944394
0.03585314 -0.05232917 -0.10468041 0.07553153 -0.12358084 0.054942098 0.11907611 0.14032131
0.065941714 -0.18406898 0.16374841 -0.06769631 -0.10403794 -0.023445096 0.16665165 0.17411932
0.033695467 0.10412308 -0.20337841 0.0005154855 -0.1930538 0.07427036 -0.15546921 -0.07777388
0.15254113 0.20854995 -0.13101375 -0.121113315 0.027025426 0.0857826 -0.035541654 -0.06814733
-0.14333504 0.09315192 0.21380156 -0.10563473 0.102925465 0.10657644 0.1754029 -0.024844939
0.0068733916 0.15540282 0.13793857 0.21553537 -0.056034487 0.0863459 0.15412411 -0.19896042
0.04335091 -0.051336393 0.14027576 -0.09831643 0.013820233 0.1305621 -0.2425178 -0.18425493
-0.10679662 0.14047043 0.14632116 -0.14903629 0.04161138 -0.11562949 -0.115011245 0.18819492
0.105401225 -0.07377099 0.03212201 0.028381405 0.05111558 -0.07469134 -0.14249362 0.13114543
0.015401414 0.077457026 -0.082645595 0.105698094 0.1588115 0.11882601 0.044845328 0.21470086
-0.0004772455 0.04645795 0.20733534 0.22071943 -0.09213598 0.19258688 0.089546725 -0.024426797
0.19993454 -0.15473555 0.14178677 0.2249416 -0.13920125 -0.11951851 -0.2071427 -0.039271016
-0.1886114 -0.073085964 0.07565688 0.16284192 0.12155505 0.12112858 0.09053071 -0.13534601
00000000: b262 163e 2a8e ca3d 9b38 2a3e 891e 22bd
00000010: be79 0a3e 7bef 4d3d f791 023e 9add 503e
00000020: e564 4a3d 3bfb b7bd 6cd0 a33c cca2 7b3d
00000030: f6bb e83c bee3 8dbd 371f 263e 83dc fa3d
00000040: cbcc 0abe 088d e3bc 359a abbc 1419 15be
00000050: 2743 bf3c c232 89bd f8b8 e6bd e2b3 8fbd
00000060: 5f58 9fbd 27b4 493e 196c ab3d 0406 583e
00000070: 8321 403d 8e63 4a3d bcf3 9d3d acd8 a83d
00000080: 785c 2fbe 05d0 10be 7cf5 84bd 2800 17bc
00000090: 39f6 8e3d ff14 ac3d dc0d 273e 1ef5 353d
000000a0: 8787 b2bd df56 35be 32a9 23be 667a 05be
000000b0: 2bca 863d 0174 f13d e87b 473e ea5c 8dbd
000000c0: a609 acbc 79e7 9bbd 8506 51ba 0ab8 993d
000000d0: 6814 05bb 5a84 253c ab22 023d 0370 a63d
000000e0: d8e2 7cbd ddd8 00be cedf 523d 0e86 3abc
000000f0: 7d76 cabd 627f a43d a547 d63b f004 02bd
00000100: 8d57 d8bd 5131 ebbc 6f02 3ebe d390 6f3d
00000110: b89c 563b 68b3 033e 1f15 bf3c 08ed 8e3c
00000120: b465 8d3d 1700 ff3d dc30 d3bd b189 0e3e
00000130: c1b7 843d b363 0bbe 11a7 ae3d 7603 06be
00000140: 6bb8 72bd 3707 d5bd 3b2e 0ebe 2603 393e
00000150: 96ba 47be 3b76 df3d be1c 49be 1091 d9bc
00000160: d83c 553c 4bdb 1e3e e3bb a1bd 10a2 803d
00000170: 4575 0a3d 457a 033e 618e 543c d757 a73d
00000180: b8fc 06be 0b48 1bbe a91d 473e 0bd3 22be
00000190: ea29 18bd 1c17 d8bc 2883 5a3e af2a 41bd
000001a0: 0c1e 2abe 2095 62bd 9786 e63d 2c1b b13d
000001b0: d7dc 383e edfa 36bd db83 d23d bc47 52be
000001c0: 67ed ac3d cc56 cd3d e325 103e 7b23 00be
000001d0: 79a1 6ebd e63d 583d 5eca 1ebe 1ac1 31be
000001e0: 30f9 56be 1a95 473c 4fc3 0a3e 2e96 653d
000001f0: 84f7 593c 10b7 9b3d 8d6b 0cbe b976 bc3c
00000200: cc0b 5ebd e748 ddbd 00c0 423e 6ce0 2cbe
00000210: d8f9 e63c 9d0d 44be 6098 f2bb b9bc c6bd
00000220: 9a5f e83d 03f5 fabd 91da 0f3e 9050 30be
00000230: 7c57 063e 7c27 27be ce5b ef3d 5262 d0bd
00000240: 5043 05ba 72a4 24bd 365e 103e fd76 923d
00000250: dee8 44be 4d5b a43c 3d27 1abe b682 2d3e
00000260: beda 123d 1d57 56bd af62 d6bd 46b0 9a3d
00000270: f417 fdbd f70a 613d 2dde f33d 64b0 0f3e
00000280: 730c 873d 947c 3cbe aaad 273e 5da4 8abd
00000290: d811 d5bd ee0f c0bc bba6 2a3e 564c 323e
000002a0: 4204 0a3d 7b3e d53d 6e42 50be a521 073a
000002b0: e5af 45be 0f1b 983d 5233 1fbe e947 9fbd
000002c0: be33 1c3e 1e8e 553e 7828 06be 420a f8bd
000002d0: 6d64 dd3c caae af3d 2094 11bd d490 8bbd
000002e0: 6cc6 12be 6fc6 be3d ccee 5a3e 0557 d8bd
000002f0: 96ca d23d c044 da3d d19c 333e 9d87 cbbc
00000300: 303a e13b eb21 1f3e c53f 0d3e 4eb5 5c3e
00000310: 6b84 65bd 1fd6 b03d b6d2 1d3e 48bc 4bbe
00000320: b990 313d 1c46 52bd 73a4 0f3e 205a c9bd
00000330: 426e 623c 12b2 053e 9656 78be 53ad 3cbe
00000340: 30b8 dabd 7bd7 0f3e 37d5 153e f89c 18be
00000350: b270 2a3d 27cf ecbd 048b ebbd 2bb6 403e
00000360: 99dc d73d 3f15 97bd 5e92 033d 1f80 e83c
00000370: 925e 513d c6f7 98bd d9e9 11be fd4a 063e
00000380: 3656 7c3c caa1 9e3d 1842 a9bd 3e78 d83d
00000390: 7b9f 223e 0d5b f33d bcaf 373d 8bda 5b3e
000003a0: cf36 fab9 b14a 3e3d b74f 543e 4604 623e
000003b0: cab1 bcbd 7f35 453e 4664 b73d b51a c8bc
000003c0: a4bb 4c3e ff72 1ebe 8d30 113e 1757 663e
000003d0: c68a 0ebe 1fc6 f4bd 371d 54be a5da 20bd
000003e0: 5923 41be 18ae 95bd fff1 9a3d 08c0 263e
000003f0: dbf1 f83d 4312 f83d 2a68 b93d 2598 0abe

fc2.bias f4 [21]
0.009895914 0.11572805 0.045798123 0.03700768 0.031917438 -0.06392705 -0.039167844 -0.08649912
-0.14741242 -0.120923415 0.20170255 -0.028726835 0.07644086 0.14635012 -0.024341376 -0.112034746
-0.14785114 -0.1156058 0.07479819 -0.18377407 -0.02006783
00000000: 7922 223c d402 ed3d d096 3b3d 5d95 173d
00000010: dcbb 023d 2fec 82bd 766e 20bd 7326 b1bd
00000020: 48f3 16be b2a6 f7bd 1d8b 4e3e 8a54 ebbc
00000030: 078d 9c3d cedc 153e 9167 c7bc 7972 e5bd
00000040: 4a66 17be bcc2 ecbd cb2f 993d 452f 3cbe
00000050: 4a65 a4bc

fc3.weight f4 [2, 21]
0.07473402 0.16867852 0.064481 0.037309825 0.14938994 0.100835845 0.06739199 -0.07472054
-0.17498867 -0.04413359 -0.050513934 0.009849241 -0.023999654 0.08365982 0.13601689 -0.09531883
-0.20705837 -0.06945613 -0.104409926 0.123694666 -0.14777382 -0.011085175 -0.03586574 -0.123981655
0.105990686 -0.09089987 -0.011288888 -0.148418 -0.013744882 0.031005662 -0.011585181 -0.0695959
0.072231926 -0.05653973 -0.11542093 -0.15077877 -0.03814683 -0.20614573 0.14094877 -0.102872156
-0.09043347 0.028395735
00000000: 260e 993d 10ba 2c3e 9d0e 843d 30d2 183d
00000010: adf9 183e 0683 ce3d d004 8a3d 1507 99bd
00000020: 3b30 33be 6cc5 34bd b3e7 4ebd b65e 213c
00000030: ec9a c4bc d755 ab3d 0348 0b3e 8536 c3bd
00000040: 1c07 54be 043f 8ebd dfd4 d5bd a153 fd3d
00000050: 0552 17be 989e 35bc f4e7 12bd 18ea fdbd
00000060: a511 d93d b629 babd 07f5 38bc e3fa 17be
00000070: 3732 61bc 96ff fd3c c5cf 3dbc 4c88 8ebd
00000080: 55ee 933d 3496 67bd cf61 ecbd c065 1abe
00000090: da3f 1cbd de17 53be e054 103e a3ae d2bd
000000a0: 2f35 b9bd 2c9e e83c

fc3.bias f4 [2]
0.04956667 -0.012427351
00000000: 6c06 4b3d 179c 4bbc

exp_avg f4 [21, 7]
0.0 0.0 0.0 0.0 0.0 0.0 0.0 0.0
0.0 0.0 0.0 0.0 0.0 0.0 0.0 0.0
0.0 0.0 0.0 0.0 0.0 0.0 0.0 0.0
0.0 0.0 0.0 0.0 10.388216 13.349588 2.0300055 12.594466
12.418221 0.31045553 0.031080984 0.0 0.0 0.0 0.0 0.0
0.0 0.0 2.5389464 2.7765343 0.043876193 2.5786023 2.5828226 0.064570576
0.006457057 -0.05282152 -0.021759177 0.03258043 -0.011378961 -0.020241093 -0.0005060273 -5.3229178e-05
0.0 0.0 0.0 0.0 0.0 0.0 0.0 4.4948645
3.0851672 -1.6249421 2.0440023 2.8699229 0.07174806 0.00675824 13.525389 15.252014
0.6625303 13.965772 14.187919 0.354698 0.035300102 0.0 0.0 0.0
0.0 0.0 0.0 0.0 -4.1417947 -6.306539 -1.7247541 -6.3315043
-5.8665476 -0.14666368 -0.014714673 -1.075553e-06 -1.2876345e-07 9.557723e-07 7.674151e-08 -1.1977973e-07
-2.994495e-09 -4.0690748e-10 1.3182952 10.621892 8.562531 12.826829 9.880825 0.24702063
0.025585758 -2.1972167 -8.323363 -5.5454493 -9.529699 -7.742663 -0.19356647 -0.01978143
0.0 0.0 0.0 0.0 0.0 0.0 0.0 10.766255
6.8933325 -4.3538537 4.600803 6.412403 0.16031004 0.016031012 0.0 0.0
0.0 0.0 0.0 0.0 0.0 -0.11061013 -0.032520395 0.08035858
-0.07060492 -0.03025153 -0.00075628806 0.0006183584 -0.13602974 1.0148834 1.0801082 1.5605869
0.9440775 0.023601929 0.002336367
00000000: 0000 0000 0000 0000 0000 0000 0000 0000
00000010: 0000 0000 0000 0000 0000 0000 0000 0000
00000020: 0000 0000 0000 0000 0000 0000 0000 0000
00000030: 0000 0000 0000 0000 0000 0000 0000 0000
00000040: 0000 0000 0000 0000 0000 0000 0000 0000
00000050: 0000 0000 0000 0000 0000 0000 0000 0000
00000060: 0000 0000 0000 0000 0000 0000 0000 0000
00000070: 2236 2641 ea97 5541 9ceb 0140 ef82 4941
00000080: 09b1 4641 07f4 9e3e 8c9d fe3c 0000 0000
00000090: 0000 0000 0000 0000 0000 0000 0000 0000
000000a0: 0000 0000 0000 0000 197e 2240 bdb2 3140
000000b0: 86b7 333d d207 2540 f74c 2540 943d 843d
000000c0: b895 d33b 615b 58bd 4d40 b2bc 0f73 053d
000000d0: d26e 3abc a6d0 a5bc eba6 04ba 6542 5fb8
000000e0: 0000 0000 0000 0000 0000 0000 0000 0000
000000f0: 0000 0000 0000 0000 0000 0000 eed5 8f40
00000100: 6173 4540 1afe cfbf efd0 0240 d1ac 3740
00000110: a6f0 923d 3a74 dd3b fe67 5841 4008 7441
00000120: 969b 293f cd73 5f41 b701 6341 fa9a b53e
00000130: d796 103d 0000 0000 0000 0000 0000 0000
00000140: 0000 0000 0000 0000 0000 0000 0000 0000
00000150: 9589 84c0 2bcf c9c0 bec4 dcbf af9b cac0
00000160: c2ba bbc0 012f 16be d015 71bc b85b 90b5
00000170: 3a42 0ab4 1648 8035 17cd a433 cd9c 00b4
00000180: b7c7 4db1 23b3 dfaf e6bd a83f 45f3 2941
00000190: 2100 0941 b13a 4d41 dc17 1e41 faf2 7c3e
000001a0: 3999 d13c 339f 0cc0 7f2c 05c1 5274 b1c0
000001b0: a679 18c1 e5c3 f7c0 4a36 46be aa0c a2bc
000001c0: 0000 0000 0000 0000 0000 0000 0000 0000
000001d0: 0000 0000 0000 0000 0000 0000 9542 2c41
000001e0: 2e96 dc40 c552 8bc0 c739 9340 6832 cd40
000001f0: 5128 243e 7853 833c 0000 0000 0000 0000
00000200: 0000 0000 0000 0000 0000 0000 0000 0000
00000210: 0000 0000 9087 e2bd 1b34 05bd 0a93 a43d
00000220: 5099 90bd 0fd2 f7bc a241 46ba 5419 223a
00000230: 614b 0bbe b3e7 813f fc40 8a3f 50c1 c73f
00000240: 10af 713f d558 c13c bc1d 193b

exp_avg_sq f4 [21, 7]
0.0 0.0 0.0 0.0 0.0 0.0 0.0 0.0
0.0 0.0 0.0 0.0 0.0 0.0 0.0 0.0
0.0 0.0 0.0 0.0 0.0 0.0 0.0 0.0
0.0 0.0 0.0 0.0 688298.25 22015.115 479213.72 24088.662
19050.4 11.906498 0.09243938 0.0 0.0 0.0 0.0 0.0
0.0 0.0 0.49205425 0.59758466 0.0004553359 0.52740526 0.51710945 0.00032319347
3.2319342e-06 526483.25 18882.361 358196.53 17567.143 16339.515 10.212194 0.074866325
0.0 0.0 0.0 0.0 0.0 0.0 0.0 1.7116099e+06
52213.87 1.2012172e+06 65594.16 45182.39 28.23895 0.15803862 424.86926 80.0308
180.46858 63.465458 69.25324 0.043283273 0.0004480359 0.0 0.0 0.0
0.0 0.0 0.0 0.0 3.45995e+06 106657.87 2.4226138e+06 123543.09
92294.55 57.68405 0.31597796 1.3512746e+06 41647.277 946109.56 48727.72 36038.742
22.524204 0.12414033 5.666269e+06 186329.98 3.926609e+06 184530.94 161237.61 100.77351
0.79016066 175566.98 7831.5093 116006.375 6366.229 6776.8555 4.23554 0.03910411
0.0 0.0 0.0 0.0 0.0 0.0 0.0 995.7643
482.02383 124.18808 218.6966 417.11096 0.2606943 0.0026069437 0.0 0.0
0.0 0.0 0.0 0.0 0.0 326610.7 9908.336 229743.5
15017.0625 8574.012 5.3587575 0.025278324 242136.36 8651.675 165129.94 9244.093
7486.5806 4.6791143 0.027377002
00000000: 0000 0000 0000 0000 0000 0000 0000 0000
00000010: 0000 0000 0000 0000 0000 0000 0000 0000
00000020: 0000 0000 0000 0000 0000 0000 0000 0000
00000030: 0000 0000 0000 0000 0000 0000 0000 0000
00000040: 0000 0000 0000 0000 0000 0000 0000 0000
00000050: 0000 0000 0000 0000 0000 0000 0000 0000
00000060: 0000 0000 0000 0000 0000 0000 0000 0000
00000070: a40a 2849 3bfe ab46 b7fd e948 5331 bc46
00000080: cdd4 9446 0481 3e41 dc50 bd3d 0000 0000
00000090: 0000 0000 0000 0000 0000 0000 0000 0000
000000a0: 0000 0000 0000 0000 89ee fb3e 4ffb 183f
000000b0: 26ba ee39 0804 073f 4961 043f 4b72 a939
000000c0: 35e4 5836 3489 0049 b984 9346 91e6 ae48
000000d0: 493e 8946 0f4e 7f46 2665 2341 8453 993d
000000e0: 0000 0000 0000 0000 0000 0000 0000 0000
000000f0: 0000 0000 0000 0000 0000 0000 cfef d049
00000100: dff5 4b47 0aa2 9249 141d 8047 647e 3047
00000110: 5fe9 e141 e0d4 213e 446f d443 c50f a042
00000120: f577 3443 a1dc 7d42 a981 8a42 cd49 313d
00000130: 5ce6 ea39 0000 0000 0000 0000 0000 0000
00000140: 0000 0000 0000 0000 0000 0000 0000 0000
00000150: b82d 534a ef50 d047 57dd 134a 8c4b f147
00000160: 4643 b447 78bc 6642 ddc7 a13e 55f3 a449
00000170: 47af 2247 d9fb 6649 b857 3e47 bec6 0c47
00000180: 9231 b441 493d fe3d baeb ac4a 7ff6 3548
00000190: 44a9 6f4a bc34 3448 6775 1d48 0a8c c942
000001a0: f847 4a3f bf73 2b48 13bc f445 3093 e247
000001b0: d5f1 c645 d8c6 d345 8b89 8740 a22b 203d
000001c0: 0000 0000 0000 0000 0000 0000 0000 0000
000001d0: 0000 0000 0000 0000 0000 0000 eaf0 7844
000001e0: 0d03 f143 4c60 f842 54b2 5a43 348e d043
000001f0: b979 853e 42d9 2a3b 0000 0000 0000 0000
00000200: 0000 0000 0000 0000 0000 0000 0000 0000
00000210: 0000 0000 567a 9f48 58d1 1a46 e05b 6048
00000220: 40a4 6a46 0cf8 0546 f17a ab40 7d14 cf3c
00000230: 1776 6c48 b32e 0746 7c42 2148 5f70 1046
00000240: a5f4 e945 4ebb 9540 bc45 e03c

exp_avg f4 [21]
0.0 0.0 0.0 0.0 0.031045554 0.0 0.006457057 -5.060273e-05
0.0 0.007174809 0.035469797 0.0 -0.014666371 -2.9944894e-10 0.024702063 -0.01935665
0.0 0.016031012 0.0 -7.562883e-05 0.0023601942
00000000: 0000 0000 0000 0000 0000 0000 0000 0000
00000010: 3f53 fe3c 0000 0000 b895 d33b 453e 54b8
00000020: 0000 0000 a91a eb3b c748 113d 0000 0000
00000030: 384b 70bc b19f a4af fb5b ca3c d691 9ebc
00000040: 0000 0000 7853 833c 0000 0000 eb9a 9eb8
00000050: 7dad 1a3b

exp_avg_sq f4 [21]
0.0 0.0 0.0 0.0 0.119064964 0.0 3.2319342e-06 0.10212197
0.0 0.28238964 0.00043283275 0.0 0.5768404 0.22524224 1.007735 0.042355355
0.0 0.0026069437 0.0 0.053587608 0.046791133
00000000: 0000 0000 0000 0000 0000 0000 0000 0000
00000010: 55d8 f33d 0000 0000 35e4 5836 5325 d13d
00000020: 0000 0000 6095 903e d4ed e239 0000 0000
00000030: d0ab 133f e7a5 663e 76fd 803f cf7c 2d3d
00000040: 0000 0000 42d9 2a3b 0000 0000 ae7e 5b3d
00000050: 0fa8 3f3d

exp_avg f4 [21, 21]
0.0 0.0 0.0 0.0 10.017282 0.0 0.13939627 -0.0013568071
0.0 -1.5569488 5.3228245 0.0 7.3049436 -4.9329394e-08 -0.96991915 2.9719245
0.0 5.736014 0.0 0.011896867 -1.1542587 0.0 0.0 0.0
0.0 23.743895 0.0 0.31703243 -0.00018539304 0.0 -3.7397237 12.639351
0.0 17.261028 7.5513105e-07 -2.3572366 6.964471 0.0 13.61 0.0
-0.02487119 -2.7469287 0.0 0.0 0.0 0.0 26.652752 0.0
0.14811687 0.000121133075 0.0 -2.3834367 11.9524355 0.0 23.074213 0.0
1.623014 12.354463 0.0 12.957471 0.0 0.00042288916 -1.2398463 0.0
0.0 0.0 0.0 -8.149956 0.0 0.04530845 0.0010400135 0.0
0.85232663 -3.6838756 0.0 -6.9637036 1.0308997e-07 -0.4257166 -3.5649588 0.0
-3.9381108 0.0 0.004470913 0.32986385 0.0 0.0 0.0 0.0
0.0 0.0 0.0 0.0 0.0 0.0 0.0 0.0
0.0 0.0 0.0 0.0 0.0 0.0 0.0 0.0
0.0 0.0 0.0 0.0 0.0 0.0 0.0 0.0
0.0 0.0 0.0 0.0 0.0 0.0 0.0 0.0
0.0 0.0 0.0 0.0 0.0 0.0 0.0 0.0
0.0 0.0 26.607065 0.0 0.15600297 -0.0028338048 0.0 -3.2132666
12.86488 0.0 21.45191 -2.7813599e-07 -0.17464355 10.301656 0.0 13.872878
0.0 0.013432473 -1.9410561 0.0 0.0 0.0 0.0 -6.913597
0.0 -0.13394909 0.0010645585 0.0 1.2238735 -3.8833892 0.0 -4.7049956
1.5975642e-07 1.0648683 -1.658083 0.0 -4.1851106 0.0 -0.011376854 0.9838003
0.0 0.0 0.0 0.0 0.0 0.0 0.0 0.0
0.0 0.0 0.0 0.0 0.0 0.0 0.0 0.0
0.0 0.0 0.0 0.0 0.0 0.0 0.0 0.0
0.0 4.7000203 0.0 0.0 0.0017880887 0.0 0.79742503 0.7309194
0.0 6.3699884 0.0 2.9092083 5.089798 0.0 0.9437031 0.0
-0.0026579897 0.8482641 0.0 0.0 0.0 0.0 6.978432e-07 0.0
0.0 7.141414e-07 0.0 7.938774e-07 0.0 0.0 1.6848869e-06 1.2582603e-07
1.4779357e-06 2.051709e-06 0.0 0.0 0.0 1.0367413e-06 3.1284966e-07 0.0
0.0 0.0 0.0 -7.3594813 0.0 0.002322643 0.00096973317 0.0
0.8735277 -3.4872243 0.0 -6.034419 1.1426727e-07 -0.08253012 -2.9329374 0.0
-3.7365496 0.0 0.000653181 0.44858134 0.0 0.0 0.0 0.0
00000000: 0000 0000 0000 0000 0000 0000 0000 0000
00000010: c946 2041 0000 0000 e5bd 0e3e e4d6 b1ba
00000020: 0000 0000 194a c7bf 9454 aa40 0000 0000
00000030: 19c2 e940 3ede 53b3 9f4c 78bf 0334 3e40
00000040: 0000 0000 6d8d b740 0000 0000 14eb 423c
00000050: c0be 93bf 0000 0000 0000 0000 0000 0000
00000060: 0000 0000 7ff3 bd41 0000 0000 1352 a23e
00000070: 1166 42b9 0000 0000 a257 6fc0 c83a 4a41
00000080: 0000 0000 9616 8a41 36b4 4a35 f7dc 16c0
00000090: f2dc de40 0000 0000 8fc2 5941 0000 0000
000000a0: aabe cbbc aecd 2fc0 0000 0000 0000 0000
000000b0: 0000 0000 0000 0000 d638 d541 0000 0000
000000c0: f3ab 173e d308 fe38 0000 0000 3a8a 18c0
000000d0: 2d3d 3f41 0000 0000 fd97 b841 0000 0000
000000e0: ecbe cf3f e1ab 4541 0000 0000 cd51 4f41
000000f0: 0000 0000 39b7 dd39 49b3 9ebf 0000 0000
00000100: 0000 0000 0000 0000 0000 0000 3866 02c1
00000110: 0000 0000 5a95 393d 1051 883a 0000 0000
00000120: 1432 5a3f 9ec4 6bc0 0000 0000 a9d6 dec0
00000130: 4f62 dd33 87f7 d9be 4928 64c0 0000 0000
00000140: 020a 7cc0 0000 0000 bd80 923b eae3 a83e
00000150: 0000 0000 0000 0000 0000 0000 0000 0000
00000160: 0000 0000 0000 0000 0000 0000 0000 0000
00000170: 0000 0000 0000 0000 0000 0000 0000 0000
00000180: 0000 0000 0000 0000 0000 0000 0000 0000
00000190: 0000 0000 0000 0000 0000 0000 0000 0000
000001a0: 0000 0000 0000 0000 0000 0000 0000 0000
000001b0: 0000 0000 0000 0000 0000 0000 0000 0000
000001c0: 0000 0000 0000 0000 0000 0000 0000 0000
000001d0: 0000 0000 0000 0000 0000 0000 0000 0000
000001e0: 0000 0000 0000 0000 0000 0000 0000 0000
000001f0: 0000 0000 0000 0000 0000 0000 0000 0000
00000200: 0000 0000 0000 0000 45db d441 0000 0000
00000210: 3ebf 1f3e 5bb7 39bb 0000 0000 29a6 4dc0
00000220: 8cd6 4d41 0000 0000 839d ab41 b852 95b4
00000230: c2d5 32be 95d3 2441 0000 0000 4ff7 5d41
00000240: 0000 0000 e013 5c3c 8774 f8bf 0000 0000
00000250: 0000 0000 0000 0000 0000 0000 303c ddc0
00000260: 0000 0000 f329 09be a888 8b3a 0000 0000
00000270: e3a7 9c3f 7389 78c0 0000 0000 538f 96c0
00000280: 8389 2b34 9b4d 883f 103c d4bf 0000 0000
00000290: 6dec 85c0 0000 0000 fc65 3abc 56da 7b3f
000002a0: 0000 0000 0000 0000 0000 0000 0000 0000
000002b0: 0000 0000 0000 0000 0000 0000 0000 0000
000002c0: 0000 0000 0000 0000 0000 0000 0000 0000
000002d0: 0000 0000 0000 0000 0000 0000 0000 0000
000002e0: 0000 0000 0000 0000 0000 0000 0000 0000
000002f0: 0000 0000 0000 0000 0000 0000 0000 0000
00000300: 0000 0000 9166 9640 0000 0000 0000 0000
00000310: 4d5e ea3a 0000 0000 0c24 4c3f 891d 3b3f
00000320: 0000 0000 f2d6 cb40 0000 0000 7830 3a40
00000330: a0df a240 0000 0000 8796 713f 0000 0000
00000340: ab31 2ebb d627 593f 0000 0000 0000 0000
00000350: 0000 0000 0000 0000 6b53 3b35 0000 0000
00000360: 0000 0000 6cb3 3f35 0000 0000 d71a 5535
00000370: 0000 0000 0000 0000 4624 e235 cc1a 0734
00000380: 7c5d c635 18b0 0936 0000 0000 0000 0000
00000390: 0000 0000 2926 8b35 bbf5 a734 0000 0000
000003a0: 0000 0000 0000 0000 0000 0000 df80 ebc0
000003b0: 0000 0000 7c37 183b b135 7e3a 0000 0000
000003c0: 839f 5f3f af2e 5fc0 0000 0000 f619 c1c0
000003d0: 1963 f533 8d05 a9bd 3fb5 3bc0 0000 0000
000003e0: a123 6fc0 0000 0000 3c3a 2b3a 74ac e53e
000003f0: 0000 0000 0000 0000 0000 0000 0000 0000

exp_avg_sq f4 [21, 21]
0.0 0.0 0.0 0.0 231074.14 0.0 0.0018523436 234990.06
0.0 297023.66 15.166133 0.0 1.3378931e+06 7556.7964 1.02869156e+06 1.971969e+06
0.0 19.388443 0.0 504438.9 47668.344 0.0 0.0 0.0
0.0 997904.94 0.0 0.009584688 1.0034052e+06 0.0 1.2898484e+06 69.37564
0.0 5.659672e+06 35520.586 4.4378965e+06 8.520944e+06 0.0 110.640305 0.0
2.1830348e+06 191411.14 0.0 0.0 0.0 0.0 1302.5736 0.0
0.0021071373 0.05323618 0.0 32.673378 45.506413 0.0 2267.7183 0.0
446.95935 1403.3691 0.0 74.09936 0.0 0.64883465 38.722878 0.0
0.0 0.0 0.0 92566.414 0.0 0.00019088591 95412.97 0.0
116669.52 9.59482 0.0 547045.0 2617.1775 408300.56 786220.4 0.0
13.959894 0.0 199914.5 20184.79 0.0 0.0 0.0 0.0
0.0 0.0 0.0 0.0 0.0 0.0 0.0 0.0
0.0 0.0 0.0 0.0 0.0 0.0 0.0 0.0
0.0 0.0 0.0 0.0 0.0 0.0 0.0 0.0
0.0 0.0 0.0 0.0 0.0 0.0 0.0 0.0
0.0 0.0 0.0 0.0 0.0 0.0 0.0 0.0
0.0 0.0 69271.07 0.0 0.0023414472 59198.473 0.0 71312.91
86.3383 0.0 441533.5 173.97589 276882.12 520315.47 0.0 117.333046
0.0 124951.586 21401.926 0.0 0.0 0.0 0.0 60992.676
0.0 0.0017071402 64900.457 0.0 79289.11 8.092571 0.0 369929.97
1721.9585 276854.28 527086.44 0.0 9.940728 0.0 134884.75 14545.065
0.0 0.0 0.0 0.0 0.0 0.0 0.0 0.0
0.0 0.0 0.0 0.0 0.0 0.0 0.0 0.0
0.0 0.0 0.0 0.0 0.0 0.0 0.0 0.0
0.0 348.1209 0.0 0.0 5.0218844 0.0 73.20683 3.4608378
0.0 1060.5854 0.0 407.14972 950.50104 0.0 3.6198199 0.0
77.50171 29.255903 0.0 0.0 0.0 0.0 34199.355 0.0
0.0 33315.465 0.0 42762.316 0.0 0.0 189289.08 1204.0913
147577.86 286782.5 0.0 0.0 0.0 73065.1 5948.8936 0.0
0.0 0.0 0.0 71930.93 0.0 3.974591e-07 74799.266 0.0
91277.87 7.9484725 0.0 428224.72 2018.0925 319395.12 613488.9 0.0
11.183254 0.0 156199.78 16073.864 0.0 0.0 0.0 0.0
00000000: 0000 0000 0000 0000 0000 0000 0000 0000
00000010: 89a8 6148 0000 0000 56ca f23a 847b 6548
00000020: 0000 0000 f507 9148 7ba8 7241 0000 0000
00000030: 2951 a349 5f26 ec45 3925 7b49 08b8 f049
00000040: 0000 0000 881b 9b41 0000 0000 dd4e f648
00000050: 5834 3a47 0000 0000 0000 0000 0000 0000
00000060: 0000 0000 0fa1 7349 0000 0000 1809 1d3c
00000070: d3f8 7449 0000 0000 c373 9d49 54c0 8a42
00000080: 0000 0000 30b8 ac4a 96c0 0a47 116f 874a
00000090: f004 024b 0000 0000 d647 dd42 0000 0000
000000a0: eb3d 054a c9ec 3a48 0000 0000 0000 0000
000000b0: 0000 0000 0000 0000 5bd2 a244 0000 0000
000000c0: e617 0a3b 2e0e 5a3d 0000 0000 8ab1 0242
000000d0: 9106 3642 0000 0000 7ebb 0d45 0000 0000
000000e0: cc7a df43 d06b af44 0000 0000 df32 9442
000000f0: 0000 0000 071a 263f 3ae4 1a42 0000 0000
00000100: 0000 0000 0000 0000 0000 0000 35cb b447
00000110: 0000 0000 8c28 4839 7c5a ba47 0000 0000
00000120: c3de e347 6284 1941 0000 0000 508e 0549
00000130: d792 2345 925d c748 c6f2 3f49 0000 0000
00000140: ba5b 5f41 0000 0000 a03a 4348 94b1 9d46
00000150: 0000 0000 0000 0000 0000 0000 0000 0000
00000160: 0000 0000 0000 0000 0000 0000 0000 0000
00000170: 0000 0000 0000 0000 0000 0000 0000 0000
00000180: 0000 0000 0000 0000 0000 0000 0000 0000
00000190: 0000 0000 0000 0000 0000 0000 0000 0000
000001a0: 0000 0000 0000 0000 0000 0000 0000 0000
000001b0: 0000 0000 0000 0000 0000 0000 0000 0000
000001c0: 0000 0000 0000 0000 0000 0000 0000 0000
000001d0: 0000 0000 0000 0000 0000 0000 0000 0000
000001e0: 0000 0000 0000 0000 0000 0000 0000 0000
000001f0: 0000 0000 0000 0000 0000 0000 0000 0000
00000200: 0000 0000 0000 0000 894b 8747 0000 0000
00000210: f772 193b 793e 6747 0000 0000 7448 8b47
00000220: 36ad ac42 0000 0000 b097 d748 d4f9 2d43
00000230: 4432 8748 6f0f fe48 0000 0000 85aa ea42
00000240: 0000 0000 cb0b f447 da33 a746 0000 0000
00000250: 0000 0000 0000 0000 0000 0000 ad40 6e47
00000260: 0000 0000 1fc2 df3a 7584 7d47 0000 0000
00000270: 8edc 9a47 2c7b 0141 0000 0000 3fa1 b448
00000280: ac3e d744 c92e 8748 e7ae 0049 0000 0000
00000290: 390d 1f41 0000 0000 30b9 0348 4344 6346
000002a0: 0000 0000 0000 0000 0000 0000 0000 0000
000002b0: 0000 0000 0000 0000 0000 0000 0000 0000
000002c0: 0000 0000 0000 0000 0000 0000 0000 0000
000002d0: 0000 0000 0000 0000 0000 0000 0000 0000
000002e0: 0000 0000 0000 0000 0000 0000 0000 0000
000002f0: 0000 0000 0000 0000 0000 0000 0000 0000
00000300: 0000 0000 7a0f ae43 0000 0000 0000 0000
00000310: 47b3 a040 0000 0000 e669 9242 5e7e 5d40
00000320: 0000 0000 bc92 8444 0000 0000 2a93 cb43
00000330: 11a0 6d44 0000 0000 21ab 6740 0000 0000
00000340: e000 9b42 170c ea41 0000 0000 0000 0000
00000350: 0000 0000 0000 0000 5b97 0547 0000 0000
00000360: 0000 0000 7723 0247 0000 0000 510a 2747
00000370: 0000 0000 0000 0000 45da 3848 ec82 9644
00000380: 771e 1048 d007 8c48 0000 0000 0000 0000
00000390: 0000 0000 8db4 8e47 26e7 b945 0000 0000
000003a0: 0000 0000 0000 0000 0000 0000 777d 8c47
000003b0: 0000 0000 5d62 d534 a217 9247 0000 0000
000003c0: ef46 b247 e359 fe40 0000 0000 1718 d148
000003d0: f642 fc44 64f4 9b48 0ec7 1549 0000 0000
000003e0: 9cee 3241 0000 0000 f289 1848 7527 7b46
000003f0: 0000 0000 0000 0000 0000 0000 0000 0000

exp_avg f4 [21]
0.029979624 0.07111544 0.08122665 -0.025201432 0.0 0.0 0.08084729 -0.020480996
0.0 0.014872009 1.3475135e-09 -0.022559062 0.0 1.240124e-09 -0.072845705 -0.018953882
0.0 -0.066252194 0.0018290388 0.0 -0.061007544
00000000: d497 f53c f9a4 913d 285a a63d 3c73 cebc
00000010: 0000 0000 0000 0000 4493 a53d c3c7 a7bc
00000020: 0000 0000 baa9 733c 6b33 b930 c8cd b8bc
00000030: 0000 0000 fc70 aa30 2130 95bd 2c45 9bbc
00000040: 0000 0000 3baf 87bd 5cbc ef3a 0000 0000
00000050: 0ce3 79bd

exp_avg_sq f4 [21]
0.88812935 3.6876075 0.013117317 0.36759067 0.0 0.0 0.38545087 0.25309247
0.0 0.0028271354 0.12050482 0.28908026 0.0 1.3538942 8.408281 0.22023034
0.0 0.06249576 2.1475198e-07 0.0 2.6014242
00000000: 725c 633f c301 6c40 04ea 563c d834 bc3e
00000010: 0000 0000 0000 0000 d159 c53e 5695 813e
00000020: 0000 0000 7647 393b 3bcb f63d 5402 943e
00000030: 0000 0000 684c ad3f 5288 0641 1084 613e
00000040: 0000 0000 8efb 7f3d 9396 6634 0000 0000
00000050: bc7d 2640

exp_avg f4 [2, 21]
21.338135 31.932003 26.685802 22.198483 0.0 0.0 27.795708 34.268097
0.0 -4.803662 1.9862257e-06 10.112508 0.0 1.14036034e-07 -3.7233245 11.347264
0.0 10.65064 2.615665 0.0 23.145864 -25.80056 -28.838669 -25.468412
-24.685272 0.0 0.0 -30.310003 -37.661922 0.0 4.3201823 -1.9966458e-06
-13.097991 0.0 -1.18367495e-07 3.1165202 -9.75894 0.0 -9.053424 -0.2691875
0.0 -25.56317
00000000: 80b4 aa41 be74 ff41 867c d541 7e96 b141
00000010: 0000 0000 0000 0000 9c5d de41 8812 0942
00000020: 0000 0000 99b7 99c0 194b 0536 d5cc 2141
00000030: 0000 0000 f9e3 f433 f34a 6ec0 658e 3541
00000040: 0000 0000 0569 2a41 0e67 2740 0000 0000
00000050: bb2a b941 8c67 cec1 98b5 e6c1 4fbf cbc1
00000060: 707b c5c1 0000 0000 0000 0000 e37a f2c1
00000070: cfa5 16c2 0000 0000 ef3e 8a40 1dfe 05b6
00000080: 5f91 51c1 0000 0000 3831 feb3 1175 4740
00000090: 9e24 1cc1 0000 0000 d3da 10c1 f2d2 89be
000000a0: 0000 0000 5f81 ccc1

exp_avg_sq f4 [2, 21]
1.8128812e+07 259637.64 67.72015 1.9852494e+06 0.0 0.0 24659.691 9.482817e+06
0.0 952.21814 325543.03 2.6234775e+06 0.0 11428.516 7.872994e+06 2.502628e+06
0.0 440.53394 0.68930954 0.0 7.228083e+06 1.8552234e+07 276042.3 65.34533
2.0108512e+06 0.0 0.0 24894.332 9.695082e+06 0.0 938.56824 328618.28
2.650257e+06 0.0 12336.971 8.0114345e+06 2.555076e+06 0.0 434.224 0.0072461916
0.0 7.413775e+06
00000000: d64f 8a4b 698d 7d48 b870 8742 0b57 f249
00000010: 0000 0000 0000 0000 62a7 c046 41b2 104b
00000020: 0000 0000 f60d 6e44 e1f4 9e48 d61f 204a
00000030: 0000 0000 1092 3246 c443 f04a 90bf 184a
00000040: 0000 0000 5844 dc43 9776 303f 0000 0000
00000050: 6695 dc4a d58a 8d4b 4ac9 8648 cfb0 8242
00000060: 1a77 f549 0000 0000 0000 0000 aa7c c246
00000070: 6aef 134b 0000 0000 5ea4 6a44 4975 a048
00000080: 44c2 214a 0000 0000 e2c3 4046 557d f44a
00000090: 10f3 1b4a 0000 0000 ac1c d943 7671 ed3b
000000a0: 0000 0000 1e40 e24a

exp_avg f4 [2]
0.3447572 -0.3634386
00000000: 0484 b03e a014 babe

exp_avg_sq f4 [2]
92.89225 94.12952
00000000: d5c8 b942 5042 bc42
