runs/ml-model-test-109/model.pt (torch, 7593 bytes, 18 tensors)

fc1.weight f4 [8, 4]
0.29008526 0.31764197 0.35248128 -0.0683386 -0.35381246 -0.022445917 -0.36347896 0.16856849
0.35489613 0.27410123 0.2989003 0.32171223 -0.2532488 0.21611705 -0.17285664 -0.25827453
-0.27197433 -0.3627295 -0.05966872 -0.35273165 0.10537435 0.35964352 0.28750572 -0.31113088
0.1584273 0.10024984 0.370046 -0.18036151 0.010489122 -0.27443242 -0.22051467 0.06846591
00000000: 0e86 943e f8a1 a23e 6d78 b43e 1cf5 8bbd
00000010: e826 b5be 80e0 b7bc ea19 babe 389d 2c3e
00000020: f2b4 b53e ff56 8c3e 7609 993e 77b7 a43e
00000030: d4a9 81be ca4d 5d3e 5501 31be 8f3c 84be
00000040: 3840 8bbe aeb7 b9be 3067 74bd 3e99 b4be
00000050: 82ce d73d 3223 b83e f333 933e 8c4c 9fbe
00000060: c43a 223e ca4f cd3d ab76 bd3e b0b0 38be
00000070: 91da 2b3c 6882 8cbe 99ce 61be db37 8c3d

fc1.bias f4 [8]
-0.041835476 0.27378517 -0.456452 0.41388974 0.19270599 0.4605081 -0.47075534 0.21307819
00000000: ad5b 2bbd 922d 8c3e 14b4 e9be 5be9 d33e
00000010: b854 453e b8c7 eb3e d806 f1be 2b31 5a3e

fc2.weight f4 [8, 8]
0.110897586 -0.2723285 -0.090940915 0.21064211 0.1014856 0.13700415 -0.21709321 -0.28064936
-0.14898802 0.025545204 0.2911929 0.28865823 -0.16425331 -0.04503904 0.047511324 -0.1261964
-0.27873734 0.30127105 0.00838752 0.16961214 0.12315322 0.29595086 -0.011754798 -0.23795983
0.17149825 0.076246135 0.10368369 -0.015864808 0.11408035 0.20818841 -0.24000154 0.18222368
-0.11243405 0.2991078 -0.094123475 0.11034606 0.21687987 -0.34163907 -0.13870478 0.023729771
-0.12743509 -0.123262204 0.048185214 0.16511865 -0.010595886 0.3148834 -0.010599631 0.23240818
-0.02921066 0.119867444 0.17745297 -0.29575172 0.13154255 0.19907029 0.15667744 0.05077393
0.23294635 0.22146331 0.18494925 -0.15299164 -0.33854157 0.122010894 0.0011755169 -0.09342229
00000000: 461e e33d a46e 8bbe 3b3f babd 91b2 573e
00000010: afd7 cf3d d14a 0c3e af4d 5ebe 46b1 8fbe
00000020: 5190 18be 2d44 d13c 3c17 953e 03cb 933e
00000030: 0532 28be db7a 38bd 3c9b 423d a139 01be
00000040: a9b6 8ebe 3340 9a3e cf6b 093c ceae 2d3e
00000050: c137 fc3d df86 973e 3297 40bc beab 73be
00000060: 3d9d 2f3e ef26 9c3d 1d58 d43d eaf6 81bc
00000070: f5a2 e93d 582f 553e f7c2 75be d898 3a3e
00000080: d343 e6bd a824 993e cfc3 c0bd 1dfd e13d
00000090: c215 5e3e 51eb aebe a008 0ebe f064 c23c
000000a0: 587e 02be e570 fcbd dc5d 453d dd14 293e
000000b0: 5e9a 2dbc 6638 a13e 13aa 2dbc 69fc 6d3e
000000c0: 324b efbc 107d f53d 3bb6 353e c56c 97be
000000d0: 17b3 063e 15d9 4b3e 0d70 203e 53f8 4f3d
000000e0: 7d89 6e3e 47c7 623e 5663 3d3e d7a9 1cbe
000000f0: 5255 adbe d9e0 f93d cd13 9a3a 3054 bfbd

fc2.bias f4 [8]
-0.08767983 -0.31257617 -0.10144409 0.14464213 -0.13519196 -0.1706764 0.34965986 -0.042585064
00000000: 7c91 b3bd fc09 a0be ebc1 cfbd 111d 143e
00000010: c36f 0abe cbc5 2ebe 9e06 b33e ad6d 2ebd

fc3.weight f4 [2, 8]
-0.00790927 -0.24644494 0.16681561 -0.1025202 -0.28005317 -0.31180358 0.34684744 -0.21717112
-0.2891304 0.23544604 -0.30844566 -0.23659712 -0.27594763 0.18183762 -0.22398038 0.043368056
00000000: e295 01bc 105c 7cbe b6d1 2a3e 1cf6 d1bd
00000010: 2163 8fbe b8a4 9fbe fd95 b13e 1b62 5ebe
00000020: e608 94be c418 713e 97ec 9dbe 8446 72be
00000030: 0249 8dbe a433 3a3e 1d5b 65be b4a2 313d

fc3.bias f4 [2]
-0.10892129 0.02204158
00000000: 2012 dfbd 8b90 b43c

exp_avg f4 [8, 4]
-0.63103694 0.5398449 -0.09119282 -0.0012095448 0.0 0.0 0.0 0.0
-2.4926012 4.5801044 2.0875058 0.018233579 -0.24940549 2.1723666 1.9229616 0.004807404
0.0 0.0 0.0 0.0 1.6365622 -2.8620684 -1.225507 0.0065184007
2.507679 -1.3919079 1.1157699 -0.0084013995 -1.0140108 0.82413363 -0.18987711 0.00039019255
00000000: a38b 21bf 4633 0a3f 4dc3 babd 9789 9eba
00000010: 0000 0000 0000 0000 0000 0000 0000 0000
00000020: c786 1fc0 3790 9240 b299 0540 965e 953c
00000030: 2764 7fbe 0e08 0b40 9b23 f63f 6d87 9d3b
00000040: 0000 0000 0000 0000 0000 0000 0000 0000
00000050: df7a d13f 212c 37c0 6add 9cbf 4f98 d53b
00000060: d07d 2040 0a2a b2bf 8cd1 8e3f 06a6 09bc
00000070: 1bcb 81bf 6cfa 523f 256f 42be c292 cc39

exp_avg_sq f4 [8, 4]
951.8221 449.20724 160.10176 0.00077836454 0.0 0.0 0.0 0.0
21622.605 9399.974 3014.73 0.01689374 0.49227062 115.26827 126.88787 0.0007930492
0.0 0.0 0.0 0.0 1006.0228 340.7225 371.17444 0.0022275948
1375.8627 687.15796 175.79266 0.0011895348 108591.12 49445.996 12529.571 0.068804525
00000000: 9df4 6d44 879a e043 0d1a 2043 290b 4c3a
00000010: 0000 0000 0000 0000 0000 0000 0000 0000
00000020: 36ed a846 e5df 1246 ae6b 3c45 be64 8a3c
00000030: e50a fc3e 5b89 e642 97c6 fd42 a2e4 4f3a
00000040: 0000 0000 0000 0000 0000 0000 0000 0000
00000050: 7681 7b44 7b5c aa43 5496 b943 d7fc 113b
00000060: 9bfb ab44 1cca 2b44 ecca 2f43 2aea 9b3a
00000070: 8f17 d447 ff25 4147 49c6 4346 63e9 8c3d

exp_avg f4 [8]
-0.00022798026 0.0 0.0052187634 0.004807404 0.0 -0.003063767 0.0027894273 -0.00047469296
00000000: fc0d 6fb9 0000 0000 2902 ab3b 6d87 9d3b
00000010: 0000 0000 7bc9 48bb d3ce 363b 36e0 f8b9

exp_avg_sq f4 [8]
0.0010006358 0.0 0.018842096 0.0007930493 0.0 0.0023198389 0.0010987023 0.078309774
00000000: c427 833a 0000 0000 bd5a 9a3c a3e4 4f3a
00000010: 0000 0000 7008 183b 5502 903a e060 a03d

exp_avg f4 [8, 8]
-5.494034 0.0 -4.6886897 -0.45768595 0.0 -5.3307414 -3.8370347 0.0
4.2042537 0.0 2.8621387 0.5735259 0.0 4.299357 2.3652966 -3.055427
-3.7588825 0.0 -3.1238463 -0.6260046 0.0 -3.7943697 -2.5676444 0.0
-0.3603993 0.0 -0.78180736 -0.29917362 0.0 0.03468057 -0.6191196 -0.9243486
0.0 0.0 0.0 0.0 0.0 0.0 0.0 0.0
4.597436 0.0 2.9469655 0.5389042 0.0 4.841859 2.4446285 -3.7378132
-5.225639 0.0 -3.3819628 -0.63437694 0.0 -5.4767013 -2.803727 4.18713
2.6703982 0.0 1.5544125 0.2415998 0.0 2.9288223 1.2978259 -2.523597
00000000: 20cf afc0 0000 0000 bf09 96c0 d055 eabe
00000010: 0000 0000 6f95 aac0 fa91 75c0 0000 0000
00000020: 3f89 8640 0000 0000 482d 3740 98d2 123f
00000030: 0000 0000 5594 8940 0561 1740 1e8c 43c0
00000040: 8891 70c0 0000 0000 19ed 47c0 d641 20bf
00000050: 0000 0000 f4d6 72c0 4954 24c0 0000 0000
00000060: 4286 b8be 0000 0000 8724 48bf 492d 99be
00000070: 0000 0000 370d 0e3d 9f7e 1ebf 1ca2 6cbf
00000080: 0000 0000 0000 0000 0000 0000 0000 0000
00000090: 0000 0000 0000 0000 0000 0000 0000 0000
000000a0: 321e 9340 0000 0000 159b 3c40 a0f5 093f
000000b0: 0000 0000 82f0 9a40 cb74 1c40 5538 6fc0
000000c0: 6f38 a7c0 0000 0000 1472 58c0 8766 22bf
000000d0: 0000 0000 2341 afc0 4370 33c0 f8fc 8540
000000e0: cee7 2a40 0000 0000 fdf6 c63f f065 773e
000000f0: 0000 0000 d371 3b40 291f a63f 9d82 21c0

exp_avg_sq f4 [8, 8]
266.0835 0.0 236.73883 0.38490006 0.0 176.39056 146.05244 0.0
38619.47 0.0 52672.688 0.75387186 0.0 887.0907 46401.785 15796.792
201.89738 0.0 160.88358 0.55875844 0.0 166.83272 100.51427 0.0
4321.7363 0.0 5863.0435 0.18265487 0.0 91.383026 5329.6167 1949.415
0.0 0.0 0.0 0.0 0.0 0.0 0.0 0.0
1494.1611 0.0 1723.5605 0.52111644 0.0 732.1926 1164.8156 261.4201
46914.133 0.0 63878.65 0.95700884 0.0 1198.9684 56650.492 19601.074
11509.061 0.0 15718.623 0.18830563 0.0 257.00238 13766.547 4615.573
00000000: b00a 8543 0000 0000 24bd 6c43 9f11 c53e
00000010: 0000 0000 fc63 3043 6d0d 1243 0000 0000
00000020: 78db 1647 0000 0000 b0c0 4d47 bffd 403f
00000030: 0000 0000 cec5 5d44 c941 3547 2bd3 7646
00000040: bbe5 4943 0000 0000 32e2 2043 cb0a 0f3f
00000050: 0000 0000 2dd5 2643 4e07 c942 0000 0000
00000060: e40d 8745 0000 0000 5938 b745 e109 3b3e
00000070: 0000 0000 1cc4 b642 ef8c a645 48ad f344
00000080: 0000 0000 0000 0000 0000 0000 0000 0000
00000090: 0000 0000 0000 0000 0000 0000 0000 0000
000000a0: 28c5 ba44 0000 0000 f071 d744 e367 053f
000000b0: 0000 0000 540c 3744 199a 9144 c6b5 8243
000000c0: 2242 3747 0000 0000 a686 7947 88fe 743f
000000d0: 0000 0000 fdde 9544 7e4a 5d47 2622 9946
000000e0: 3ed4 3346 0000 0000 7e9a 7546 31d3 403e
000000f0: 0000 0000 4e80 8043 301a 5746 963c 9045

exp_avg f4 [8]
-0.020496547 0.01500408 -0.013918046 -0.0018398144 0.0 0.016218254 -0.018468203 0.009258123
00000000: 60e8 a7bc acd3 753c 8408 64bc ed25 f1ba
00000010: 0000 0000 25dc 843c a14a 97bc 62af 173c

exp_avg_sq f4 [8]
0.0038815693 0.5795744 0.0028528115 0.064128675 0.0 0.023892596 0.7028558 0.17301644
00000000: ed61 7e3b fd5e 143f 3cf6 3a3b e555 833d
00000010: 0000 0000 68ba c33c 5cee 333f 392b 313e

exp_avg f4 [2, 8]
-0.2727103 -1.4501531 -0.15519886 -1.793937 0.0 -0.2840962 -3.1610463 -6.150196
0.5722424 1.3772722 0.3870971 1.4108226 0.0 1.154948 2.126768 3.083554
00000000: afa0 8bbe 9e9e b9bf 73ec 1ebe ba9f e5bf
00000010: 0000 0000 0f75 91be 954e 4ac0 68ce c4c0
00000020: 7a7e 123f 754a b03f 9731 c63e d695 b43f
00000030: 0000 0000 56d5 933f f81c 0840 f358 4540

exp_avg_sq f4 [2, 8]
2.2746418 4741.9116 0.09692707 3238.204 0.0 257.94952 21463.957 23626.568
2.1307077 4677.562 0.17791452 3359.484 0.0 265.59277 21749.232 23585.496
00000000: bb93 1140 4b2f 9445 b381 c63d 4463 4a45
00000010: 0000 0000 8af9 8043 eaaf a746 2395 b846
00000020: 845d 0840 7f2c 9245 392f 363e bef7 5145
00000030: 0000 0000 e0cb 8443 77ea a946 fe42 b846

exp_avg f4 [2]
-0.037659187 0.02423816
00000000: 8540 1abd 1b8f c63c

exp_avg_sq f4 [2]
2.121232 2.126588
00000000: 44c2 0740 051a 0840
